{
  "nodes": [
    {
      "op": "_ones", 
      "name": "_ones16", 
      "attr": {
        "dtype": "float32", 
        "shape": "[24]"
      }, 
      "inputs": []
    }, 
    {
      "op": "_mul_scalar", 
      "name": "_mulscalar33", 
      "attr": {"scalar": "1"}, 
      "inputs": [[0, 0, 0]]
    }, 
    {
      "op": "null", 
      "name": "w_embed_weight", 
      "attr": {
        "__init__": "[\"xavier\", {\"rnd_type\": \"uniform\", \"magnitude\": 3, \"factor_type\": \"avg\"}]", 
        "__shape__": "[9705, 256]"
      }, 
      "inputs": []
    }, 
    {
      "op": "Embedding", 
      "name": "embedding0", 
      "attr": {
        "input_dim": "9705", 
        "output_dim": "256"
      }, 
      "inputs": [[1, 0, 0], [2, 0, 0]]
    }, 
    {
      "op": "null", 
      "name": "data", 
      "inputs": []
    }, 
    {
      "op": "null", 
      "name": "conv1_1_weight", 
      "inputs": []
    }, 
    {
      "op": "null", 
      "name": "conv1_1_bias", 
      "inputs": []
    }, 
    {
      "op": "Convolution", 
      "name": "conv1_1", 
      "attr": {
        "cudnn_off": "False", 
        "cudnn_tune": "off", 
        "dilate": "(1,1)", 
        "kernel": "(3,3)", 
        "no_bias": "False", 
        "num_filter": "64", 
        "num_group": "1", 
        "pad": "(1,1)", 
        "stride": "(1,1)", 
        "workspace": "1024"
      }, 
      "inputs": [[4, 0, 0], [5, 0, 0], [6, 0, 0]]
    }, 
    {
      "op": "Activation", 
      "name": "relu1_1", 
      "attr": {"act_type": "relu"}, 
      "inputs": [[7, 0, 0]]
    }, 
    {
      "op": "null", 
      "name": "conv1_2_weight", 
      "inputs": []
    }, 
    {
      "op": "null", 
      "name": "conv1_2_bias", 
      "inputs": []
    }, 
    {
      "op": "Convolution", 
      "name": "conv1_2", 
      "attr": {
        "cudnn_off": "False", 
        "cudnn_tune": "off", 
        "dilate": "(1,1)", 
        "kernel": "(3,3)", 
        "no_bias": "False", 
        "num_filter": "64", 
        "num_group": "1", 
        "pad": "(1,1)", 
        "stride": "(1,1)", 
        "workspace": "1024"
      }, 
      "inputs": [[8, 0, 0], [9, 0, 0], [10, 0, 0]]
    }, 
    {
      "op": "Activation", 
      "name": "relu1_2", 
      "attr": {"act_type": "relu"}, 
      "inputs": [[11, 0, 0]]
    }, 
    {
      "op": "Pooling", 
      "name": "pool1", 
      "attr": {
        "global_pool": "False", 
        "kernel": "(2,2)", 
        "pad": "(0,0)", 
        "pool_type": "max", 
        "pooling_convention": "full", 
        "stride": "(2,2)"
      }, 
      "inputs": [[12, 0, 0]]
    }, 
    {
      "op": "null", 
      "name": "conv2_1_weight", 
      "inputs": []
    }, 
    {
      "op": "null", 
      "name": "conv2_1_bias", 
      "inputs": []
    }, 
    {
      "op": "Convolution", 
      "name": "conv2_1", 
      "attr": {
        "cudnn_off": "False", 
        "cudnn_tune": "off", 
        "dilate": "(1,1)", 
        "kernel": "(3,3)", 
        "no_bias": "False", 
        "num_filter": "128", 
        "num_group": "1", 
        "pad": "(1,1)", 
        "stride": "(1,1)", 
        "workspace": "1024"
      }, 
      "inputs": [[13, 0, 0], [14, 0, 0], [15, 0, 0]]
    }, 
    {
      "op": "Activation", 
      "name": "relu2_1", 
      "attr": {"act_type": "relu"}, 
      "inputs": [[16, 0, 0]]
    }, 
    {
      "op": "null", 
      "name": "conv2_2_weight", 
      "inputs": []
    }, 
    {
      "op": "null", 
      "name": "conv2_2_bias", 
      "inputs": []
    }, 
    {
      "op": "Convolution", 
      "name": "conv2_2", 
      "attr": {
        "cudnn_off": "False", 
        "cudnn_tune": "off", 
        "dilate": "(1,1)", 
        "kernel": "(3,3)", 
        "no_bias": "False", 
        "num_filter": "128", 
        "num_group": "1", 
        "pad": "(1,1)", 
        "stride": "(1,1)", 
        "workspace": "1024"
      }, 
      "inputs": [[17, 0, 0], [18, 0, 0], [19, 0, 0]]
    }, 
    {
      "op": "Activation", 
      "name": "relu2_2", 
      "attr": {"act_type": "relu"}, 
      "inputs": [[20, 0, 0]]
    }, 
    {
      "op": "Pooling", 
      "name": "pool2", 
      "attr": {
        "global_pool": "False", 
        "kernel": "(2,2)", 
        "pad": "(0,0)", 
        "pool_type": "max", 
        "pooling_convention": "full", 
        "stride": "(2,2)"
      }, 
      "inputs": [[21, 0, 0]]
    }, 
    {
      "op": "null", 
      "name": "conv3_1_weight", 
      "inputs": []
    }, 
    {
      "op": "null", 
      "name": "conv3_1_bias", 
      "inputs": []
    }, 
    {
      "op": "Convolution", 
      "name": "conv3_1", 
      "attr": {
        "cudnn_off": "False", 
        "cudnn_tune": "off", 
        "dilate": "(1,1)", 
        "kernel": "(3,3)", 
        "no_bias": "False", 
        "num_filter": "256", 
        "num_group": "1", 
        "pad": "(1,1)", 
        "stride": "(1,1)", 
        "workspace": "1024"
      }, 
      "inputs": [[22, 0, 0], [23, 0, 0], [24, 0, 0]]
    }, 
    {
      "op": "Activation", 
      "name": "relu3_1", 
      "attr": {"act_type": "relu"}, 
      "inputs": [[25, 0, 0]]
    }, 
    {
      "op": "null", 
      "name": "conv3_2_weight", 
      "inputs": []
    }, 
    {
      "op": "null", 
      "name": "conv3_2_bias", 
      "inputs": []
    }, 
    {
      "op": "Convolution", 
      "name": "conv3_2", 
      "attr": {
        "cudnn_off": "False", 
        "cudnn_tune": "off", 
        "dilate": "(1,1)", 
        "kernel": "(3,3)", 
        "no_bias": "False", 
        "num_filter": "256", 
        "num_group": "1", 
        "pad": "(1,1)", 
        "stride": "(1,1)", 
        "workspace": "1024"
      }, 
      "inputs": [[26, 0, 0], [27, 0, 0], [28, 0, 0]]
    }, 
    {
      "op": "Activation", 
      "name": "relu3_2", 
      "attr": {"act_type": "relu"}, 
      "inputs": [[29, 0, 0]]
    }, 
    {
      "op": "null", 
      "name": "conv3_3_weight", 
      "inputs": []
    }, 
    {
      "op": "null", 
      "name": "conv3_3_bias", 
      "inputs": []
    }, 
    {
      "op": "Convolution", 
      "name": "conv3_3", 
      "attr": {
        "cudnn_off": "False", 
        "cudnn_tune": "off", 
        "dilate": "(1,1)", 
        "kernel": "(3,3)", 
        "no_bias": "False", 
        "num_filter": "256", 
        "num_group": "1", 
        "pad": "(1,1)", 
        "stride": "(1,1)", 
        "workspace": "1024"
      }, 
      "inputs": [[30, 0, 0], [31, 0, 0], [32, 0, 0]]
    }, 
    {
      "op": "Activation", 
      "name": "relu3_3", 
      "attr": {"act_type": "relu"}, 
      "inputs": [[33, 0, 0]]
    }, 
    {
      "op": "null", 
      "name": "conv3_4_weight", 
      "inputs": []
    }, 
    {
      "op": "null", 
      "name": "conv3_4_bias", 
      "inputs": []
    }, 
    {
      "op": "Convolution", 
      "name": "conv3_4", 
      "attr": {
        "cudnn_off": "False", 
        "cudnn_tune": "off", 
        "dilate": "(1,1)", 
        "kernel": "(3,3)", 
        "no_bias": "False", 
        "num_filter": "256", 
        "num_group": "1", 
        "pad": "(1,1)", 
        "stride": "(1,1)", 
        "workspace": "1024"
      }, 
      "inputs": [[34, 0, 0], [35, 0, 0], [36, 0, 0]]
    }, 
    {
      "op": "Activation", 
      "name": "relu3_4", 
      "attr": {"act_type": "relu"}, 
      "inputs": [[37, 0, 0]]
    }, 
    {
      "op": "Pooling", 
      "name": "pool3", 
      "attr": {
        "global_pool": "False", 
        "kernel": "(2,2)", 
        "pad": "(0,0)", 
        "pool_type": "max", 
        "pooling_convention": "full", 
        "stride": "(2,2)"
      }, 
      "inputs": [[38, 0, 0]]
    }, 
    {
      "op": "null", 
      "name": "conv4_1_weight", 
      "inputs": []
    }, 
    {
      "op": "null", 
      "name": "conv4_1_bias", 
      "inputs": []
    }, 
    {
      "op": "Convolution", 
      "name": "conv4_1", 
      "attr": {
        "cudnn_off": "False", 
        "cudnn_tune": "off", 
        "dilate": "(1,1)", 
        "kernel": "(3,3)", 
        "no_bias": "False", 
        "num_filter": "512", 
        "num_group": "1", 
        "pad": "(1,1)", 
        "stride": "(1,1)", 
        "workspace": "1024"
      }, 
      "inputs": [[39, 0, 0], [40, 0, 0], [41, 0, 0]]
    }, 
    {
      "op": "Activation", 
      "name": "relu4_1", 
      "attr": {"act_type": "relu"}, 
      "inputs": [[42, 0, 0]]
    }, 
    {
      "op": "null", 
      "name": "conv4_2_weight", 
      "inputs": []
    }, 
    {
      "op": "null", 
      "name": "conv4_2_bias", 
      "inputs": []
    }, 
    {
      "op": "Convolution", 
      "name": "conv4_2", 
      "attr": {
        "cudnn_off": "False", 
        "cudnn_tune": "off", 
        "dilate": "(1,1)", 
        "kernel": "(3,3)", 
        "no_bias": "False", 
        "num_filter": "512", 
        "num_group": "1", 
        "pad": "(1,1)", 
        "stride": "(1,1)", 
        "workspace": "1024"
      }, 
      "inputs": [[43, 0, 0], [44, 0, 0], [45, 0, 0]]
    }, 
    {
      "op": "Activation", 
      "name": "relu4_2", 
      "attr": {"act_type": "relu"}, 
      "inputs": [[46, 0, 0]]
    }, 
    {
      "op": "null", 
      "name": "conv4_3_weight", 
      "inputs": []
    }, 
    {
      "op": "null", 
      "name": "conv4_3_bias", 
      "inputs": []
    }, 
    {
      "op": "Convolution", 
      "name": "conv4_3", 
      "attr": {
        "cudnn_off": "False", 
        "cudnn_tune": "off", 
        "dilate": "(1,1)", 
        "kernel": "(3,3)", 
        "no_bias": "False", 
        "num_filter": "512", 
        "num_group": "1", 
        "pad": "(1,1)", 
        "stride": "(1,1)", 
        "workspace": "1024"
      }, 
      "inputs": [[47, 0, 0], [48, 0, 0], [49, 0, 0]]
    }, 
    {
      "op": "Activation", 
      "name": "relu4_3", 
      "attr": {"act_type": "relu"}, 
      "inputs": [[50, 0, 0]]
    }, 
    {
      "op": "null", 
      "name": "conv4_4_weight", 
      "inputs": []
    }, 
    {
      "op": "null", 
      "name": "conv4_4_bias", 
      "inputs": []
    }, 
    {
      "op": "Convolution", 
      "name": "conv4_4", 
      "attr": {
        "cudnn_off": "False", 
        "cudnn_tune": "off", 
        "dilate": "(1,1)", 
        "kernel": "(3,3)", 
        "no_bias": "False", 
        "num_filter": "512", 
        "num_group": "1", 
        "pad": "(1,1)", 
        "stride": "(1,1)", 
        "workspace": "1024"
      }, 
      "inputs": [[51, 0, 0], [52, 0, 0], [53, 0, 0]]
    }, 
    {
      "op": "Activation", 
      "name": "relu4_4", 
      "attr": {"act_type": "relu"}, 
      "inputs": [[54, 0, 0]]
    }, 
    {
      "op": "Pooling", 
      "name": "pool4", 
      "attr": {
        "global_pool": "False", 
        "kernel": "(2,2)", 
        "pad": "(0,0)", 
        "pool_type": "max", 
        "pooling_convention": "full", 
        "stride": "(2,2)"
      }, 
      "inputs": [[55, 0, 0]]
    }, 
    {
      "op": "null", 
      "name": "conv5_1_weight", 
      "inputs": []
    }, 
    {
      "op": "null", 
      "name": "conv5_1_bias", 
      "inputs": []
    }, 
    {
      "op": "Convolution", 
      "name": "conv5_1", 
      "attr": {
        "cudnn_off": "False", 
        "cudnn_tune": "off", 
        "dilate": "(1,1)", 
        "kernel": "(3,3)", 
        "no_bias": "False", 
        "num_filter": "512", 
        "num_group": "1", 
        "pad": "(1,1)", 
        "stride": "(1,1)", 
        "workspace": "1024"
      }, 
      "inputs": [[56, 0, 0], [57, 0, 0], [58, 0, 0]]
    }, 
    {
      "op": "Activation", 
      "name": "relu5_1", 
      "attr": {"act_type": "relu"}, 
      "inputs": [[59, 0, 0]]
    }, 
    {
      "op": "null", 
      "name": "conv5_2_weight", 
      "inputs": []
    }, 
    {
      "op": "null", 
      "name": "conv5_2_bias", 
      "inputs": []
    }, 
    {
      "op": "Convolution", 
      "name": "conv5_2", 
      "attr": {
        "cudnn_off": "False", 
        "cudnn_tune": "off", 
        "dilate": "(1,1)", 
        "kernel": "(3,3)", 
        "no_bias": "False", 
        "num_filter": "512", 
        "num_group": "1", 
        "pad": "(1,1)", 
        "stride": "(1,1)", 
        "workspace": "1024"
      }, 
      "inputs": [[60, 0, 0], [61, 0, 0], [62, 0, 0]]
    }, 
    {
      "op": "Activation", 
      "name": "relu5_2", 
      "attr": {"act_type": "relu"}, 
      "inputs": [[63, 0, 0]]
    }, 
    {
      "op": "null", 
      "name": "conv5_3_weight", 
      "inputs": []
    }, 
    {
      "op": "null", 
      "name": "conv5_3_bias", 
      "inputs": []
    }, 
    {
      "op": "Convolution", 
      "name": "conv5_3", 
      "attr": {
        "cudnn_off": "False", 
        "cudnn_tune": "off", 
        "dilate": "(1,1)", 
        "kernel": "(3,3)", 
        "no_bias": "False", 
        "num_filter": "512", 
        "num_group": "1", 
        "pad": "(1,1)", 
        "stride": "(1,1)", 
        "workspace": "1024"
      }, 
      "inputs": [[64, 0, 0], [65, 0, 0], [66, 0, 0]]
    }, 
    {
      "op": "transpose", 
      "name": "transpose0", 
      "attr": {"axes": "(0, 2, 3, 1)"}, 
      "inputs": [[67, 0, 0]]
    }, 
    {
      "op": "Reshape", 
      "name": "reshape0", 
      "attr": {"shape": "[-1, 196, 512]"}, 
      "inputs": [[68, 0, 0]]
    }, 
    {
      "op": "mean", 
      "name": "mean0", 
      "attr": {"axis": "1"}, 
      "inputs": [[69, 0, 0]]
    }, 
    {
      "op": "null", 
      "name": "w_inith_weight", 
      "attr": {
        "__init__": "[\"xavier\", {\"rnd_type\": \"uniform\", \"magnitude\": 3, \"factor_type\": \"avg\"}]", 
        "__shape__": "[512, 256]"
      }, 
      "inputs": []
    }, 
    {
      "op": "dot", 
      "name": "dot0", 
      "inputs": [[70, 0, 0], [71, 0, 0]]
    }, 
    {
      "op": "null", 
      "name": "b_inith_bias", 
      "attr": {
        "__init__": "[\"xavier\", {\"rnd_type\": \"uniform\", \"magnitude\": 3, \"factor_type\": \"avg\"}]", 
        "__shape__": "[256]"
      }, 
      "inputs": []
    }, 
    {
      "op": "broadcast_add", 
      "name": "broadcast_plus0", 
      "inputs": [[72, 0, 0], [73, 0, 0]]
    }, 
    {
      "op": "tanh", 
      "name": "tanh0", 
      "inputs": [[74, 0, 0]]
    }, 
    {
      "op": "null", 
      "name": "w_select_weight", 
      "attr": {
        "__init__": "[\"xavier\", {\"rnd_type\": \"uniform\", \"magnitude\": 3, \"factor_type\": \"avg\"}]", 
        "__shape__": "[256, 1]"
      }, 
      "inputs": []
    }, 
    {
      "op": "dot", 
      "name": "dot101", 
      "inputs": [[75, 0, 0], [76, 0, 0]]
    }, 
    {
      "op": "null", 
      "name": "b_select_bias", 
      "attr": {
        "__init__": "[\"xavier\", {\"rnd_type\": \"uniform\", \"magnitude\": 3, \"factor_type\": \"avg\"}]", 
        "__shape__": "[1]"
      }, 
      "inputs": []
    }, 
    {
      "op": "broadcast_add", 
      "name": "broadcast_plus67", 
      "inputs": [[77, 0, 0], [78, 0, 0]]
    }, 
    {
      "op": "sigmoid", 
      "name": "beta", 
      "inputs": [[79, 0, 0]]
    }, 
    {
      "op": "broadcast_to", 
      "name": "broadcast_to66", 
      "attr": {"shape": "(24, 512)"}, 
      "inputs": [[80, 0, 0]]
    }, 
    {
      "op": "null", 
      "name": "conv_features_gamma", 
      "attr": {
        "eps": "2e-05", 
        "fix_gamma": "False", 
        "momentum": "0.9"
      }, 
      "inputs": []
    }, 
    {
      "op": "null", 
      "name": "conv_features_beta", 
      "attr": {
        "eps": "2e-05", 
        "fix_gamma": "False", 
        "momentum": "0.9"
      }, 
      "inputs": []
    }, 
    {
      "op": "null", 
      "name": "conv_features_moving_mean", 
      "attr": {
        "__init__": "[\"zero\", {}]", 
        "eps": "2e-05", 
        "fix_gamma": "False", 
        "momentum": "0.9"
      }, 
      "inputs": []
    }, 
    {
      "op": "null", 
      "name": "conv_features_moving_var", 
      "attr": {
        "__init__": "[\"one\", {}]", 
        "eps": "2e-05", 
        "fix_gamma": "False", 
        "momentum": "0.9"
      }, 
      "inputs": []
    }, 
    {
      "op": "BatchNorm", 
      "name": "conv_features", 
      "attr": {
        "eps": "2e-05", 
        "fix_gamma": "False", 
        "momentum": "0.9"
      }, 
      "inputs": [[69, 0, 0], [82, 0, 0], [83, 0, 0], [84, 0, 1], [85, 0, 1]]
    }, 
    {
      "op": "null", 
      "name": "w_featureproj_weight", 
      "attr": {
        "__init__": "[\"xavier\", {\"rnd_type\": \"uniform\", \"magnitude\": 3, \"factor_type\": \"avg\"}]", 
        "__shape__": "[512, 512]"
      }, 
      "inputs": []
    }, 
    {
      "op": "dot", 
      "name": "dot2", 
      "inputs": [[69, 0, 0], [87, 0, 0]]
    }, 
    {
      "op": "null", 
      "name": "b_att_bias", 
      "attr": {
        "__init__": "[\"xavier\", {\"rnd_type\": \"uniform\", \"magnitude\": 3, \"factor_type\": \"avg\"}]", 
        "__shape__": "[512]"
      }, 
      "inputs": []
    }, 
    {
      "op": "broadcast_add", 
      "name": "broadcast_plus66", 
      "inputs": [[88, 0, 0], [89, 0, 0]]
    }, 
    {
      "op": "null", 
      "name": "w_att_weight", 
      "attr": {
        "__init__": "[\"xavier\", {\"rnd_type\": \"uniform\", \"magnitude\": 3, \"factor_type\": \"avg\"}]", 
        "__shape__": "[256, 512]"
      }, 
      "inputs": []
    }, 
    {
      "op": "dot", 
      "name": "dot99", 
      "inputs": [[75, 0, 0], [91, 0, 0]]
    }, 
    {
      "op": "expand_dims", 
      "name": "expand_dims48", 
      "attr": {"axis": "1"}, 
      "inputs": [[92, 0, 0]]
    }, 
    {
      "op": "broadcast_to", 
      "name": "broadcast_to64", 
      "attr": {"shape": "(24, 196, 512)"}, 
      "inputs": [[93, 0, 0]]
    }, 
    {
      "op": "elemwise_add", 
      "name": "_plus95", 
      "inputs": [[90, 0, 0], [94, 0, 0]]
    }, 
    {
      "op": "Activation", 
      "name": "activation32", 
      "attr": {"act_type": "relu"}, 
      "inputs": [[95, 0, 0]]
    }, 
    {
      "op": "null", 
      "name": "w_att_att_weight", 
      "attr": {
        "__init__": "[\"xavier\", {\"rnd_type\": \"uniform\", \"magnitude\": 3, \"factor_type\": \"avg\"}]", 
        "__shape__": "[512, 1]"
      }, 
      "inputs": []
    }, 
    {
      "op": "dot", 
      "name": "dot100", 
      "inputs": [[96, 0, 0], [97, 0, 0]]
    }, 
    {
      "op": "Reshape", 
      "name": "reshape17", 
      "attr": {"shape": "[-1, 196]"}, 
      "inputs": [[98, 0, 0]]
    }, 
    {
      "op": "softmax", 
      "name": "softmax32", 
      "inputs": [[99, 0, 0]]
    }, 
    {
      "op": "expand_dims", 
      "name": "expand_dims49", 
      "attr": {"axis": "2"}, 
      "inputs": [[100, 0, 0]]
    }, 
    {
      "op": "broadcast_to", 
      "name": "broadcast_to65", 
      "attr": {"shape": "(24, 196, 512)"}, 
      "inputs": [[101, 0, 0]]
    }, 
    {
      "op": "_mul", 
      "name": "_mul96", 
      "inputs": [[86, 0, 0], [102, 0, 0]]
    }, 
    {
      "op": "sum", 
      "name": "context", 
      "attr": {"axis": "1"}, 
      "inputs": [[103, 0, 0]]
    }, 
    {
      "op": "_mul", 
      "name": "_mul97", 
      "inputs": [[81, 0, 0], [104, 0, 0]]
    }, 
    {
      "op": "Concat", 
      "name": "concat16", 
      "attr": {
        "dim": "1", 
        "num_args": "2"
      }, 
      "inputs": [[3, 0, 0], [105, 0, 0]]
    }, 
    {
      "op": "null", 
      "name": "lstm_i2h_weight", 
      "inputs": []
    }, 
    {
      "op": "null", 
      "name": "lstm_i2h_bias", 
      "attr": {"__init__": "[\"lstmbias\", {\"forget_bias\": 1.0}]"}, 
      "inputs": []
    }, 
    {
      "op": "FullyConnected", 
      "name": "lstm_t16_i2h", 
      "attr": {"num_hidden": "1024"}, 
      "inputs": [[106, 0, 0], [107, 0, 0], [108, 0, 0]]
    }, 
    {
      "op": "null", 
      "name": "lstm_h2h_weight", 
      "inputs": []
    }, 
    {
      "op": "null", 
      "name": "lstm_h2h_bias", 
      "inputs": []
    }, 
    {
      "op": "FullyConnected", 
      "name": "lstm_t16_h2h", 
      "attr": {"num_hidden": "1024"}, 
      "inputs": [[75, 0, 0], [110, 0, 0], [111, 0, 0]]
    }, 
    {
      "op": "elemwise_add", 
      "name": "_plus96", 
      "inputs": [[109, 0, 0], [112, 0, 0]]
    }, 
    {
      "op": "SliceChannel", 
      "name": "lstm_t16_slice", 
      "attr": {"num_outputs": "4"}, 
      "inputs": [[113, 0, 0]]
    }, 
    {
      "op": "Activation", 
      "name": "lstm_t16_o", 
      "attr": {"act_type": "sigmoid"}, 
      "inputs": [[114, 3, 0]]
    }, 
    {
      "op": "Activation", 
      "name": "lstm_t16_f", 
      "attr": {"act_type": "sigmoid"}, 
      "inputs": [[114, 1, 0]]
    }, 
    {
      "op": "null", 
      "name": "w_initc_weight", 
      "attr": {
        "__init__": "[\"xavier\", {\"rnd_type\": \"uniform\", \"magnitude\": 3, \"factor_type\": \"avg\"}]", 
        "__shape__": "[512, 256]"
      }, 
      "inputs": []
    }, 
    {
      "op": "dot", 
      "name": "dot1", 
      "inputs": [[70, 0, 0], [117, 0, 0]]
    }, 
    {
      "op": "null", 
      "name": "b_initc_bias", 
      "attr": {
        "__init__": "[\"xavier\", {\"rnd_type\": \"uniform\", \"magnitude\": 3, \"factor_type\": \"avg\"}]", 
        "__shape__": "[256]"
      }, 
      "inputs": []
    }, 
    {
      "op": "broadcast_add", 
      "name": "broadcast_plus1", 
      "inputs": [[118, 0, 0], [119, 0, 0]]
    }, 
    {
      "op": "tanh", 
      "name": "tanh1", 
      "inputs": [[120, 0, 0]]
    }, 
    {
      "op": "_mul", 
      "name": "_mul98", 
      "inputs": [[116, 0, 0], [121, 0, 0]]
    }, 
    {
      "op": "Activation", 
      "name": "lstm_t16_i", 
      "attr": {"act_type": "sigmoid"}, 
      "inputs": [[114, 0, 0]]
    }, 
    {
      "op": "Activation", 
      "name": "lstm_t16_c", 
      "attr": {"act_type": "tanh"}, 
      "inputs": [[114, 2, 0]]
    }, 
    {
      "op": "_mul", 
      "name": "_mul99", 
      "inputs": [[123, 0, 0], [124, 0, 0]]
    }, 
    {
      "op": "elemwise_add", 
      "name": "lstm_t16_state", 
      "inputs": [[122, 0, 0], [125, 0, 0]]
    }, 
    {
      "op": "Activation", 
      "name": "activation33", 
      "attr": {"act_type": "tanh"}, 
      "inputs": [[126, 0, 0]]
    }, 
    {
      "op": "_mul", 
      "name": "lstm_t16_out", 
      "inputs": [[115, 0, 0], [127, 0, 0]]
    }, 
    {
      "op": "null", 
      "name": "w_h_decode_weight", 
      "attr": {
        "__init__": "[\"xavier\", {\"rnd_type\": \"uniform\", \"magnitude\": 3, \"factor_type\": \"avg\"}]", 
        "__shape__": "[256, 256]"
      }, 
      "inputs": []
    }, 
    {
      "op": "dot", 
      "name": "dot102", 
      "inputs": [[128, 0, 0], [129, 0, 0]]
    }, 
    {
      "op": "null", 
      "name": "b_h_decode_bias", 
      "attr": {
        "__init__": "[\"xavier\", {\"rnd_type\": \"uniform\", \"magnitude\": 3, \"factor_type\": \"avg\"}]", 
        "__shape__": "[256]"
      }, 
      "inputs": []
    }, 
    {
      "op": "broadcast_add", 
      "name": "broadcast_plus68", 
      "inputs": [[130, 0, 0], [131, 0, 0]]
    }, 
    {
      "op": "null", 
      "name": "w_ctx2out_weight", 
      "attr": {
        "__init__": "[\"xavier\", {\"rnd_type\": \"uniform\", \"magnitude\": 3, \"factor_type\": \"avg\"}]", 
        "__shape__": "[512, 256]"
      }, 
      "inputs": []
    }, 
    {
      "op": "dot", 
      "name": "dot103", 
      "inputs": [[105, 0, 0], [133, 0, 0]]
    }, 
    {
      "op": "elemwise_add", 
      "name": "_plus97", 
      "inputs": [[132, 0, 0], [134, 0, 0]]
    }, 
    {
      "op": "elemwise_add", 
      "name": "_plus98", 
      "inputs": [[135, 0, 0], [3, 0, 0]]
    }, 
    {
      "op": "tanh", 
      "name": "tanh18", 
      "inputs": [[136, 0, 0]]
    }, 
    {
      "op": "null", 
      "name": "w_out_decode_weight", 
      "attr": {
        "__init__": "[\"xavier\", {\"rnd_type\": \"uniform\", \"magnitude\": 3, \"factor_type\": \"avg\"}]", 
        "__shape__": "[256, 9705]"
      }, 
      "inputs": []
    }, 
    {
      "op": "dot", 
      "name": "dot104", 
      "inputs": [[137, 0, 0], [138, 0, 0]]
    }, 
    {
      "op": "null", 
      "name": "b_out_decode_bias", 
      "attr": {
        "__init__": "[\"xavier\", {\"rnd_type\": \"uniform\", \"magnitude\": 3, \"factor_type\": \"avg\"}]", 
        "__shape__": "[9705]"
      }, 
      "inputs": []
    }, 
    {
      "op": "broadcast_add", 
      "name": "broadcast_plus69", 
      "inputs": [[139, 0, 0], [140, 0, 0]]
    }, 
    {
      "op": "argmax", 
      "name": "argmax0", 
      "attr": {"axis": "1"}, 
      "inputs": [[141, 0, 0]]
    }, 
    {
      "op": "expand_dims", 
      "name": "expand_dims88", 
      "attr": {"axis": "0"}, 
      "inputs": [[142, 0, 0]]
    }, 
    {
      "op": "Embedding", 
      "name": "embedding1", 
      "attr": {
        "input_dim": "9705", 
        "output_dim": "256"
      }, 
      "inputs": [[142, 0, 0], [2, 0, 0]]
    }, 
    {
      "op": "dot", 
      "name": "dot107", 
      "inputs": [[128, 0, 0], [76, 0, 0]]
    }, 
    {
      "op": "broadcast_add", 
      "name": "broadcast_plus71", 
      "inputs": [[145, 0, 0], [78, 0, 0]]
    }, 
    {
      "op": "sigmoid", 
      "name": "beta", 
      "inputs": [[146, 0, 0]]
    }, 
    {
      "op": "broadcast_to", 
      "name": "broadcast_to69", 
      "attr": {"shape": "(24, 512)"}, 
      "inputs": [[147, 0, 0]]
    }, 
    {
      "op": "broadcast_add", 
      "name": "broadcast_plus70", 
      "inputs": [[88, 0, 0], [89, 0, 0]]
    }, 
    {
      "op": "dot", 
      "name": "dot105", 
      "inputs": [[128, 0, 0], [91, 0, 0]]
    }, 
    {
      "op": "expand_dims", 
      "name": "expand_dims50", 
      "attr": {"axis": "1"}, 
      "inputs": [[150, 0, 0]]
    }, 
    {
      "op": "broadcast_to", 
      "name": "broadcast_to67", 
      "attr": {"shape": "(24, 196, 512)"}, 
      "inputs": [[151, 0, 0]]
    }, 
    {
      "op": "elemwise_add", 
      "name": "_plus99", 
      "inputs": [[149, 0, 0], [152, 0, 0]]
    }, 
    {
      "op": "Activation", 
      "name": "activation34", 
      "attr": {"act_type": "relu"}, 
      "inputs": [[153, 0, 0]]
    }, 
    {
      "op": "dot", 
      "name": "dot106", 
      "inputs": [[154, 0, 0], [97, 0, 0]]
    }, 
    {
      "op": "Reshape", 
      "name": "reshape18", 
      "attr": {"shape": "[-1, 196]"}, 
      "inputs": [[155, 0, 0]]
    }, 
    {
      "op": "softmax", 
      "name": "softmax33", 
      "inputs": [[156, 0, 0]]
    }, 
    {
      "op": "expand_dims", 
      "name": "expand_dims51", 
      "attr": {"axis": "2"}, 
      "inputs": [[157, 0, 0]]
    }, 
    {
      "op": "broadcast_to", 
      "name": "broadcast_to68", 
      "attr": {"shape": "(24, 196, 512)"}, 
      "inputs": [[158, 0, 0]]
    }, 
    {
      "op": "_mul", 
      "name": "_mul100", 
      "inputs": [[86, 0, 0], [159, 0, 0]]
    }, 
    {
      "op": "sum", 
      "name": "context", 
      "attr": {"axis": "1"}, 
      "inputs": [[160, 0, 0]]
    }, 
    {
      "op": "_mul", 
      "name": "_mul101", 
      "inputs": [[148, 0, 0], [161, 0, 0]]
    }, 
    {
      "op": "Concat", 
      "name": "concat17", 
      "attr": {
        "dim": "1", 
        "num_args": "2"
      }, 
      "inputs": [[144, 0, 0], [162, 0, 0]]
    }, 
    {
      "op": "FullyConnected", 
      "name": "lstm_t17_i2h", 
      "attr": {"num_hidden": "1024"}, 
      "inputs": [[163, 0, 0], [107, 0, 0], [108, 0, 0]]
    }, 
    {
      "op": "FullyConnected", 
      "name": "lstm_t17_h2h", 
      "attr": {"num_hidden": "1024"}, 
      "inputs": [[128, 0, 0], [110, 0, 0], [111, 0, 0]]
    }, 
    {
      "op": "elemwise_add", 
      "name": "_plus100", 
      "inputs": [[164, 0, 0], [165, 0, 0]]
    }, 
    {
      "op": "SliceChannel", 
      "name": "lstm_t17_slice", 
      "attr": {"num_outputs": "4"}, 
      "inputs": [[166, 0, 0]]
    }, 
    {
      "op": "Activation", 
      "name": "lstm_t17_o", 
      "attr": {"act_type": "sigmoid"}, 
      "inputs": [[167, 3, 0]]
    }, 
    {
      "op": "Activation", 
      "name": "lstm_t17_f", 
      "attr": {"act_type": "sigmoid"}, 
      "inputs": [[167, 1, 0]]
    }, 
    {
      "op": "_mul", 
      "name": "_mul102", 
      "inputs": [[169, 0, 0], [126, 0, 0]]
    }, 
    {
      "op": "Activation", 
      "name": "lstm_t17_i", 
      "attr": {"act_type": "sigmoid"}, 
      "inputs": [[167, 0, 0]]
    }, 
    {
      "op": "Activation", 
      "name": "lstm_t17_c", 
      "attr": {"act_type": "tanh"}, 
      "inputs": [[167, 2, 0]]
    }, 
    {
      "op": "_mul", 
      "name": "_mul103", 
      "inputs": [[171, 0, 0], [172, 0, 0]]
    }, 
    {
      "op": "elemwise_add", 
      "name": "lstm_t17_state", 
      "inputs": [[170, 0, 0], [173, 0, 0]]
    }, 
    {
      "op": "Activation", 
      "name": "activation35", 
      "attr": {"act_type": "tanh"}, 
      "inputs": [[174, 0, 0]]
    }, 
    {
      "op": "_mul", 
      "name": "lstm_t17_out", 
      "inputs": [[168, 0, 0], [175, 0, 0]]
    }, 
    {
      "op": "dot", 
      "name": "dot108", 
      "inputs": [[176, 0, 0], [129, 0, 0]]
    }, 
    {
      "op": "broadcast_add", 
      "name": "broadcast_plus72", 
      "inputs": [[177, 0, 0], [131, 0, 0]]
    }, 
    {
      "op": "dot", 
      "name": "dot109", 
      "inputs": [[162, 0, 0], [133, 0, 0]]
    }, 
    {
      "op": "elemwise_add", 
      "name": "_plus101", 
      "inputs": [[178, 0, 0], [179, 0, 0]]
    }, 
    {
      "op": "elemwise_add", 
      "name": "_plus102", 
      "inputs": [[180, 0, 0], [144, 0, 0]]
    }, 
    {
      "op": "tanh", 
      "name": "tanh19", 
      "inputs": [[181, 0, 0]]
    }, 
    {
      "op": "dot", 
      "name": "dot110", 
      "inputs": [[182, 0, 0], [138, 0, 0]]
    }, 
    {
      "op": "broadcast_add", 
      "name": "broadcast_plus73", 
      "inputs": [[183, 0, 0], [140, 0, 0]]
    }, 
    {
      "op": "argmax", 
      "name": "argmax1", 
      "attr": {"axis": "1"}, 
      "inputs": [[184, 0, 0]]
    }, 
    {
      "op": "expand_dims", 
      "name": "expand_dims89", 
      "attr": {"axis": "0"}, 
      "inputs": [[185, 0, 0]]
    }, 
    {
      "op": "Concat", 
      "name": "concat36", 
      "attr": {
        "dim": "0", 
        "num_args": "2"
      }, 
      "inputs": [[143, 0, 0], [186, 0, 0]]
    }, 
    {
      "op": "Embedding", 
      "name": "embedding2", 
      "attr": {
        "input_dim": "9705", 
        "output_dim": "256"
      }, 
      "inputs": [[185, 0, 0], [2, 0, 0]]
    }, 
    {
      "op": "dot", 
      "name": "dot113", 
      "inputs": [[176, 0, 0], [76, 0, 0]]
    }, 
    {
      "op": "broadcast_add", 
      "name": "broadcast_plus75", 
      "inputs": [[189, 0, 0], [78, 0, 0]]
    }, 
    {
      "op": "sigmoid", 
      "name": "beta", 
      "inputs": [[190, 0, 0]]
    }, 
    {
      "op": "broadcast_to", 
      "name": "broadcast_to72", 
      "attr": {"shape": "(24, 512)"}, 
      "inputs": [[191, 0, 0]]
    }, 
    {
      "op": "broadcast_add", 
      "name": "broadcast_plus74", 
      "inputs": [[88, 0, 0], [89, 0, 0]]
    }, 
    {
      "op": "dot", 
      "name": "dot111", 
      "inputs": [[176, 0, 0], [91, 0, 0]]
    }, 
    {
      "op": "expand_dims", 
      "name": "expand_dims52", 
      "attr": {"axis": "1"}, 
      "inputs": [[194, 0, 0]]
    }, 
    {
      "op": "broadcast_to", 
      "name": "broadcast_to70", 
      "attr": {"shape": "(24, 196, 512)"}, 
      "inputs": [[195, 0, 0]]
    }, 
    {
      "op": "elemwise_add", 
      "name": "_plus103", 
      "inputs": [[193, 0, 0], [196, 0, 0]]
    }, 
    {
      "op": "Activation", 
      "name": "activation36", 
      "attr": {"act_type": "relu"}, 
      "inputs": [[197, 0, 0]]
    }, 
    {
      "op": "dot", 
      "name": "dot112", 
      "inputs": [[198, 0, 0], [97, 0, 0]]
    }, 
    {
      "op": "Reshape", 
      "name": "reshape19", 
      "attr": {"shape": "[-1, 196]"}, 
      "inputs": [[199, 0, 0]]
    }, 
    {
      "op": "softmax", 
      "name": "softmax34", 
      "inputs": [[200, 0, 0]]
    }, 
    {
      "op": "expand_dims", 
      "name": "expand_dims53", 
      "attr": {"axis": "2"}, 
      "inputs": [[201, 0, 0]]
    }, 
    {
      "op": "broadcast_to", 
      "name": "broadcast_to71", 
      "attr": {"shape": "(24, 196, 512)"}, 
      "inputs": [[202, 0, 0]]
    }, 
    {
      "op": "_mul", 
      "name": "_mul104", 
      "inputs": [[86, 0, 0], [203, 0, 0]]
    }, 
    {
      "op": "sum", 
      "name": "context", 
      "attr": {"axis": "1"}, 
      "inputs": [[204, 0, 0]]
    }, 
    {
      "op": "_mul", 
      "name": "_mul105", 
      "inputs": [[192, 0, 0], [205, 0, 0]]
    }, 
    {
      "op": "Concat", 
      "name": "concat18", 
      "attr": {
        "dim": "1", 
        "num_args": "2"
      }, 
      "inputs": [[188, 0, 0], [206, 0, 0]]
    }, 
    {
      "op": "FullyConnected", 
      "name": "lstm_t18_i2h", 
      "attr": {"num_hidden": "1024"}, 
      "inputs": [[207, 0, 0], [107, 0, 0], [108, 0, 0]]
    }, 
    {
      "op": "FullyConnected", 
      "name": "lstm_t18_h2h", 
      "attr": {"num_hidden": "1024"}, 
      "inputs": [[176, 0, 0], [110, 0, 0], [111, 0, 0]]
    }, 
    {
      "op": "elemwise_add", 
      "name": "_plus104", 
      "inputs": [[208, 0, 0], [209, 0, 0]]
    }, 
    {
      "op": "SliceChannel", 
      "name": "lstm_t18_slice", 
      "attr": {"num_outputs": "4"}, 
      "inputs": [[210, 0, 0]]
    }, 
    {
      "op": "Activation", 
      "name": "lstm_t18_o", 
      "attr": {"act_type": "sigmoid"}, 
      "inputs": [[211, 3, 0]]
    }, 
    {
      "op": "Activation", 
      "name": "lstm_t18_f", 
      "attr": {"act_type": "sigmoid"}, 
      "inputs": [[211, 1, 0]]
    }, 
    {
      "op": "_mul", 
      "name": "_mul106", 
      "inputs": [[213, 0, 0], [174, 0, 0]]
    }, 
    {
      "op": "Activation", 
      "name": "lstm_t18_i", 
      "attr": {"act_type": "sigmoid"}, 
      "inputs": [[211, 0, 0]]
    }, 
    {
      "op": "Activation", 
      "name": "lstm_t18_c", 
      "attr": {"act_type": "tanh"}, 
      "inputs": [[211, 2, 0]]
    }, 
    {
      "op": "_mul", 
      "name": "_mul107", 
      "inputs": [[215, 0, 0], [216, 0, 0]]
    }, 
    {
      "op": "elemwise_add", 
      "name": "lstm_t18_state", 
      "inputs": [[214, 0, 0], [217, 0, 0]]
    }, 
    {
      "op": "Activation", 
      "name": "activation37", 
      "attr": {"act_type": "tanh"}, 
      "inputs": [[218, 0, 0]]
    }, 
    {
      "op": "_mul", 
      "name": "lstm_t18_out", 
      "inputs": [[212, 0, 0], [219, 0, 0]]
    }, 
    {
      "op": "dot", 
      "name": "dot114", 
      "inputs": [[220, 0, 0], [129, 0, 0]]
    }, 
    {
      "op": "broadcast_add", 
      "name": "broadcast_plus76", 
      "inputs": [[221, 0, 0], [131, 0, 0]]
    }, 
    {
      "op": "dot", 
      "name": "dot115", 
      "inputs": [[206, 0, 0], [133, 0, 0]]
    }, 
    {
      "op": "elemwise_add", 
      "name": "_plus105", 
      "inputs": [[222, 0, 0], [223, 0, 0]]
    }, 
    {
      "op": "elemwise_add", 
      "name": "_plus106", 
      "inputs": [[224, 0, 0], [188, 0, 0]]
    }, 
    {
      "op": "tanh", 
      "name": "tanh20", 
      "inputs": [[225, 0, 0]]
    }, 
    {
      "op": "dot", 
      "name": "dot116", 
      "inputs": [[226, 0, 0], [138, 0, 0]]
    }, 
    {
      "op": "broadcast_add", 
      "name": "broadcast_plus77", 
      "inputs": [[227, 0, 0], [140, 0, 0]]
    }, 
    {
      "op": "argmax", 
      "name": "argmax2", 
      "attr": {"axis": "1"}, 
      "inputs": [[228, 0, 0]]
    }, 
    {
      "op": "expand_dims", 
      "name": "expand_dims90", 
      "attr": {"axis": "0"}, 
      "inputs": [[229, 0, 0]]
    }, 
    {
      "op": "Concat", 
      "name": "concat37", 
      "attr": {
        "dim": "0", 
        "num_args": "2"
      }, 
      "inputs": [[187, 0, 0], [230, 0, 0]]
    }, 
    {
      "op": "Embedding", 
      "name": "embedding3", 
      "attr": {
        "input_dim": "9705", 
        "output_dim": "256"
      }, 
      "inputs": [[229, 0, 0], [2, 0, 0]]
    }, 
    {
      "op": "dot", 
      "name": "dot119", 
      "inputs": [[220, 0, 0], [76, 0, 0]]
    }, 
    {
      "op": "broadcast_add", 
      "name": "broadcast_plus79", 
      "inputs": [[233, 0, 0], [78, 0, 0]]
    }, 
    {
      "op": "sigmoid", 
      "name": "beta", 
      "inputs": [[234, 0, 0]]
    }, 
    {
      "op": "broadcast_to", 
      "name": "broadcast_to75", 
      "attr": {"shape": "(24, 512)"}, 
      "inputs": [[235, 0, 0]]
    }, 
    {
      "op": "broadcast_add", 
      "name": "broadcast_plus78", 
      "inputs": [[88, 0, 0], [89, 0, 0]]
    }, 
    {
      "op": "dot", 
      "name": "dot117", 
      "inputs": [[220, 0, 0], [91, 0, 0]]
    }, 
    {
      "op": "expand_dims", 
      "name": "expand_dims54", 
      "attr": {"axis": "1"}, 
      "inputs": [[238, 0, 0]]
    }, 
    {
      "op": "broadcast_to", 
      "name": "broadcast_to73", 
      "attr": {"shape": "(24, 196, 512)"}, 
      "inputs": [[239, 0, 0]]
    }, 
    {
      "op": "elemwise_add", 
      "name": "_plus107", 
      "inputs": [[237, 0, 0], [240, 0, 0]]
    }, 
    {
      "op": "Activation", 
      "name": "activation38", 
      "attr": {"act_type": "relu"}, 
      "inputs": [[241, 0, 0]]
    }, 
    {
      "op": "dot", 
      "name": "dot118", 
      "inputs": [[242, 0, 0], [97, 0, 0]]
    }, 
    {
      "op": "Reshape", 
      "name": "reshape20", 
      "attr": {"shape": "[-1, 196]"}, 
      "inputs": [[243, 0, 0]]
    }, 
    {
      "op": "softmax", 
      "name": "softmax35", 
      "inputs": [[244, 0, 0]]
    }, 
    {
      "op": "expand_dims", 
      "name": "expand_dims55", 
      "attr": {"axis": "2"}, 
      "inputs": [[245, 0, 0]]
    }, 
    {
      "op": "broadcast_to", 
      "name": "broadcast_to74", 
      "attr": {"shape": "(24, 196, 512)"}, 
      "inputs": [[246, 0, 0]]
    }, 
    {
      "op": "_mul", 
      "name": "_mul108", 
      "inputs": [[86, 0, 0], [247, 0, 0]]
    }, 
    {
      "op": "sum", 
      "name": "context", 
      "attr": {"axis": "1"}, 
      "inputs": [[248, 0, 0]]
    }, 
    {
      "op": "_mul", 
      "name": "_mul109", 
      "inputs": [[236, 0, 0], [249, 0, 0]]
    }, 
    {
      "op": "Concat", 
      "name": "concat19", 
      "attr": {
        "dim": "1", 
        "num_args": "2"
      }, 
      "inputs": [[232, 0, 0], [250, 0, 0]]
    }, 
    {
      "op": "FullyConnected", 
      "name": "lstm_t19_i2h", 
      "attr": {"num_hidden": "1024"}, 
      "inputs": [[251, 0, 0], [107, 0, 0], [108, 0, 0]]
    }, 
    {
      "op": "FullyConnected", 
      "name": "lstm_t19_h2h", 
      "attr": {"num_hidden": "1024"}, 
      "inputs": [[220, 0, 0], [110, 0, 0], [111, 0, 0]]
    }, 
    {
      "op": "elemwise_add", 
      "name": "_plus108", 
      "inputs": [[252, 0, 0], [253, 0, 0]]
    }, 
    {
      "op": "SliceChannel", 
      "name": "lstm_t19_slice", 
      "attr": {"num_outputs": "4"}, 
      "inputs": [[254, 0, 0]]
    }, 
    {
      "op": "Activation", 
      "name": "lstm_t19_o", 
      "attr": {"act_type": "sigmoid"}, 
      "inputs": [[255, 3, 0]]
    }, 
    {
      "op": "Activation", 
      "name": "lstm_t19_f", 
      "attr": {"act_type": "sigmoid"}, 
      "inputs": [[255, 1, 0]]
    }, 
    {
      "op": "_mul", 
      "name": "_mul110", 
      "inputs": [[257, 0, 0], [218, 0, 0]]
    }, 
    {
      "op": "Activation", 
      "name": "lstm_t19_i", 
      "attr": {"act_type": "sigmoid"}, 
      "inputs": [[255, 0, 0]]
    }, 
    {
      "op": "Activation", 
      "name": "lstm_t19_c", 
      "attr": {"act_type": "tanh"}, 
      "inputs": [[255, 2, 0]]
    }, 
    {
      "op": "_mul", 
      "name": "_mul111", 
      "inputs": [[259, 0, 0], [260, 0, 0]]
    }, 
    {
      "op": "elemwise_add", 
      "name": "lstm_t19_state", 
      "inputs": [[258, 0, 0], [261, 0, 0]]
    }, 
    {
      "op": "Activation", 
      "name": "activation39", 
      "attr": {"act_type": "tanh"}, 
      "inputs": [[262, 0, 0]]
    }, 
    {
      "op": "_mul", 
      "name": "lstm_t19_out", 
      "inputs": [[256, 0, 0], [263, 0, 0]]
    }, 
    {
      "op": "dot", 
      "name": "dot120", 
      "inputs": [[264, 0, 0], [129, 0, 0]]
    }, 
    {
      "op": "broadcast_add", 
      "name": "broadcast_plus80", 
      "inputs": [[265, 0, 0], [131, 0, 0]]
    }, 
    {
      "op": "dot", 
      "name": "dot121", 
      "inputs": [[250, 0, 0], [133, 0, 0]]
    }, 
    {
      "op": "elemwise_add", 
      "name": "_plus109", 
      "inputs": [[266, 0, 0], [267, 0, 0]]
    }, 
    {
      "op": "elemwise_add", 
      "name": "_plus110", 
      "inputs": [[268, 0, 0], [232, 0, 0]]
    }, 
    {
      "op": "tanh", 
      "name": "tanh21", 
      "inputs": [[269, 0, 0]]
    }, 
    {
      "op": "dot", 
      "name": "dot122", 
      "inputs": [[270, 0, 0], [138, 0, 0]]
    }, 
    {
      "op": "broadcast_add", 
      "name": "broadcast_plus81", 
      "inputs": [[271, 0, 0], [140, 0, 0]]
    }, 
    {
      "op": "argmax", 
      "name": "argmax3", 
      "attr": {"axis": "1"}, 
      "inputs": [[272, 0, 0]]
    }, 
    {
      "op": "expand_dims", 
      "name": "expand_dims91", 
      "attr": {"axis": "0"}, 
      "inputs": [[273, 0, 0]]
    }, 
    {
      "op": "Concat", 
      "name": "concat38", 
      "attr": {
        "dim": "0", 
        "num_args": "2"
      }, 
      "inputs": [[231, 0, 0], [274, 0, 0]]
    }, 
    {
      "op": "Embedding", 
      "name": "embedding4", 
      "attr": {
        "input_dim": "9705", 
        "output_dim": "256"
      }, 
      "inputs": [[273, 0, 0], [2, 0, 0]]
    }, 
    {
      "op": "dot", 
      "name": "dot125", 
      "inputs": [[264, 0, 0], [76, 0, 0]]
    }, 
    {
      "op": "broadcast_add", 
      "name": "broadcast_plus83", 
      "inputs": [[277, 0, 0], [78, 0, 0]]
    }, 
    {
      "op": "sigmoid", 
      "name": "beta", 
      "inputs": [[278, 0, 0]]
    }, 
    {
      "op": "broadcast_to", 
      "name": "broadcast_to78", 
      "attr": {"shape": "(24, 512)"}, 
      "inputs": [[279, 0, 0]]
    }, 
    {
      "op": "broadcast_add", 
      "name": "broadcast_plus82", 
      "inputs": [[88, 0, 0], [89, 0, 0]]
    }, 
    {
      "op": "dot", 
      "name": "dot123", 
      "inputs": [[264, 0, 0], [91, 0, 0]]
    }, 
    {
      "op": "expand_dims", 
      "name": "expand_dims56", 
      "attr": {"axis": "1"}, 
      "inputs": [[282, 0, 0]]
    }, 
    {
      "op": "broadcast_to", 
      "name": "broadcast_to76", 
      "attr": {"shape": "(24, 196, 512)"}, 
      "inputs": [[283, 0, 0]]
    }, 
    {
      "op": "elemwise_add", 
      "name": "_plus111", 
      "inputs": [[281, 0, 0], [284, 0, 0]]
    }, 
    {
      "op": "Activation", 
      "name": "activation40", 
      "attr": {"act_type": "relu"}, 
      "inputs": [[285, 0, 0]]
    }, 
    {
      "op": "dot", 
      "name": "dot124", 
      "inputs": [[286, 0, 0], [97, 0, 0]]
    }, 
    {
      "op": "Reshape", 
      "name": "reshape21", 
      "attr": {"shape": "[-1, 196]"}, 
      "inputs": [[287, 0, 0]]
    }, 
    {
      "op": "softmax", 
      "name": "softmax36", 
      "inputs": [[288, 0, 0]]
    }, 
    {
      "op": "expand_dims", 
      "name": "expand_dims57", 
      "attr": {"axis": "2"}, 
      "inputs": [[289, 0, 0]]
    }, 
    {
      "op": "broadcast_to", 
      "name": "broadcast_to77", 
      "attr": {"shape": "(24, 196, 512)"}, 
      "inputs": [[290, 0, 0]]
    }, 
    {
      "op": "_mul", 
      "name": "_mul112", 
      "inputs": [[86, 0, 0], [291, 0, 0]]
    }, 
    {
      "op": "sum", 
      "name": "context", 
      "attr": {"axis": "1"}, 
      "inputs": [[292, 0, 0]]
    }, 
    {
      "op": "_mul", 
      "name": "_mul113", 
      "inputs": [[280, 0, 0], [293, 0, 0]]
    }, 
    {
      "op": "Concat", 
      "name": "concat20", 
      "attr": {
        "dim": "1", 
        "num_args": "2"
      }, 
      "inputs": [[276, 0, 0], [294, 0, 0]]
    }, 
    {
      "op": "FullyConnected", 
      "name": "lstm_t20_i2h", 
      "attr": {"num_hidden": "1024"}, 
      "inputs": [[295, 0, 0], [107, 0, 0], [108, 0, 0]]
    }, 
    {
      "op": "FullyConnected", 
      "name": "lstm_t20_h2h", 
      "attr": {"num_hidden": "1024"}, 
      "inputs": [[264, 0, 0], [110, 0, 0], [111, 0, 0]]
    }, 
    {
      "op": "elemwise_add", 
      "name": "_plus112", 
      "inputs": [[296, 0, 0], [297, 0, 0]]
    }, 
    {
      "op": "SliceChannel", 
      "name": "lstm_t20_slice", 
      "attr": {"num_outputs": "4"}, 
      "inputs": [[298, 0, 0]]
    }, 
    {
      "op": "Activation", 
      "name": "lstm_t20_o", 
      "attr": {"act_type": "sigmoid"}, 
      "inputs": [[299, 3, 0]]
    }, 
    {
      "op": "Activation", 
      "name": "lstm_t20_f", 
      "attr": {"act_type": "sigmoid"}, 
      "inputs": [[299, 1, 0]]
    }, 
    {
      "op": "_mul", 
      "name": "_mul114", 
      "inputs": [[301, 0, 0], [262, 0, 0]]
    }, 
    {
      "op": "Activation", 
      "name": "lstm_t20_i", 
      "attr": {"act_type": "sigmoid"}, 
      "inputs": [[299, 0, 0]]
    }, 
    {
      "op": "Activation", 
      "name": "lstm_t20_c", 
      "attr": {"act_type": "tanh"}, 
      "inputs": [[299, 2, 0]]
    }, 
    {
      "op": "_mul", 
      "name": "_mul115", 
      "inputs": [[303, 0, 0], [304, 0, 0]]
    }, 
    {
      "op": "elemwise_add", 
      "name": "lstm_t20_state", 
      "inputs": [[302, 0, 0], [305, 0, 0]]
    }, 
    {
      "op": "Activation", 
      "name": "activation41", 
      "attr": {"act_type": "tanh"}, 
      "inputs": [[306, 0, 0]]
    }, 
    {
      "op": "_mul", 
      "name": "lstm_t20_out", 
      "inputs": [[300, 0, 0], [307, 0, 0]]
    }, 
    {
      "op": "dot", 
      "name": "dot126", 
      "inputs": [[308, 0, 0], [129, 0, 0]]
    }, 
    {
      "op": "broadcast_add", 
      "name": "broadcast_plus84", 
      "inputs": [[309, 0, 0], [131, 0, 0]]
    }, 
    {
      "op": "dot", 
      "name": "dot127", 
      "inputs": [[294, 0, 0], [133, 0, 0]]
    }, 
    {
      "op": "elemwise_add", 
      "name": "_plus113", 
      "inputs": [[310, 0, 0], [311, 0, 0]]
    }, 
    {
      "op": "elemwise_add", 
      "name": "_plus114", 
      "inputs": [[312, 0, 0], [276, 0, 0]]
    }, 
    {
      "op": "tanh", 
      "name": "tanh22", 
      "inputs": [[313, 0, 0]]
    }, 
    {
      "op": "dot", 
      "name": "dot128", 
      "inputs": [[314, 0, 0], [138, 0, 0]]
    }, 
    {
      "op": "broadcast_add", 
      "name": "broadcast_plus85", 
      "inputs": [[315, 0, 0], [140, 0, 0]]
    }, 
    {
      "op": "argmax", 
      "name": "argmax4", 
      "attr": {"axis": "1"}, 
      "inputs": [[316, 0, 0]]
    }, 
    {
      "op": "expand_dims", 
      "name": "expand_dims92", 
      "attr": {"axis": "0"}, 
      "inputs": [[317, 0, 0]]
    }, 
    {
      "op": "Concat", 
      "name": "concat39", 
      "attr": {
        "dim": "0", 
        "num_args": "2"
      }, 
      "inputs": [[275, 0, 0], [318, 0, 0]]
    }, 
    {
      "op": "Embedding", 
      "name": "embedding5", 
      "attr": {
        "input_dim": "9705", 
        "output_dim": "256"
      }, 
      "inputs": [[317, 0, 0], [2, 0, 0]]
    }, 
    {
      "op": "dot", 
      "name": "dot131", 
      "inputs": [[308, 0, 0], [76, 0, 0]]
    }, 
    {
      "op": "broadcast_add", 
      "name": "broadcast_plus87", 
      "inputs": [[321, 0, 0], [78, 0, 0]]
    }, 
    {
      "op": "sigmoid", 
      "name": "beta", 
      "inputs": [[322, 0, 0]]
    }, 
    {
      "op": "broadcast_to", 
      "name": "broadcast_to81", 
      "attr": {"shape": "(24, 512)"}, 
      "inputs": [[323, 0, 0]]
    }, 
    {
      "op": "broadcast_add", 
      "name": "broadcast_plus86", 
      "inputs": [[88, 0, 0], [89, 0, 0]]
    }, 
    {
      "op": "dot", 
      "name": "dot129", 
      "inputs": [[308, 0, 0], [91, 0, 0]]
    }, 
    {
      "op": "expand_dims", 
      "name": "expand_dims58", 
      "attr": {"axis": "1"}, 
      "inputs": [[326, 0, 0]]
    }, 
    {
      "op": "broadcast_to", 
      "name": "broadcast_to79", 
      "attr": {"shape": "(24, 196, 512)"}, 
      "inputs": [[327, 0, 0]]
    }, 
    {
      "op": "elemwise_add", 
      "name": "_plus115", 
      "inputs": [[325, 0, 0], [328, 0, 0]]
    }, 
    {
      "op": "Activation", 
      "name": "activation42", 
      "attr": {"act_type": "relu"}, 
      "inputs": [[329, 0, 0]]
    }, 
    {
      "op": "dot", 
      "name": "dot130", 
      "inputs": [[330, 0, 0], [97, 0, 0]]
    }, 
    {
      "op": "Reshape", 
      "name": "reshape22", 
      "attr": {"shape": "[-1, 196]"}, 
      "inputs": [[331, 0, 0]]
    }, 
    {
      "op": "softmax", 
      "name": "softmax37", 
      "inputs": [[332, 0, 0]]
    }, 
    {
      "op": "expand_dims", 
      "name": "expand_dims59", 
      "attr": {"axis": "2"}, 
      "inputs": [[333, 0, 0]]
    }, 
    {
      "op": "broadcast_to", 
      "name": "broadcast_to80", 
      "attr": {"shape": "(24, 196, 512)"}, 
      "inputs": [[334, 0, 0]]
    }, 
    {
      "op": "_mul", 
      "name": "_mul116", 
      "inputs": [[86, 0, 0], [335, 0, 0]]
    }, 
    {
      "op": "sum", 
      "name": "context", 
      "attr": {"axis": "1"}, 
      "inputs": [[336, 0, 0]]
    }, 
    {
      "op": "_mul", 
      "name": "_mul117", 
      "inputs": [[324, 0, 0], [337, 0, 0]]
    }, 
    {
      "op": "Concat", 
      "name": "concat21", 
      "attr": {
        "dim": "1", 
        "num_args": "2"
      }, 
      "inputs": [[320, 0, 0], [338, 0, 0]]
    }, 
    {
      "op": "FullyConnected", 
      "name": "lstm_t21_i2h", 
      "attr": {"num_hidden": "1024"}, 
      "inputs": [[339, 0, 0], [107, 0, 0], [108, 0, 0]]
    }, 
    {
      "op": "FullyConnected", 
      "name": "lstm_t21_h2h", 
      "attr": {"num_hidden": "1024"}, 
      "inputs": [[308, 0, 0], [110, 0, 0], [111, 0, 0]]
    }, 
    {
      "op": "elemwise_add", 
      "name": "_plus116", 
      "inputs": [[340, 0, 0], [341, 0, 0]]
    }, 
    {
      "op": "SliceChannel", 
      "name": "lstm_t21_slice", 
      "attr": {"num_outputs": "4"}, 
      "inputs": [[342, 0, 0]]
    }, 
    {
      "op": "Activation", 
      "name": "lstm_t21_o", 
      "attr": {"act_type": "sigmoid"}, 
      "inputs": [[343, 3, 0]]
    }, 
    {
      "op": "Activation", 
      "name": "lstm_t21_f", 
      "attr": {"act_type": "sigmoid"}, 
      "inputs": [[343, 1, 0]]
    }, 
    {
      "op": "_mul", 
      "name": "_mul118", 
      "inputs": [[345, 0, 0], [306, 0, 0]]
    }, 
    {
      "op": "Activation", 
      "name": "lstm_t21_i", 
      "attr": {"act_type": "sigmoid"}, 
      "inputs": [[343, 0, 0]]
    }, 
    {
      "op": "Activation", 
      "name": "lstm_t21_c", 
      "attr": {"act_type": "tanh"}, 
      "inputs": [[343, 2, 0]]
    }, 
    {
      "op": "_mul", 
      "name": "_mul119", 
      "inputs": [[347, 0, 0], [348, 0, 0]]
    }, 
    {
      "op": "elemwise_add", 
      "name": "lstm_t21_state", 
      "inputs": [[346, 0, 0], [349, 0, 0]]
    }, 
    {
      "op": "Activation", 
      "name": "activation43", 
      "attr": {"act_type": "tanh"}, 
      "inputs": [[350, 0, 0]]
    }, 
    {
      "op": "_mul", 
      "name": "lstm_t21_out", 
      "inputs": [[344, 0, 0], [351, 0, 0]]
    }, 
    {
      "op": "dot", 
      "name": "dot132", 
      "inputs": [[352, 0, 0], [129, 0, 0]]
    }, 
    {
      "op": "broadcast_add", 
      "name": "broadcast_plus88", 
      "inputs": [[353, 0, 0], [131, 0, 0]]
    }, 
    {
      "op": "dot", 
      "name": "dot133", 
      "inputs": [[338, 0, 0], [133, 0, 0]]
    }, 
    {
      "op": "elemwise_add", 
      "name": "_plus117", 
      "inputs": [[354, 0, 0], [355, 0, 0]]
    }, 
    {
      "op": "elemwise_add", 
      "name": "_plus118", 
      "inputs": [[356, 0, 0], [320, 0, 0]]
    }, 
    {
      "op": "tanh", 
      "name": "tanh23", 
      "inputs": [[357, 0, 0]]
    }, 
    {
      "op": "dot", 
      "name": "dot134", 
      "inputs": [[358, 0, 0], [138, 0, 0]]
    }, 
    {
      "op": "broadcast_add", 
      "name": "broadcast_plus89", 
      "inputs": [[359, 0, 0], [140, 0, 0]]
    }, 
    {
      "op": "argmax", 
      "name": "argmax5", 
      "attr": {"axis": "1"}, 
      "inputs": [[360, 0, 0]]
    }, 
    {
      "op": "expand_dims", 
      "name": "expand_dims93", 
      "attr": {"axis": "0"}, 
      "inputs": [[361, 0, 0]]
    }, 
    {
      "op": "Concat", 
      "name": "concat40", 
      "attr": {
        "dim": "0", 
        "num_args": "2"
      }, 
      "inputs": [[319, 0, 0], [362, 0, 0]]
    }, 
    {
      "op": "Embedding", 
      "name": "embedding6", 
      "attr": {
        "input_dim": "9705", 
        "output_dim": "256"
      }, 
      "inputs": [[361, 0, 0], [2, 0, 0]]
    }, 
    {
      "op": "dot", 
      "name": "dot137", 
      "inputs": [[352, 0, 0], [76, 0, 0]]
    }, 
    {
      "op": "broadcast_add", 
      "name": "broadcast_plus91", 
      "inputs": [[365, 0, 0], [78, 0, 0]]
    }, 
    {
      "op": "sigmoid", 
      "name": "beta", 
      "inputs": [[366, 0, 0]]
    }, 
    {
      "op": "broadcast_to", 
      "name": "broadcast_to84", 
      "attr": {"shape": "(24, 512)"}, 
      "inputs": [[367, 0, 0]]
    }, 
    {
      "op": "broadcast_add", 
      "name": "broadcast_plus90", 
      "inputs": [[88, 0, 0], [89, 0, 0]]
    }, 
    {
      "op": "dot", 
      "name": "dot135", 
      "inputs": [[352, 0, 0], [91, 0, 0]]
    }, 
    {
      "op": "expand_dims", 
      "name": "expand_dims60", 
      "attr": {"axis": "1"}, 
      "inputs": [[370, 0, 0]]
    }, 
    {
      "op": "broadcast_to", 
      "name": "broadcast_to82", 
      "attr": {"shape": "(24, 196, 512)"}, 
      "inputs": [[371, 0, 0]]
    }, 
    {
      "op": "elemwise_add", 
      "name": "_plus119", 
      "inputs": [[369, 0, 0], [372, 0, 0]]
    }, 
    {
      "op": "Activation", 
      "name": "activation44", 
      "attr": {"act_type": "relu"}, 
      "inputs": [[373, 0, 0]]
    }, 
    {
      "op": "dot", 
      "name": "dot136", 
      "inputs": [[374, 0, 0], [97, 0, 0]]
    }, 
    {
      "op": "Reshape", 
      "name": "reshape23", 
      "attr": {"shape": "[-1, 196]"}, 
      "inputs": [[375, 0, 0]]
    }, 
    {
      "op": "softmax", 
      "name": "softmax38", 
      "inputs": [[376, 0, 0]]
    }, 
    {
      "op": "expand_dims", 
      "name": "expand_dims61", 
      "attr": {"axis": "2"}, 
      "inputs": [[377, 0, 0]]
    }, 
    {
      "op": "broadcast_to", 
      "name": "broadcast_to83", 
      "attr": {"shape": "(24, 196, 512)"}, 
      "inputs": [[378, 0, 0]]
    }, 
    {
      "op": "_mul", 
      "name": "_mul120", 
      "inputs": [[86, 0, 0], [379, 0, 0]]
    }, 
    {
      "op": "sum", 
      "name": "context", 
      "attr": {"axis": "1"}, 
      "inputs": [[380, 0, 0]]
    }, 
    {
      "op": "_mul", 
      "name": "_mul121", 
      "inputs": [[368, 0, 0], [381, 0, 0]]
    }, 
    {
      "op": "Concat", 
      "name": "concat22", 
      "attr": {
        "dim": "1", 
        "num_args": "2"
      }, 
      "inputs": [[364, 0, 0], [382, 0, 0]]
    }, 
    {
      "op": "FullyConnected", 
      "name": "lstm_t22_i2h", 
      "attr": {"num_hidden": "1024"}, 
      "inputs": [[383, 0, 0], [107, 0, 0], [108, 0, 0]]
    }, 
    {
      "op": "FullyConnected", 
      "name": "lstm_t22_h2h", 
      "attr": {"num_hidden": "1024"}, 
      "inputs": [[352, 0, 0], [110, 0, 0], [111, 0, 0]]
    }, 
    {
      "op": "elemwise_add", 
      "name": "_plus120", 
      "inputs": [[384, 0, 0], [385, 0, 0]]
    }, 
    {
      "op": "SliceChannel", 
      "name": "lstm_t22_slice", 
      "attr": {"num_outputs": "4"}, 
      "inputs": [[386, 0, 0]]
    }, 
    {
      "op": "Activation", 
      "name": "lstm_t22_o", 
      "attr": {"act_type": "sigmoid"}, 
      "inputs": [[387, 3, 0]]
    }, 
    {
      "op": "Activation", 
      "name": "lstm_t22_f", 
      "attr": {"act_type": "sigmoid"}, 
      "inputs": [[387, 1, 0]]
    }, 
    {
      "op": "_mul", 
      "name": "_mul122", 
      "inputs": [[389, 0, 0], [350, 0, 0]]
    }, 
    {
      "op": "Activation", 
      "name": "lstm_t22_i", 
      "attr": {"act_type": "sigmoid"}, 
      "inputs": [[387, 0, 0]]
    }, 
    {
      "op": "Activation", 
      "name": "lstm_t22_c", 
      "attr": {"act_type": "tanh"}, 
      "inputs": [[387, 2, 0]]
    }, 
    {
      "op": "_mul", 
      "name": "_mul123", 
      "inputs": [[391, 0, 0], [392, 0, 0]]
    }, 
    {
      "op": "elemwise_add", 
      "name": "lstm_t22_state", 
      "inputs": [[390, 0, 0], [393, 0, 0]]
    }, 
    {
      "op": "Activation", 
      "name": "activation45", 
      "attr": {"act_type": "tanh"}, 
      "inputs": [[394, 0, 0]]
    }, 
    {
      "op": "_mul", 
      "name": "lstm_t22_out", 
      "inputs": [[388, 0, 0], [395, 0, 0]]
    }, 
    {
      "op": "dot", 
      "name": "dot138", 
      "inputs": [[396, 0, 0], [129, 0, 0]]
    }, 
    {
      "op": "broadcast_add", 
      "name": "broadcast_plus92", 
      "inputs": [[397, 0, 0], [131, 0, 0]]
    }, 
    {
      "op": "dot", 
      "name": "dot139", 
      "inputs": [[382, 0, 0], [133, 0, 0]]
    }, 
    {
      "op": "elemwise_add", 
      "name": "_plus121", 
      "inputs": [[398, 0, 0], [399, 0, 0]]
    }, 
    {
      "op": "elemwise_add", 
      "name": "_plus122", 
      "inputs": [[400, 0, 0], [364, 0, 0]]
    }, 
    {
      "op": "tanh", 
      "name": "tanh24", 
      "inputs": [[401, 0, 0]]
    }, 
    {
      "op": "dot", 
      "name": "dot140", 
      "inputs": [[402, 0, 0], [138, 0, 0]]
    }, 
    {
      "op": "broadcast_add", 
      "name": "broadcast_plus93", 
      "inputs": [[403, 0, 0], [140, 0, 0]]
    }, 
    {
      "op": "argmax", 
      "name": "argmax6", 
      "attr": {"axis": "1"}, 
      "inputs": [[404, 0, 0]]
    }, 
    {
      "op": "expand_dims", 
      "name": "expand_dims94", 
      "attr": {"axis": "0"}, 
      "inputs": [[405, 0, 0]]
    }, 
    {
      "op": "Concat", 
      "name": "concat41", 
      "attr": {
        "dim": "0", 
        "num_args": "2"
      }, 
      "inputs": [[363, 0, 0], [406, 0, 0]]
    }, 
    {
      "op": "Embedding", 
      "name": "embedding7", 
      "attr": {
        "input_dim": "9705", 
        "output_dim": "256"
      }, 
      "inputs": [[405, 0, 0], [2, 0, 0]]
    }, 
    {
      "op": "dot", 
      "name": "dot143", 
      "inputs": [[396, 0, 0], [76, 0, 0]]
    }, 
    {
      "op": "broadcast_add", 
      "name": "broadcast_plus95", 
      "inputs": [[409, 0, 0], [78, 0, 0]]
    }, 
    {
      "op": "sigmoid", 
      "name": "beta", 
      "inputs": [[410, 0, 0]]
    }, 
    {
      "op": "broadcast_to", 
      "name": "broadcast_to87", 
      "attr": {"shape": "(24, 512)"}, 
      "inputs": [[411, 0, 0]]
    }, 
    {
      "op": "broadcast_add", 
      "name": "broadcast_plus94", 
      "inputs": [[88, 0, 0], [89, 0, 0]]
    }, 
    {
      "op": "dot", 
      "name": "dot141", 
      "inputs": [[396, 0, 0], [91, 0, 0]]
    }, 
    {
      "op": "expand_dims", 
      "name": "expand_dims62", 
      "attr": {"axis": "1"}, 
      "inputs": [[414, 0, 0]]
    }, 
    {
      "op": "broadcast_to", 
      "name": "broadcast_to85", 
      "attr": {"shape": "(24, 196, 512)"}, 
      "inputs": [[415, 0, 0]]
    }, 
    {
      "op": "elemwise_add", 
      "name": "_plus123", 
      "inputs": [[413, 0, 0], [416, 0, 0]]
    }, 
    {
      "op": "Activation", 
      "name": "activation46", 
      "attr": {"act_type": "relu"}, 
      "inputs": [[417, 0, 0]]
    }, 
    {
      "op": "dot", 
      "name": "dot142", 
      "inputs": [[418, 0, 0], [97, 0, 0]]
    }, 
    {
      "op": "Reshape", 
      "name": "reshape24", 
      "attr": {"shape": "[-1, 196]"}, 
      "inputs": [[419, 0, 0]]
    }, 
    {
      "op": "softmax", 
      "name": "softmax39", 
      "inputs": [[420, 0, 0]]
    }, 
    {
      "op": "expand_dims", 
      "name": "expand_dims63", 
      "attr": {"axis": "2"}, 
      "inputs": [[421, 0, 0]]
    }, 
    {
      "op": "broadcast_to", 
      "name": "broadcast_to86", 
      "attr": {"shape": "(24, 196, 512)"}, 
      "inputs": [[422, 0, 0]]
    }, 
    {
      "op": "_mul", 
      "name": "_mul124", 
      "inputs": [[86, 0, 0], [423, 0, 0]]
    }, 
    {
      "op": "sum", 
      "name": "context", 
      "attr": {"axis": "1"}, 
      "inputs": [[424, 0, 0]]
    }, 
    {
      "op": "_mul", 
      "name": "_mul125", 
      "inputs": [[412, 0, 0], [425, 0, 0]]
    }, 
    {
      "op": "Concat", 
      "name": "concat23", 
      "attr": {
        "dim": "1", 
        "num_args": "2"
      }, 
      "inputs": [[408, 0, 0], [426, 0, 0]]
    }, 
    {
      "op": "FullyConnected", 
      "name": "lstm_t23_i2h", 
      "attr": {"num_hidden": "1024"}, 
      "inputs": [[427, 0, 0], [107, 0, 0], [108, 0, 0]]
    }, 
    {
      "op": "FullyConnected", 
      "name": "lstm_t23_h2h", 
      "attr": {"num_hidden": "1024"}, 
      "inputs": [[396, 0, 0], [110, 0, 0], [111, 0, 0]]
    }, 
    {
      "op": "elemwise_add", 
      "name": "_plus124", 
      "inputs": [[428, 0, 0], [429, 0, 0]]
    }, 
    {
      "op": "SliceChannel", 
      "name": "lstm_t23_slice", 
      "attr": {"num_outputs": "4"}, 
      "inputs": [[430, 0, 0]]
    }, 
    {
      "op": "Activation", 
      "name": "lstm_t23_o", 
      "attr": {"act_type": "sigmoid"}, 
      "inputs": [[431, 3, 0]]
    }, 
    {
      "op": "Activation", 
      "name": "lstm_t23_f", 
      "attr": {"act_type": "sigmoid"}, 
      "inputs": [[431, 1, 0]]
    }, 
    {
      "op": "_mul", 
      "name": "_mul126", 
      "inputs": [[433, 0, 0], [394, 0, 0]]
    }, 
    {
      "op": "Activation", 
      "name": "lstm_t23_i", 
      "attr": {"act_type": "sigmoid"}, 
      "inputs": [[431, 0, 0]]
    }, 
    {
      "op": "Activation", 
      "name": "lstm_t23_c", 
      "attr": {"act_type": "tanh"}, 
      "inputs": [[431, 2, 0]]
    }, 
    {
      "op": "_mul", 
      "name": "_mul127", 
      "inputs": [[435, 0, 0], [436, 0, 0]]
    }, 
    {
      "op": "elemwise_add", 
      "name": "lstm_t23_state", 
      "inputs": [[434, 0, 0], [437, 0, 0]]
    }, 
    {
      "op": "Activation", 
      "name": "activation47", 
      "attr": {"act_type": "tanh"}, 
      "inputs": [[438, 0, 0]]
    }, 
    {
      "op": "_mul", 
      "name": "lstm_t23_out", 
      "inputs": [[432, 0, 0], [439, 0, 0]]
    }, 
    {
      "op": "dot", 
      "name": "dot144", 
      "inputs": [[440, 0, 0], [129, 0, 0]]
    }, 
    {
      "op": "broadcast_add", 
      "name": "broadcast_plus96", 
      "inputs": [[441, 0, 0], [131, 0, 0]]
    }, 
    {
      "op": "dot", 
      "name": "dot145", 
      "inputs": [[426, 0, 0], [133, 0, 0]]
    }, 
    {
      "op": "elemwise_add", 
      "name": "_plus125", 
      "inputs": [[442, 0, 0], [443, 0, 0]]
    }, 
    {
      "op": "elemwise_add", 
      "name": "_plus126", 
      "inputs": [[444, 0, 0], [408, 0, 0]]
    }, 
    {
      "op": "tanh", 
      "name": "tanh25", 
      "inputs": [[445, 0, 0]]
    }, 
    {
      "op": "dot", 
      "name": "dot146", 
      "inputs": [[446, 0, 0], [138, 0, 0]]
    }, 
    {
      "op": "broadcast_add", 
      "name": "broadcast_plus97", 
      "inputs": [[447, 0, 0], [140, 0, 0]]
    }, 
    {
      "op": "argmax", 
      "name": "argmax7", 
      "attr": {"axis": "1"}, 
      "inputs": [[448, 0, 0]]
    }, 
    {
      "op": "expand_dims", 
      "name": "expand_dims95", 
      "attr": {"axis": "0"}, 
      "inputs": [[449, 0, 0]]
    }, 
    {
      "op": "Concat", 
      "name": "concat42", 
      "attr": {
        "dim": "0", 
        "num_args": "2"
      }, 
      "inputs": [[407, 0, 0], [450, 0, 0]]
    }, 
    {
      "op": "Embedding", 
      "name": "embedding8", 
      "attr": {
        "input_dim": "9705", 
        "output_dim": "256"
      }, 
      "inputs": [[449, 0, 0], [2, 0, 0]]
    }, 
    {
      "op": "dot", 
      "name": "dot149", 
      "inputs": [[440, 0, 0], [76, 0, 0]]
    }, 
    {
      "op": "broadcast_add", 
      "name": "broadcast_plus99", 
      "inputs": [[453, 0, 0], [78, 0, 0]]
    }, 
    {
      "op": "sigmoid", 
      "name": "beta", 
      "inputs": [[454, 0, 0]]
    }, 
    {
      "op": "broadcast_to", 
      "name": "broadcast_to90", 
      "attr": {"shape": "(24, 512)"}, 
      "inputs": [[455, 0, 0]]
    }, 
    {
      "op": "broadcast_add", 
      "name": "broadcast_plus98", 
      "inputs": [[88, 0, 0], [89, 0, 0]]
    }, 
    {
      "op": "dot", 
      "name": "dot147", 
      "inputs": [[440, 0, 0], [91, 0, 0]]
    }, 
    {
      "op": "expand_dims", 
      "name": "expand_dims64", 
      "attr": {"axis": "1"}, 
      "inputs": [[458, 0, 0]]
    }, 
    {
      "op": "broadcast_to", 
      "name": "broadcast_to88", 
      "attr": {"shape": "(24, 196, 512)"}, 
      "inputs": [[459, 0, 0]]
    }, 
    {
      "op": "elemwise_add", 
      "name": "_plus127", 
      "inputs": [[457, 0, 0], [460, 0, 0]]
    }, 
    {
      "op": "Activation", 
      "name": "activation48", 
      "attr": {"act_type": "relu"}, 
      "inputs": [[461, 0, 0]]
    }, 
    {
      "op": "dot", 
      "name": "dot148", 
      "inputs": [[462, 0, 0], [97, 0, 0]]
    }, 
    {
      "op": "Reshape", 
      "name": "reshape25", 
      "attr": {"shape": "[-1, 196]"}, 
      "inputs": [[463, 0, 0]]
    }, 
    {
      "op": "softmax", 
      "name": "softmax40", 
      "inputs": [[464, 0, 0]]
    }, 
    {
      "op": "expand_dims", 
      "name": "expand_dims65", 
      "attr": {"axis": "2"}, 
      "inputs": [[465, 0, 0]]
    }, 
    {
      "op": "broadcast_to", 
      "name": "broadcast_to89", 
      "attr": {"shape": "(24, 196, 512)"}, 
      "inputs": [[466, 0, 0]]
    }, 
    {
      "op": "_mul", 
      "name": "_mul128", 
      "inputs": [[86, 0, 0], [467, 0, 0]]
    }, 
    {
      "op": "sum", 
      "name": "context", 
      "attr": {"axis": "1"}, 
      "inputs": [[468, 0, 0]]
    }, 
    {
      "op": "_mul", 
      "name": "_mul129", 
      "inputs": [[456, 0, 0], [469, 0, 0]]
    }, 
    {
      "op": "Concat", 
      "name": "concat24", 
      "attr": {
        "dim": "1", 
        "num_args": "2"
      }, 
      "inputs": [[452, 0, 0], [470, 0, 0]]
    }, 
    {
      "op": "FullyConnected", 
      "name": "lstm_t24_i2h", 
      "attr": {"num_hidden": "1024"}, 
      "inputs": [[471, 0, 0], [107, 0, 0], [108, 0, 0]]
    }, 
    {
      "op": "FullyConnected", 
      "name": "lstm_t24_h2h", 
      "attr": {"num_hidden": "1024"}, 
      "inputs": [[440, 0, 0], [110, 0, 0], [111, 0, 0]]
    }, 
    {
      "op": "elemwise_add", 
      "name": "_plus128", 
      "inputs": [[472, 0, 0], [473, 0, 0]]
    }, 
    {
      "op": "SliceChannel", 
      "name": "lstm_t24_slice", 
      "attr": {"num_outputs": "4"}, 
      "inputs": [[474, 0, 0]]
    }, 
    {
      "op": "Activation", 
      "name": "lstm_t24_o", 
      "attr": {"act_type": "sigmoid"}, 
      "inputs": [[475, 3, 0]]
    }, 
    {
      "op": "Activation", 
      "name": "lstm_t24_f", 
      "attr": {"act_type": "sigmoid"}, 
      "inputs": [[475, 1, 0]]
    }, 
    {
      "op": "_mul", 
      "name": "_mul130", 
      "inputs": [[477, 0, 0], [438, 0, 0]]
    }, 
    {
      "op": "Activation", 
      "name": "lstm_t24_i", 
      "attr": {"act_type": "sigmoid"}, 
      "inputs": [[475, 0, 0]]
    }, 
    {
      "op": "Activation", 
      "name": "lstm_t24_c", 
      "attr": {"act_type": "tanh"}, 
      "inputs": [[475, 2, 0]]
    }, 
    {
      "op": "_mul", 
      "name": "_mul131", 
      "inputs": [[479, 0, 0], [480, 0, 0]]
    }, 
    {
      "op": "elemwise_add", 
      "name": "lstm_t24_state", 
      "inputs": [[478, 0, 0], [481, 0, 0]]
    }, 
    {
      "op": "Activation", 
      "name": "activation49", 
      "attr": {"act_type": "tanh"}, 
      "inputs": [[482, 0, 0]]
    }, 
    {
      "op": "_mul", 
      "name": "lstm_t24_out", 
      "inputs": [[476, 0, 0], [483, 0, 0]]
    }, 
    {
      "op": "dot", 
      "name": "dot150", 
      "inputs": [[484, 0, 0], [129, 0, 0]]
    }, 
    {
      "op": "broadcast_add", 
      "name": "broadcast_plus100", 
      "inputs": [[485, 0, 0], [131, 0, 0]]
    }, 
    {
      "op": "dot", 
      "name": "dot151", 
      "inputs": [[470, 0, 0], [133, 0, 0]]
    }, 
    {
      "op": "elemwise_add", 
      "name": "_plus129", 
      "inputs": [[486, 0, 0], [487, 0, 0]]
    }, 
    {
      "op": "elemwise_add", 
      "name": "_plus130", 
      "inputs": [[488, 0, 0], [452, 0, 0]]
    }, 
    {
      "op": "tanh", 
      "name": "tanh26", 
      "inputs": [[489, 0, 0]]
    }, 
    {
      "op": "dot", 
      "name": "dot152", 
      "inputs": [[490, 0, 0], [138, 0, 0]]
    }, 
    {
      "op": "broadcast_add", 
      "name": "broadcast_plus101", 
      "inputs": [[491, 0, 0], [140, 0, 0]]
    }, 
    {
      "op": "argmax", 
      "name": "argmax8", 
      "attr": {"axis": "1"}, 
      "inputs": [[492, 0, 0]]
    }, 
    {
      "op": "expand_dims", 
      "name": "expand_dims96", 
      "attr": {"axis": "0"}, 
      "inputs": [[493, 0, 0]]
    }, 
    {
      "op": "Concat", 
      "name": "concat43", 
      "attr": {
        "dim": "0", 
        "num_args": "2"
      }, 
      "inputs": [[451, 0, 0], [494, 0, 0]]
    }, 
    {
      "op": "Embedding", 
      "name": "embedding9", 
      "attr": {
        "input_dim": "9705", 
        "output_dim": "256"
      }, 
      "inputs": [[493, 0, 0], [2, 0, 0]]
    }, 
    {
      "op": "dot", 
      "name": "dot155", 
      "inputs": [[484, 0, 0], [76, 0, 0]]
    }, 
    {
      "op": "broadcast_add", 
      "name": "broadcast_plus103", 
      "inputs": [[497, 0, 0], [78, 0, 0]]
    }, 
    {
      "op": "sigmoid", 
      "name": "beta", 
      "inputs": [[498, 0, 0]]
    }, 
    {
      "op": "broadcast_to", 
      "name": "broadcast_to93", 
      "attr": {"shape": "(24, 512)"}, 
      "inputs": [[499, 0, 0]]
    }, 
    {
      "op": "broadcast_add", 
      "name": "broadcast_plus102", 
      "inputs": [[88, 0, 0], [89, 0, 0]]
    }, 
    {
      "op": "dot", 
      "name": "dot153", 
      "inputs": [[484, 0, 0], [91, 0, 0]]
    }, 
    {
      "op": "expand_dims", 
      "name": "expand_dims66", 
      "attr": {"axis": "1"}, 
      "inputs": [[502, 0, 0]]
    }, 
    {
      "op": "broadcast_to", 
      "name": "broadcast_to91", 
      "attr": {"shape": "(24, 196, 512)"}, 
      "inputs": [[503, 0, 0]]
    }, 
    {
      "op": "elemwise_add", 
      "name": "_plus131", 
      "inputs": [[501, 0, 0], [504, 0, 0]]
    }, 
    {
      "op": "Activation", 
      "name": "activation50", 
      "attr": {"act_type": "relu"}, 
      "inputs": [[505, 0, 0]]
    }, 
    {
      "op": "dot", 
      "name": "dot154", 
      "inputs": [[506, 0, 0], [97, 0, 0]]
    }, 
    {
      "op": "Reshape", 
      "name": "reshape26", 
      "attr": {"shape": "[-1, 196]"}, 
      "inputs": [[507, 0, 0]]
    }, 
    {
      "op": "softmax", 
      "name": "softmax41", 
      "inputs": [[508, 0, 0]]
    }, 
    {
      "op": "expand_dims", 
      "name": "expand_dims67", 
      "attr": {"axis": "2"}, 
      "inputs": [[509, 0, 0]]
    }, 
    {
      "op": "broadcast_to", 
      "name": "broadcast_to92", 
      "attr": {"shape": "(24, 196, 512)"}, 
      "inputs": [[510, 0, 0]]
    }, 
    {
      "op": "_mul", 
      "name": "_mul132", 
      "inputs": [[86, 0, 0], [511, 0, 0]]
    }, 
    {
      "op": "sum", 
      "name": "context", 
      "attr": {"axis": "1"}, 
      "inputs": [[512, 0, 0]]
    }, 
    {
      "op": "_mul", 
      "name": "_mul133", 
      "inputs": [[500, 0, 0], [513, 0, 0]]
    }, 
    {
      "op": "Concat", 
      "name": "concat25", 
      "attr": {
        "dim": "1", 
        "num_args": "2"
      }, 
      "inputs": [[496, 0, 0], [514, 0, 0]]
    }, 
    {
      "op": "FullyConnected", 
      "name": "lstm_t25_i2h", 
      "attr": {"num_hidden": "1024"}, 
      "inputs": [[515, 0, 0], [107, 0, 0], [108, 0, 0]]
    }, 
    {
      "op": "FullyConnected", 
      "name": "lstm_t25_h2h", 
      "attr": {"num_hidden": "1024"}, 
      "inputs": [[484, 0, 0], [110, 0, 0], [111, 0, 0]]
    }, 
    {
      "op": "elemwise_add", 
      "name": "_plus132", 
      "inputs": [[516, 0, 0], [517, 0, 0]]
    }, 
    {
      "op": "SliceChannel", 
      "name": "lstm_t25_slice", 
      "attr": {"num_outputs": "4"}, 
      "inputs": [[518, 0, 0]]
    }, 
    {
      "op": "Activation", 
      "name": "lstm_t25_o", 
      "attr": {"act_type": "sigmoid"}, 
      "inputs": [[519, 3, 0]]
    }, 
    {
      "op": "Activation", 
      "name": "lstm_t25_f", 
      "attr": {"act_type": "sigmoid"}, 
      "inputs": [[519, 1, 0]]
    }, 
    {
      "op": "_mul", 
      "name": "_mul134", 
      "inputs": [[521, 0, 0], [482, 0, 0]]
    }, 
    {
      "op": "Activation", 
      "name": "lstm_t25_i", 
      "attr": {"act_type": "sigmoid"}, 
      "inputs": [[519, 0, 0]]
    }, 
    {
      "op": "Activation", 
      "name": "lstm_t25_c", 
      "attr": {"act_type": "tanh"}, 
      "inputs": [[519, 2, 0]]
    }, 
    {
      "op": "_mul", 
      "name": "_mul135", 
      "inputs": [[523, 0, 0], [524, 0, 0]]
    }, 
    {
      "op": "elemwise_add", 
      "name": "lstm_t25_state", 
      "inputs": [[522, 0, 0], [525, 0, 0]]
    }, 
    {
      "op": "Activation", 
      "name": "activation51", 
      "attr": {"act_type": "tanh"}, 
      "inputs": [[526, 0, 0]]
    }, 
    {
      "op": "_mul", 
      "name": "lstm_t25_out", 
      "inputs": [[520, 0, 0], [527, 0, 0]]
    }, 
    {
      "op": "dot", 
      "name": "dot156", 
      "inputs": [[528, 0, 0], [129, 0, 0]]
    }, 
    {
      "op": "broadcast_add", 
      "name": "broadcast_plus104", 
      "inputs": [[529, 0, 0], [131, 0, 0]]
    }, 
    {
      "op": "dot", 
      "name": "dot157", 
      "inputs": [[514, 0, 0], [133, 0, 0]]
    }, 
    {
      "op": "elemwise_add", 
      "name": "_plus133", 
      "inputs": [[530, 0, 0], [531, 0, 0]]
    }, 
    {
      "op": "elemwise_add", 
      "name": "_plus134", 
      "inputs": [[532, 0, 0], [496, 0, 0]]
    }, 
    {
      "op": "tanh", 
      "name": "tanh27", 
      "inputs": [[533, 0, 0]]
    }, 
    {
      "op": "dot", 
      "name": "dot158", 
      "inputs": [[534, 0, 0], [138, 0, 0]]
    }, 
    {
      "op": "broadcast_add", 
      "name": "broadcast_plus105", 
      "inputs": [[535, 0, 0], [140, 0, 0]]
    }, 
    {
      "op": "argmax", 
      "name": "argmax9", 
      "attr": {"axis": "1"}, 
      "inputs": [[536, 0, 0]]
    }, 
    {
      "op": "expand_dims", 
      "name": "expand_dims97", 
      "attr": {"axis": "0"}, 
      "inputs": [[537, 0, 0]]
    }, 
    {
      "op": "Concat", 
      "name": "concat44", 
      "attr": {
        "dim": "0", 
        "num_args": "2"
      }, 
      "inputs": [[495, 0, 0], [538, 0, 0]]
    }, 
    {
      "op": "Embedding", 
      "name": "embedding10", 
      "attr": {
        "input_dim": "9705", 
        "output_dim": "256"
      }, 
      "inputs": [[537, 0, 0], [2, 0, 0]]
    }, 
    {
      "op": "dot", 
      "name": "dot161", 
      "inputs": [[528, 0, 0], [76, 0, 0]]
    }, 
    {
      "op": "broadcast_add", 
      "name": "broadcast_plus107", 
      "inputs": [[541, 0, 0], [78, 0, 0]]
    }, 
    {
      "op": "sigmoid", 
      "name": "beta", 
      "inputs": [[542, 0, 0]]
    }, 
    {
      "op": "broadcast_to", 
      "name": "broadcast_to96", 
      "attr": {"shape": "(24, 512)"}, 
      "inputs": [[543, 0, 0]]
    }, 
    {
      "op": "broadcast_add", 
      "name": "broadcast_plus106", 
      "inputs": [[88, 0, 0], [89, 0, 0]]
    }, 
    {
      "op": "dot", 
      "name": "dot159", 
      "inputs": [[528, 0, 0], [91, 0, 0]]
    }, 
    {
      "op": "expand_dims", 
      "name": "expand_dims68", 
      "attr": {"axis": "1"}, 
      "inputs": [[546, 0, 0]]
    }, 
    {
      "op": "broadcast_to", 
      "name": "broadcast_to94", 
      "attr": {"shape": "(24, 196, 512)"}, 
      "inputs": [[547, 0, 0]]
    }, 
    {
      "op": "elemwise_add", 
      "name": "_plus135", 
      "inputs": [[545, 0, 0], [548, 0, 0]]
    }, 
    {
      "op": "Activation", 
      "name": "activation52", 
      "attr": {"act_type": "relu"}, 
      "inputs": [[549, 0, 0]]
    }, 
    {
      "op": "dot", 
      "name": "dot160", 
      "inputs": [[550, 0, 0], [97, 0, 0]]
    }, 
    {
      "op": "Reshape", 
      "name": "reshape27", 
      "attr": {"shape": "[-1, 196]"}, 
      "inputs": [[551, 0, 0]]
    }, 
    {
      "op": "softmax", 
      "name": "softmax42", 
      "inputs": [[552, 0, 0]]
    }, 
    {
      "op": "expand_dims", 
      "name": "expand_dims69", 
      "attr": {"axis": "2"}, 
      "inputs": [[553, 0, 0]]
    }, 
    {
      "op": "broadcast_to", 
      "name": "broadcast_to95", 
      "attr": {"shape": "(24, 196, 512)"}, 
      "inputs": [[554, 0, 0]]
    }, 
    {
      "op": "_mul", 
      "name": "_mul136", 
      "inputs": [[86, 0, 0], [555, 0, 0]]
    }, 
    {
      "op": "sum", 
      "name": "context", 
      "attr": {"axis": "1"}, 
      "inputs": [[556, 0, 0]]
    }, 
    {
      "op": "_mul", 
      "name": "_mul137", 
      "inputs": [[544, 0, 0], [557, 0, 0]]
    }, 
    {
      "op": "Concat", 
      "name": "concat26", 
      "attr": {
        "dim": "1", 
        "num_args": "2"
      }, 
      "inputs": [[540, 0, 0], [558, 0, 0]]
    }, 
    {
      "op": "FullyConnected", 
      "name": "lstm_t26_i2h", 
      "attr": {"num_hidden": "1024"}, 
      "inputs": [[559, 0, 0], [107, 0, 0], [108, 0, 0]]
    }, 
    {
      "op": "FullyConnected", 
      "name": "lstm_t26_h2h", 
      "attr": {"num_hidden": "1024"}, 
      "inputs": [[528, 0, 0], [110, 0, 0], [111, 0, 0]]
    }, 
    {
      "op": "elemwise_add", 
      "name": "_plus136", 
      "inputs": [[560, 0, 0], [561, 0, 0]]
    }, 
    {
      "op": "SliceChannel", 
      "name": "lstm_t26_slice", 
      "attr": {"num_outputs": "4"}, 
      "inputs": [[562, 0, 0]]
    }, 
    {
      "op": "Activation", 
      "name": "lstm_t26_o", 
      "attr": {"act_type": "sigmoid"}, 
      "inputs": [[563, 3, 0]]
    }, 
    {
      "op": "Activation", 
      "name": "lstm_t26_f", 
      "attr": {"act_type": "sigmoid"}, 
      "inputs": [[563, 1, 0]]
    }, 
    {
      "op": "_mul", 
      "name": "_mul138", 
      "inputs": [[565, 0, 0], [526, 0, 0]]
    }, 
    {
      "op": "Activation", 
      "name": "lstm_t26_i", 
      "attr": {"act_type": "sigmoid"}, 
      "inputs": [[563, 0, 0]]
    }, 
    {
      "op": "Activation", 
      "name": "lstm_t26_c", 
      "attr": {"act_type": "tanh"}, 
      "inputs": [[563, 2, 0]]
    }, 
    {
      "op": "_mul", 
      "name": "_mul139", 
      "inputs": [[567, 0, 0], [568, 0, 0]]
    }, 
    {
      "op": "elemwise_add", 
      "name": "lstm_t26_state", 
      "inputs": [[566, 0, 0], [569, 0, 0]]
    }, 
    {
      "op": "Activation", 
      "name": "activation53", 
      "attr": {"act_type": "tanh"}, 
      "inputs": [[570, 0, 0]]
    }, 
    {
      "op": "_mul", 
      "name": "lstm_t26_out", 
      "inputs": [[564, 0, 0], [571, 0, 0]]
    }, 
    {
      "op": "dot", 
      "name": "dot162", 
      "inputs": [[572, 0, 0], [129, 0, 0]]
    }, 
    {
      "op": "broadcast_add", 
      "name": "broadcast_plus108", 
      "inputs": [[573, 0, 0], [131, 0, 0]]
    }, 
    {
      "op": "dot", 
      "name": "dot163", 
      "inputs": [[558, 0, 0], [133, 0, 0]]
    }, 
    {
      "op": "elemwise_add", 
      "name": "_plus137", 
      "inputs": [[574, 0, 0], [575, 0, 0]]
    }, 
    {
      "op": "elemwise_add", 
      "name": "_plus138", 
      "inputs": [[576, 0, 0], [540, 0, 0]]
    }, 
    {
      "op": "tanh", 
      "name": "tanh28", 
      "inputs": [[577, 0, 0]]
    }, 
    {
      "op": "dot", 
      "name": "dot164", 
      "inputs": [[578, 0, 0], [138, 0, 0]]
    }, 
    {
      "op": "broadcast_add", 
      "name": "broadcast_plus109", 
      "inputs": [[579, 0, 0], [140, 0, 0]]
    }, 
    {
      "op": "argmax", 
      "name": "argmax10", 
      "attr": {"axis": "1"}, 
      "inputs": [[580, 0, 0]]
    }, 
    {
      "op": "expand_dims", 
      "name": "expand_dims98", 
      "attr": {"axis": "0"}, 
      "inputs": [[581, 0, 0]]
    }, 
    {
      "op": "Concat", 
      "name": "concat45", 
      "attr": {
        "dim": "0", 
        "num_args": "2"
      }, 
      "inputs": [[539, 0, 0], [582, 0, 0]]
    }, 
    {
      "op": "Embedding", 
      "name": "embedding11", 
      "attr": {
        "input_dim": "9705", 
        "output_dim": "256"
      }, 
      "inputs": [[581, 0, 0], [2, 0, 0]]
    }, 
    {
      "op": "dot", 
      "name": "dot167", 
      "inputs": [[572, 0, 0], [76, 0, 0]]
    }, 
    {
      "op": "broadcast_add", 
      "name": "broadcast_plus111", 
      "inputs": [[585, 0, 0], [78, 0, 0]]
    }, 
    {
      "op": "sigmoid", 
      "name": "beta", 
      "inputs": [[586, 0, 0]]
    }, 
    {
      "op": "broadcast_to", 
      "name": "broadcast_to99", 
      "attr": {"shape": "(24, 512)"}, 
      "inputs": [[587, 0, 0]]
    }, 
    {
      "op": "broadcast_add", 
      "name": "broadcast_plus110", 
      "inputs": [[88, 0, 0], [89, 0, 0]]
    }, 
    {
      "op": "dot", 
      "name": "dot165", 
      "inputs": [[572, 0, 0], [91, 0, 0]]
    }, 
    {
      "op": "expand_dims", 
      "name": "expand_dims70", 
      "attr": {"axis": "1"}, 
      "inputs": [[590, 0, 0]]
    }, 
    {
      "op": "broadcast_to", 
      "name": "broadcast_to97", 
      "attr": {"shape": "(24, 196, 512)"}, 
      "inputs": [[591, 0, 0]]
    }, 
    {
      "op": "elemwise_add", 
      "name": "_plus139", 
      "inputs": [[589, 0, 0], [592, 0, 0]]
    }, 
    {
      "op": "Activation", 
      "name": "activation54", 
      "attr": {"act_type": "relu"}, 
      "inputs": [[593, 0, 0]]
    }, 
    {
      "op": "dot", 
      "name": "dot166", 
      "inputs": [[594, 0, 0], [97, 0, 0]]
    }, 
    {
      "op": "Reshape", 
      "name": "reshape28", 
      "attr": {"shape": "[-1, 196]"}, 
      "inputs": [[595, 0, 0]]
    }, 
    {
      "op": "softmax", 
      "name": "softmax43", 
      "inputs": [[596, 0, 0]]
    }, 
    {
      "op": "expand_dims", 
      "name": "expand_dims71", 
      "attr": {"axis": "2"}, 
      "inputs": [[597, 0, 0]]
    }, 
    {
      "op": "broadcast_to", 
      "name": "broadcast_to98", 
      "attr": {"shape": "(24, 196, 512)"}, 
      "inputs": [[598, 0, 0]]
    }, 
    {
      "op": "_mul", 
      "name": "_mul140", 
      "inputs": [[86, 0, 0], [599, 0, 0]]
    }, 
    {
      "op": "sum", 
      "name": "context", 
      "attr": {"axis": "1"}, 
      "inputs": [[600, 0, 0]]
    }, 
    {
      "op": "_mul", 
      "name": "_mul141", 
      "inputs": [[588, 0, 0], [601, 0, 0]]
    }, 
    {
      "op": "Concat", 
      "name": "concat27", 
      "attr": {
        "dim": "1", 
        "num_args": "2"
      }, 
      "inputs": [[584, 0, 0], [602, 0, 0]]
    }, 
    {
      "op": "FullyConnected", 
      "name": "lstm_t27_i2h", 
      "attr": {"num_hidden": "1024"}, 
      "inputs": [[603, 0, 0], [107, 0, 0], [108, 0, 0]]
    }, 
    {
      "op": "FullyConnected", 
      "name": "lstm_t27_h2h", 
      "attr": {"num_hidden": "1024"}, 
      "inputs": [[572, 0, 0], [110, 0, 0], [111, 0, 0]]
    }, 
    {
      "op": "elemwise_add", 
      "name": "_plus140", 
      "inputs": [[604, 0, 0], [605, 0, 0]]
    }, 
    {
      "op": "SliceChannel", 
      "name": "lstm_t27_slice", 
      "attr": {"num_outputs": "4"}, 
      "inputs": [[606, 0, 0]]
    }, 
    {
      "op": "Activation", 
      "name": "lstm_t27_o", 
      "attr": {"act_type": "sigmoid"}, 
      "inputs": [[607, 3, 0]]
    }, 
    {
      "op": "Activation", 
      "name": "lstm_t27_f", 
      "attr": {"act_type": "sigmoid"}, 
      "inputs": [[607, 1, 0]]
    }, 
    {
      "op": "_mul", 
      "name": "_mul142", 
      "inputs": [[609, 0, 0], [570, 0, 0]]
    }, 
    {
      "op": "Activation", 
      "name": "lstm_t27_i", 
      "attr": {"act_type": "sigmoid"}, 
      "inputs": [[607, 0, 0]]
    }, 
    {
      "op": "Activation", 
      "name": "lstm_t27_c", 
      "attr": {"act_type": "tanh"}, 
      "inputs": [[607, 2, 0]]
    }, 
    {
      "op": "_mul", 
      "name": "_mul143", 
      "inputs": [[611, 0, 0], [612, 0, 0]]
    }, 
    {
      "op": "elemwise_add", 
      "name": "lstm_t27_state", 
      "inputs": [[610, 0, 0], [613, 0, 0]]
    }, 
    {
      "op": "Activation", 
      "name": "activation55", 
      "attr": {"act_type": "tanh"}, 
      "inputs": [[614, 0, 0]]
    }, 
    {
      "op": "_mul", 
      "name": "lstm_t27_out", 
      "inputs": [[608, 0, 0], [615, 0, 0]]
    }, 
    {
      "op": "dot", 
      "name": "dot168", 
      "inputs": [[616, 0, 0], [129, 0, 0]]
    }, 
    {
      "op": "broadcast_add", 
      "name": "broadcast_plus112", 
      "inputs": [[617, 0, 0], [131, 0, 0]]
    }, 
    {
      "op": "dot", 
      "name": "dot169", 
      "inputs": [[602, 0, 0], [133, 0, 0]]
    }, 
    {
      "op": "elemwise_add", 
      "name": "_plus141", 
      "inputs": [[618, 0, 0], [619, 0, 0]]
    }, 
    {
      "op": "elemwise_add", 
      "name": "_plus142", 
      "inputs": [[620, 0, 0], [584, 0, 0]]
    }, 
    {
      "op": "tanh", 
      "name": "tanh29", 
      "inputs": [[621, 0, 0]]
    }, 
    {
      "op": "dot", 
      "name": "dot170", 
      "inputs": [[622, 0, 0], [138, 0, 0]]
    }, 
    {
      "op": "broadcast_add", 
      "name": "broadcast_plus113", 
      "inputs": [[623, 0, 0], [140, 0, 0]]
    }, 
    {
      "op": "argmax", 
      "name": "argmax11", 
      "attr": {"axis": "1"}, 
      "inputs": [[624, 0, 0]]
    }, 
    {
      "op": "expand_dims", 
      "name": "expand_dims99", 
      "attr": {"axis": "0"}, 
      "inputs": [[625, 0, 0]]
    }, 
    {
      "op": "Concat", 
      "name": "concat46", 
      "attr": {
        "dim": "0", 
        "num_args": "2"
      }, 
      "inputs": [[583, 0, 0], [626, 0, 0]]
    }, 
    {
      "op": "Embedding", 
      "name": "embedding12", 
      "attr": {
        "input_dim": "9705", 
        "output_dim": "256"
      }, 
      "inputs": [[625, 0, 0], [2, 0, 0]]
    }, 
    {
      "op": "dot", 
      "name": "dot173", 
      "inputs": [[616, 0, 0], [76, 0, 0]]
    }, 
    {
      "op": "broadcast_add", 
      "name": "broadcast_plus115", 
      "inputs": [[629, 0, 0], [78, 0, 0]]
    }, 
    {
      "op": "sigmoid", 
      "name": "beta", 
      "inputs": [[630, 0, 0]]
    }, 
    {
      "op": "broadcast_to", 
      "name": "broadcast_to102", 
      "attr": {"shape": "(24, 512)"}, 
      "inputs": [[631, 0, 0]]
    }, 
    {
      "op": "broadcast_add", 
      "name": "broadcast_plus114", 
      "inputs": [[88, 0, 0], [89, 0, 0]]
    }, 
    {
      "op": "dot", 
      "name": "dot171", 
      "inputs": [[616, 0, 0], [91, 0, 0]]
    }, 
    {
      "op": "expand_dims", 
      "name": "expand_dims72", 
      "attr": {"axis": "1"}, 
      "inputs": [[634, 0, 0]]
    }, 
    {
      "op": "broadcast_to", 
      "name": "broadcast_to100", 
      "attr": {"shape": "(24, 196, 512)"}, 
      "inputs": [[635, 0, 0]]
    }, 
    {
      "op": "elemwise_add", 
      "name": "_plus143", 
      "inputs": [[633, 0, 0], [636, 0, 0]]
    }, 
    {
      "op": "Activation", 
      "name": "activation56", 
      "attr": {"act_type": "relu"}, 
      "inputs": [[637, 0, 0]]
    }, 
    {
      "op": "dot", 
      "name": "dot172", 
      "inputs": [[638, 0, 0], [97, 0, 0]]
    }, 
    {
      "op": "Reshape", 
      "name": "reshape29", 
      "attr": {"shape": "[-1, 196]"}, 
      "inputs": [[639, 0, 0]]
    }, 
    {
      "op": "softmax", 
      "name": "softmax44", 
      "inputs": [[640, 0, 0]]
    }, 
    {
      "op": "expand_dims", 
      "name": "expand_dims73", 
      "attr": {"axis": "2"}, 
      "inputs": [[641, 0, 0]]
    }, 
    {
      "op": "broadcast_to", 
      "name": "broadcast_to101", 
      "attr": {"shape": "(24, 196, 512)"}, 
      "inputs": [[642, 0, 0]]
    }, 
    {
      "op": "_mul", 
      "name": "_mul144", 
      "inputs": [[86, 0, 0], [643, 0, 0]]
    }, 
    {
      "op": "sum", 
      "name": "context", 
      "attr": {"axis": "1"}, 
      "inputs": [[644, 0, 0]]
    }, 
    {
      "op": "_mul", 
      "name": "_mul145", 
      "inputs": [[632, 0, 0], [645, 0, 0]]
    }, 
    {
      "op": "Concat", 
      "name": "concat28", 
      "attr": {
        "dim": "1", 
        "num_args": "2"
      }, 
      "inputs": [[628, 0, 0], [646, 0, 0]]
    }, 
    {
      "op": "FullyConnected", 
      "name": "lstm_t28_i2h", 
      "attr": {"num_hidden": "1024"}, 
      "inputs": [[647, 0, 0], [107, 0, 0], [108, 0, 0]]
    }, 
    {
      "op": "FullyConnected", 
      "name": "lstm_t28_h2h", 
      "attr": {"num_hidden": "1024"}, 
      "inputs": [[616, 0, 0], [110, 0, 0], [111, 0, 0]]
    }, 
    {
      "op": "elemwise_add", 
      "name": "_plus144", 
      "inputs": [[648, 0, 0], [649, 0, 0]]
    }, 
    {
      "op": "SliceChannel", 
      "name": "lstm_t28_slice", 
      "attr": {"num_outputs": "4"}, 
      "inputs": [[650, 0, 0]]
    }, 
    {
      "op": "Activation", 
      "name": "lstm_t28_o", 
      "attr": {"act_type": "sigmoid"}, 
      "inputs": [[651, 3, 0]]
    }, 
    {
      "op": "Activation", 
      "name": "lstm_t28_f", 
      "attr": {"act_type": "sigmoid"}, 
      "inputs": [[651, 1, 0]]
    }, 
    {
      "op": "_mul", 
      "name": "_mul146", 
      "inputs": [[653, 0, 0], [614, 0, 0]]
    }, 
    {
      "op": "Activation", 
      "name": "lstm_t28_i", 
      "attr": {"act_type": "sigmoid"}, 
      "inputs": [[651, 0, 0]]
    }, 
    {
      "op": "Activation", 
      "name": "lstm_t28_c", 
      "attr": {"act_type": "tanh"}, 
      "inputs": [[651, 2, 0]]
    }, 
    {
      "op": "_mul", 
      "name": "_mul147", 
      "inputs": [[655, 0, 0], [656, 0, 0]]
    }, 
    {
      "op": "elemwise_add", 
      "name": "lstm_t28_state", 
      "inputs": [[654, 0, 0], [657, 0, 0]]
    }, 
    {
      "op": "Activation", 
      "name": "activation57", 
      "attr": {"act_type": "tanh"}, 
      "inputs": [[658, 0, 0]]
    }, 
    {
      "op": "_mul", 
      "name": "lstm_t28_out", 
      "inputs": [[652, 0, 0], [659, 0, 0]]
    }, 
    {
      "op": "dot", 
      "name": "dot174", 
      "inputs": [[660, 0, 0], [129, 0, 0]]
    }, 
    {
      "op": "broadcast_add", 
      "name": "broadcast_plus116", 
      "inputs": [[661, 0, 0], [131, 0, 0]]
    }, 
    {
      "op": "dot", 
      "name": "dot175", 
      "inputs": [[646, 0, 0], [133, 0, 0]]
    }, 
    {
      "op": "elemwise_add", 
      "name": "_plus145", 
      "inputs": [[662, 0, 0], [663, 0, 0]]
    }, 
    {
      "op": "elemwise_add", 
      "name": "_plus146", 
      "inputs": [[664, 0, 0], [628, 0, 0]]
    }, 
    {
      "op": "tanh", 
      "name": "tanh30", 
      "inputs": [[665, 0, 0]]
    }, 
    {
      "op": "dot", 
      "name": "dot176", 
      "inputs": [[666, 0, 0], [138, 0, 0]]
    }, 
    {
      "op": "broadcast_add", 
      "name": "broadcast_plus117", 
      "inputs": [[667, 0, 0], [140, 0, 0]]
    }, 
    {
      "op": "argmax", 
      "name": "argmax12", 
      "attr": {"axis": "1"}, 
      "inputs": [[668, 0, 0]]
    }, 
    {
      "op": "expand_dims", 
      "name": "expand_dims100", 
      "attr": {"axis": "0"}, 
      "inputs": [[669, 0, 0]]
    }, 
    {
      "op": "Concat", 
      "name": "concat47", 
      "attr": {
        "dim": "0", 
        "num_args": "2"
      }, 
      "inputs": [[627, 0, 0], [670, 0, 0]]
    }, 
    {
      "op": "Embedding", 
      "name": "embedding13", 
      "attr": {
        "input_dim": "9705", 
        "output_dim": "256"
      }, 
      "inputs": [[669, 0, 0], [2, 0, 0]]
    }, 
    {
      "op": "dot", 
      "name": "dot179", 
      "inputs": [[660, 0, 0], [76, 0, 0]]
    }, 
    {
      "op": "broadcast_add", 
      "name": "broadcast_plus119", 
      "inputs": [[673, 0, 0], [78, 0, 0]]
    }, 
    {
      "op": "sigmoid", 
      "name": "beta", 
      "inputs": [[674, 0, 0]]
    }, 
    {
      "op": "broadcast_to", 
      "name": "broadcast_to105", 
      "attr": {"shape": "(24, 512)"}, 
      "inputs": [[675, 0, 0]]
    }, 
    {
      "op": "broadcast_add", 
      "name": "broadcast_plus118", 
      "inputs": [[88, 0, 0], [89, 0, 0]]
    }, 
    {
      "op": "dot", 
      "name": "dot177", 
      "inputs": [[660, 0, 0], [91, 0, 0]]
    }, 
    {
      "op": "expand_dims", 
      "name": "expand_dims74", 
      "attr": {"axis": "1"}, 
      "inputs": [[678, 0, 0]]
    }, 
    {
      "op": "broadcast_to", 
      "name": "broadcast_to103", 
      "attr": {"shape": "(24, 196, 512)"}, 
      "inputs": [[679, 0, 0]]
    }, 
    {
      "op": "elemwise_add", 
      "name": "_plus147", 
      "inputs": [[677, 0, 0], [680, 0, 0]]
    }, 
    {
      "op": "Activation", 
      "name": "activation58", 
      "attr": {"act_type": "relu"}, 
      "inputs": [[681, 0, 0]]
    }, 
    {
      "op": "dot", 
      "name": "dot178", 
      "inputs": [[682, 0, 0], [97, 0, 0]]
    }, 
    {
      "op": "Reshape", 
      "name": "reshape30", 
      "attr": {"shape": "[-1, 196]"}, 
      "inputs": [[683, 0, 0]]
    }, 
    {
      "op": "softmax", 
      "name": "softmax45", 
      "inputs": [[684, 0, 0]]
    }, 
    {
      "op": "expand_dims", 
      "name": "expand_dims75", 
      "attr": {"axis": "2"}, 
      "inputs": [[685, 0, 0]]
    }, 
    {
      "op": "broadcast_to", 
      "name": "broadcast_to104", 
      "attr": {"shape": "(24, 196, 512)"}, 
      "inputs": [[686, 0, 0]]
    }, 
    {
      "op": "_mul", 
      "name": "_mul148", 
      "inputs": [[86, 0, 0], [687, 0, 0]]
    }, 
    {
      "op": "sum", 
      "name": "context", 
      "attr": {"axis": "1"}, 
      "inputs": [[688, 0, 0]]
    }, 
    {
      "op": "_mul", 
      "name": "_mul149", 
      "inputs": [[676, 0, 0], [689, 0, 0]]
    }, 
    {
      "op": "Concat", 
      "name": "concat29", 
      "attr": {
        "dim": "1", 
        "num_args": "2"
      }, 
      "inputs": [[672, 0, 0], [690, 0, 0]]
    }, 
    {
      "op": "FullyConnected", 
      "name": "lstm_t29_i2h", 
      "attr": {"num_hidden": "1024"}, 
      "inputs": [[691, 0, 0], [107, 0, 0], [108, 0, 0]]
    }, 
    {
      "op": "FullyConnected", 
      "name": "lstm_t29_h2h", 
      "attr": {"num_hidden": "1024"}, 
      "inputs": [[660, 0, 0], [110, 0, 0], [111, 0, 0]]
    }, 
    {
      "op": "elemwise_add", 
      "name": "_plus148", 
      "inputs": [[692, 0, 0], [693, 0, 0]]
    }, 
    {
      "op": "SliceChannel", 
      "name": "lstm_t29_slice", 
      "attr": {"num_outputs": "4"}, 
      "inputs": [[694, 0, 0]]
    }, 
    {
      "op": "Activation", 
      "name": "lstm_t29_o", 
      "attr": {"act_type": "sigmoid"}, 
      "inputs": [[695, 3, 0]]
    }, 
    {
      "op": "Activation", 
      "name": "lstm_t29_f", 
      "attr": {"act_type": "sigmoid"}, 
      "inputs": [[695, 1, 0]]
    }, 
    {
      "op": "_mul", 
      "name": "_mul150", 
      "inputs": [[697, 0, 0], [658, 0, 0]]
    }, 
    {
      "op": "Activation", 
      "name": "lstm_t29_i", 
      "attr": {"act_type": "sigmoid"}, 
      "inputs": [[695, 0, 0]]
    }, 
    {
      "op": "Activation", 
      "name": "lstm_t29_c", 
      "attr": {"act_type": "tanh"}, 
      "inputs": [[695, 2, 0]]
    }, 
    {
      "op": "_mul", 
      "name": "_mul151", 
      "inputs": [[699, 0, 0], [700, 0, 0]]
    }, 
    {
      "op": "elemwise_add", 
      "name": "lstm_t29_state", 
      "inputs": [[698, 0, 0], [701, 0, 0]]
    }, 
    {
      "op": "Activation", 
      "name": "activation59", 
      "attr": {"act_type": "tanh"}, 
      "inputs": [[702, 0, 0]]
    }, 
    {
      "op": "_mul", 
      "name": "lstm_t29_out", 
      "inputs": [[696, 0, 0], [703, 0, 0]]
    }, 
    {
      "op": "dot", 
      "name": "dot180", 
      "inputs": [[704, 0, 0], [129, 0, 0]]
    }, 
    {
      "op": "broadcast_add", 
      "name": "broadcast_plus120", 
      "inputs": [[705, 0, 0], [131, 0, 0]]
    }, 
    {
      "op": "dot", 
      "name": "dot181", 
      "inputs": [[690, 0, 0], [133, 0, 0]]
    }, 
    {
      "op": "elemwise_add", 
      "name": "_plus149", 
      "inputs": [[706, 0, 0], [707, 0, 0]]
    }, 
    {
      "op": "elemwise_add", 
      "name": "_plus150", 
      "inputs": [[708, 0, 0], [672, 0, 0]]
    }, 
    {
      "op": "tanh", 
      "name": "tanh31", 
      "inputs": [[709, 0, 0]]
    }, 
    {
      "op": "dot", 
      "name": "dot182", 
      "inputs": [[710, 0, 0], [138, 0, 0]]
    }, 
    {
      "op": "broadcast_add", 
      "name": "broadcast_plus121", 
      "inputs": [[711, 0, 0], [140, 0, 0]]
    }, 
    {
      "op": "argmax", 
      "name": "argmax13", 
      "attr": {"axis": "1"}, 
      "inputs": [[712, 0, 0]]
    }, 
    {
      "op": "expand_dims", 
      "name": "expand_dims101", 
      "attr": {"axis": "0"}, 
      "inputs": [[713, 0, 0]]
    }, 
    {
      "op": "Concat", 
      "name": "concat48", 
      "attr": {
        "dim": "0", 
        "num_args": "2"
      }, 
      "inputs": [[671, 0, 0], [714, 0, 0]]
    }, 
    {
      "op": "Embedding", 
      "name": "embedding14", 
      "attr": {
        "input_dim": "9705", 
        "output_dim": "256"
      }, 
      "inputs": [[713, 0, 0], [2, 0, 0]]
    }, 
    {
      "op": "dot", 
      "name": "dot185", 
      "inputs": [[704, 0, 0], [76, 0, 0]]
    }, 
    {
      "op": "broadcast_add", 
      "name": "broadcast_plus123", 
      "inputs": [[717, 0, 0], [78, 0, 0]]
    }, 
    {
      "op": "sigmoid", 
      "name": "beta", 
      "inputs": [[718, 0, 0]]
    }, 
    {
      "op": "broadcast_to", 
      "name": "broadcast_to108", 
      "attr": {"shape": "(24, 512)"}, 
      "inputs": [[719, 0, 0]]
    }, 
    {
      "op": "broadcast_add", 
      "name": "broadcast_plus122", 
      "inputs": [[88, 0, 0], [89, 0, 0]]
    }, 
    {
      "op": "dot", 
      "name": "dot183", 
      "inputs": [[704, 0, 0], [91, 0, 0]]
    }, 
    {
      "op": "expand_dims", 
      "name": "expand_dims76", 
      "attr": {"axis": "1"}, 
      "inputs": [[722, 0, 0]]
    }, 
    {
      "op": "broadcast_to", 
      "name": "broadcast_to106", 
      "attr": {"shape": "(24, 196, 512)"}, 
      "inputs": [[723, 0, 0]]
    }, 
    {
      "op": "elemwise_add", 
      "name": "_plus151", 
      "inputs": [[721, 0, 0], [724, 0, 0]]
    }, 
    {
      "op": "Activation", 
      "name": "activation60", 
      "attr": {"act_type": "relu"}, 
      "inputs": [[725, 0, 0]]
    }, 
    {
      "op": "dot", 
      "name": "dot184", 
      "inputs": [[726, 0, 0], [97, 0, 0]]
    }, 
    {
      "op": "Reshape", 
      "name": "reshape31", 
      "attr": {"shape": "[-1, 196]"}, 
      "inputs": [[727, 0, 0]]
    }, 
    {
      "op": "softmax", 
      "name": "softmax46", 
      "inputs": [[728, 0, 0]]
    }, 
    {
      "op": "expand_dims", 
      "name": "expand_dims77", 
      "attr": {"axis": "2"}, 
      "inputs": [[729, 0, 0]]
    }, 
    {
      "op": "broadcast_to", 
      "name": "broadcast_to107", 
      "attr": {"shape": "(24, 196, 512)"}, 
      "inputs": [[730, 0, 0]]
    }, 
    {
      "op": "_mul", 
      "name": "_mul152", 
      "inputs": [[86, 0, 0], [731, 0, 0]]
    }, 
    {
      "op": "sum", 
      "name": "context", 
      "attr": {"axis": "1"}, 
      "inputs": [[732, 0, 0]]
    }, 
    {
      "op": "_mul", 
      "name": "_mul153", 
      "inputs": [[720, 0, 0], [733, 0, 0]]
    }, 
    {
      "op": "Concat", 
      "name": "concat30", 
      "attr": {
        "dim": "1", 
        "num_args": "2"
      }, 
      "inputs": [[716, 0, 0], [734, 0, 0]]
    }, 
    {
      "op": "FullyConnected", 
      "name": "lstm_t30_i2h", 
      "attr": {"num_hidden": "1024"}, 
      "inputs": [[735, 0, 0], [107, 0, 0], [108, 0, 0]]
    }, 
    {
      "op": "FullyConnected", 
      "name": "lstm_t30_h2h", 
      "attr": {"num_hidden": "1024"}, 
      "inputs": [[704, 0, 0], [110, 0, 0], [111, 0, 0]]
    }, 
    {
      "op": "elemwise_add", 
      "name": "_plus152", 
      "inputs": [[736, 0, 0], [737, 0, 0]]
    }, 
    {
      "op": "SliceChannel", 
      "name": "lstm_t30_slice", 
      "attr": {"num_outputs": "4"}, 
      "inputs": [[738, 0, 0]]
    }, 
    {
      "op": "Activation", 
      "name": "lstm_t30_o", 
      "attr": {"act_type": "sigmoid"}, 
      "inputs": [[739, 3, 0]]
    }, 
    {
      "op": "Activation", 
      "name": "lstm_t30_f", 
      "attr": {"act_type": "sigmoid"}, 
      "inputs": [[739, 1, 0]]
    }, 
    {
      "op": "_mul", 
      "name": "_mul154", 
      "inputs": [[741, 0, 0], [702, 0, 0]]
    }, 
    {
      "op": "Activation", 
      "name": "lstm_t30_i", 
      "attr": {"act_type": "sigmoid"}, 
      "inputs": [[739, 0, 0]]
    }, 
    {
      "op": "Activation", 
      "name": "lstm_t30_c", 
      "attr": {"act_type": "tanh"}, 
      "inputs": [[739, 2, 0]]
    }, 
    {
      "op": "_mul", 
      "name": "_mul155", 
      "inputs": [[743, 0, 0], [744, 0, 0]]
    }, 
    {
      "op": "elemwise_add", 
      "name": "lstm_t30_state", 
      "inputs": [[742, 0, 0], [745, 0, 0]]
    }, 
    {
      "op": "Activation", 
      "name": "activation61", 
      "attr": {"act_type": "tanh"}, 
      "inputs": [[746, 0, 0]]
    }, 
    {
      "op": "_mul", 
      "name": "lstm_t30_out", 
      "inputs": [[740, 0, 0], [747, 0, 0]]
    }, 
    {
      "op": "dot", 
      "name": "dot186", 
      "inputs": [[748, 0, 0], [129, 0, 0]]
    }, 
    {
      "op": "broadcast_add", 
      "name": "broadcast_plus124", 
      "inputs": [[749, 0, 0], [131, 0, 0]]
    }, 
    {
      "op": "dot", 
      "name": "dot187", 
      "inputs": [[734, 0, 0], [133, 0, 0]]
    }, 
    {
      "op": "elemwise_add", 
      "name": "_plus153", 
      "inputs": [[750, 0, 0], [751, 0, 0]]
    }, 
    {
      "op": "elemwise_add", 
      "name": "_plus154", 
      "inputs": [[752, 0, 0], [716, 0, 0]]
    }, 
    {
      "op": "tanh", 
      "name": "tanh32", 
      "inputs": [[753, 0, 0]]
    }, 
    {
      "op": "dot", 
      "name": "dot188", 
      "inputs": [[754, 0, 0], [138, 0, 0]]
    }, 
    {
      "op": "broadcast_add", 
      "name": "broadcast_plus125", 
      "inputs": [[755, 0, 0], [140, 0, 0]]
    }, 
    {
      "op": "argmax", 
      "name": "argmax14", 
      "attr": {"axis": "1"}, 
      "inputs": [[756, 0, 0]]
    }, 
    {
      "op": "expand_dims", 
      "name": "expand_dims102", 
      "attr": {"axis": "0"}, 
      "inputs": [[757, 0, 0]]
    }, 
    {
      "op": "Concat", 
      "name": "concat49", 
      "attr": {
        "dim": "0", 
        "num_args": "2"
      }, 
      "inputs": [[715, 0, 0], [758, 0, 0]]
    }, 
    {
      "op": "Embedding", 
      "name": "embedding15", 
      "attr": {
        "input_dim": "9705", 
        "output_dim": "256"
      }, 
      "inputs": [[757, 0, 0], [2, 0, 0]]
    }, 
    {
      "op": "dot", 
      "name": "dot191", 
      "inputs": [[748, 0, 0], [76, 0, 0]]
    }, 
    {
      "op": "broadcast_add", 
      "name": "broadcast_plus127", 
      "inputs": [[761, 0, 0], [78, 0, 0]]
    }, 
    {
      "op": "sigmoid", 
      "name": "beta", 
      "inputs": [[762, 0, 0]]
    }, 
    {
      "op": "broadcast_to", 
      "name": "broadcast_to111", 
      "attr": {"shape": "(24, 512)"}, 
      "inputs": [[763, 0, 0]]
    }, 
    {
      "op": "broadcast_add", 
      "name": "broadcast_plus126", 
      "inputs": [[88, 0, 0], [89, 0, 0]]
    }, 
    {
      "op": "dot", 
      "name": "dot189", 
      "inputs": [[748, 0, 0], [91, 0, 0]]
    }, 
    {
      "op": "expand_dims", 
      "name": "expand_dims78", 
      "attr": {"axis": "1"}, 
      "inputs": [[766, 0, 0]]
    }, 
    {
      "op": "broadcast_to", 
      "name": "broadcast_to109", 
      "attr": {"shape": "(24, 196, 512)"}, 
      "inputs": [[767, 0, 0]]
    }, 
    {
      "op": "elemwise_add", 
      "name": "_plus155", 
      "inputs": [[765, 0, 0], [768, 0, 0]]
    }, 
    {
      "op": "Activation", 
      "name": "activation62", 
      "attr": {"act_type": "relu"}, 
      "inputs": [[769, 0, 0]]
    }, 
    {
      "op": "dot", 
      "name": "dot190", 
      "inputs": [[770, 0, 0], [97, 0, 0]]
    }, 
    {
      "op": "Reshape", 
      "name": "reshape32", 
      "attr": {"shape": "[-1, 196]"}, 
      "inputs": [[771, 0, 0]]
    }, 
    {
      "op": "softmax", 
      "name": "softmax47", 
      "inputs": [[772, 0, 0]]
    }, 
    {
      "op": "expand_dims", 
      "name": "expand_dims79", 
      "attr": {"axis": "2"}, 
      "inputs": [[773, 0, 0]]
    }, 
    {
      "op": "broadcast_to", 
      "name": "broadcast_to110", 
      "attr": {"shape": "(24, 196, 512)"}, 
      "inputs": [[774, 0, 0]]
    }, 
    {
      "op": "_mul", 
      "name": "_mul156", 
      "inputs": [[86, 0, 0], [775, 0, 0]]
    }, 
    {
      "op": "sum", 
      "name": "context", 
      "attr": {"axis": "1"}, 
      "inputs": [[776, 0, 0]]
    }, 
    {
      "op": "_mul", 
      "name": "_mul157", 
      "inputs": [[764, 0, 0], [777, 0, 0]]
    }, 
    {
      "op": "Concat", 
      "name": "concat31", 
      "attr": {
        "dim": "1", 
        "num_args": "2"
      }, 
      "inputs": [[760, 0, 0], [778, 0, 0]]
    }, 
    {
      "op": "FullyConnected", 
      "name": "lstm_t31_i2h", 
      "attr": {"num_hidden": "1024"}, 
      "inputs": [[779, 0, 0], [107, 0, 0], [108, 0, 0]]
    }, 
    {
      "op": "FullyConnected", 
      "name": "lstm_t31_h2h", 
      "attr": {"num_hidden": "1024"}, 
      "inputs": [[748, 0, 0], [110, 0, 0], [111, 0, 0]]
    }, 
    {
      "op": "elemwise_add", 
      "name": "_plus156", 
      "inputs": [[780, 0, 0], [781, 0, 0]]
    }, 
    {
      "op": "SliceChannel", 
      "name": "lstm_t31_slice", 
      "attr": {"num_outputs": "4"}, 
      "inputs": [[782, 0, 0]]
    }, 
    {
      "op": "Activation", 
      "name": "lstm_t31_o", 
      "attr": {"act_type": "sigmoid"}, 
      "inputs": [[783, 3, 0]]
    }, 
    {
      "op": "Activation", 
      "name": "lstm_t31_f", 
      "attr": {"act_type": "sigmoid"}, 
      "inputs": [[783, 1, 0]]
    }, 
    {
      "op": "_mul", 
      "name": "_mul158", 
      "inputs": [[785, 0, 0], [746, 0, 0]]
    }, 
    {
      "op": "Activation", 
      "name": "lstm_t31_i", 
      "attr": {"act_type": "sigmoid"}, 
      "inputs": [[783, 0, 0]]
    }, 
    {
      "op": "Activation", 
      "name": "lstm_t31_c", 
      "attr": {"act_type": "tanh"}, 
      "inputs": [[783, 2, 0]]
    }, 
    {
      "op": "_mul", 
      "name": "_mul159", 
      "inputs": [[787, 0, 0], [788, 0, 0]]
    }, 
    {
      "op": "elemwise_add", 
      "name": "lstm_t31_state", 
      "inputs": [[786, 0, 0], [789, 0, 0]]
    }, 
    {
      "op": "Activation", 
      "name": "activation63", 
      "attr": {"act_type": "tanh"}, 
      "inputs": [[790, 0, 0]]
    }, 
    {
      "op": "_mul", 
      "name": "lstm_t31_out", 
      "inputs": [[784, 0, 0], [791, 0, 0]]
    }, 
    {
      "op": "dot", 
      "name": "dot192", 
      "inputs": [[792, 0, 0], [129, 0, 0]]
    }, 
    {
      "op": "broadcast_add", 
      "name": "broadcast_plus128", 
      "inputs": [[793, 0, 0], [131, 0, 0]]
    }, 
    {
      "op": "dot", 
      "name": "dot193", 
      "inputs": [[778, 0, 0], [133, 0, 0]]
    }, 
    {
      "op": "elemwise_add", 
      "name": "_plus157", 
      "inputs": [[794, 0, 0], [795, 0, 0]]
    }, 
    {
      "op": "elemwise_add", 
      "name": "_plus158", 
      "inputs": [[796, 0, 0], [760, 0, 0]]
    }, 
    {
      "op": "tanh", 
      "name": "tanh33", 
      "inputs": [[797, 0, 0]]
    }, 
    {
      "op": "dot", 
      "name": "dot194", 
      "inputs": [[798, 0, 0], [138, 0, 0]]
    }, 
    {
      "op": "broadcast_add", 
      "name": "broadcast_plus129", 
      "inputs": [[799, 0, 0], [140, 0, 0]]
    }, 
    {
      "op": "argmax", 
      "name": "argmax15", 
      "attr": {"axis": "1"}, 
      "inputs": [[800, 0, 0]]
    }, 
    {
      "op": "expand_dims", 
      "name": "expand_dims103", 
      "attr": {"axis": "0"}, 
      "inputs": [[801, 0, 0]]
    }, 
    {
      "op": "Concat", 
      "name": "concat50", 
      "attr": {
        "dim": "0", 
        "num_args": "2"
      }, 
      "inputs": [[759, 0, 0], [802, 0, 0]]
    }, 
    {
      "op": "Embedding", 
      "name": "embedding16", 
      "attr": {
        "input_dim": "9705", 
        "output_dim": "256"
      }, 
      "inputs": [[801, 0, 0], [2, 0, 0]]
    }, 
    {
      "op": "dot", 
      "name": "dot197", 
      "inputs": [[792, 0, 0], [76, 0, 0]]
    }, 
    {
      "op": "broadcast_add", 
      "name": "broadcast_plus131", 
      "inputs": [[805, 0, 0], [78, 0, 0]]
    }, 
    {
      "op": "sigmoid", 
      "name": "beta", 
      "inputs": [[806, 0, 0]]
    }, 
    {
      "op": "broadcast_to", 
      "name": "broadcast_to114", 
      "attr": {"shape": "(24, 512)"}, 
      "inputs": [[807, 0, 0]]
    }, 
    {
      "op": "broadcast_add", 
      "name": "broadcast_plus130", 
      "inputs": [[88, 0, 0], [89, 0, 0]]
    }, 
    {
      "op": "dot", 
      "name": "dot195", 
      "inputs": [[792, 0, 0], [91, 0, 0]]
    }, 
    {
      "op": "expand_dims", 
      "name": "expand_dims80", 
      "attr": {"axis": "1"}, 
      "inputs": [[810, 0, 0]]
    }, 
    {
      "op": "broadcast_to", 
      "name": "broadcast_to112", 
      "attr": {"shape": "(24, 196, 512)"}, 
      "inputs": [[811, 0, 0]]
    }, 
    {
      "op": "elemwise_add", 
      "name": "_plus159", 
      "inputs": [[809, 0, 0], [812, 0, 0]]
    }, 
    {
      "op": "Activation", 
      "name": "activation64", 
      "attr": {"act_type": "relu"}, 
      "inputs": [[813, 0, 0]]
    }, 
    {
      "op": "dot", 
      "name": "dot196", 
      "inputs": [[814, 0, 0], [97, 0, 0]]
    }, 
    {
      "op": "Reshape", 
      "name": "reshape33", 
      "attr": {"shape": "[-1, 196]"}, 
      "inputs": [[815, 0, 0]]
    }, 
    {
      "op": "softmax", 
      "name": "softmax48", 
      "inputs": [[816, 0, 0]]
    }, 
    {
      "op": "expand_dims", 
      "name": "expand_dims81", 
      "attr": {"axis": "2"}, 
      "inputs": [[817, 0, 0]]
    }, 
    {
      "op": "broadcast_to", 
      "name": "broadcast_to113", 
      "attr": {"shape": "(24, 196, 512)"}, 
      "inputs": [[818, 0, 0]]
    }, 
    {
      "op": "_mul", 
      "name": "_mul160", 
      "inputs": [[86, 0, 0], [819, 0, 0]]
    }, 
    {
      "op": "sum", 
      "name": "context", 
      "attr": {"axis": "1"}, 
      "inputs": [[820, 0, 0]]
    }, 
    {
      "op": "_mul", 
      "name": "_mul161", 
      "inputs": [[808, 0, 0], [821, 0, 0]]
    }, 
    {
      "op": "Concat", 
      "name": "concat32", 
      "attr": {
        "dim": "1", 
        "num_args": "2"
      }, 
      "inputs": [[804, 0, 0], [822, 0, 0]]
    }, 
    {
      "op": "FullyConnected", 
      "name": "lstm_t32_i2h", 
      "attr": {"num_hidden": "1024"}, 
      "inputs": [[823, 0, 0], [107, 0, 0], [108, 0, 0]]
    }, 
    {
      "op": "FullyConnected", 
      "name": "lstm_t32_h2h", 
      "attr": {"num_hidden": "1024"}, 
      "inputs": [[792, 0, 0], [110, 0, 0], [111, 0, 0]]
    }, 
    {
      "op": "elemwise_add", 
      "name": "_plus160", 
      "inputs": [[824, 0, 0], [825, 0, 0]]
    }, 
    {
      "op": "SliceChannel", 
      "name": "lstm_t32_slice", 
      "attr": {"num_outputs": "4"}, 
      "inputs": [[826, 0, 0]]
    }, 
    {
      "op": "Activation", 
      "name": "lstm_t32_o", 
      "attr": {"act_type": "sigmoid"}, 
      "inputs": [[827, 3, 0]]
    }, 
    {
      "op": "Activation", 
      "name": "lstm_t32_f", 
      "attr": {"act_type": "sigmoid"}, 
      "inputs": [[827, 1, 0]]
    }, 
    {
      "op": "_mul", 
      "name": "_mul162", 
      "inputs": [[829, 0, 0], [790, 0, 0]]
    }, 
    {
      "op": "Activation", 
      "name": "lstm_t32_i", 
      "attr": {"act_type": "sigmoid"}, 
      "inputs": [[827, 0, 0]]
    }, 
    {
      "op": "Activation", 
      "name": "lstm_t32_c", 
      "attr": {"act_type": "tanh"}, 
      "inputs": [[827, 2, 0]]
    }, 
    {
      "op": "_mul", 
      "name": "_mul163", 
      "inputs": [[831, 0, 0], [832, 0, 0]]
    }, 
    {
      "op": "elemwise_add", 
      "name": "lstm_t32_state", 
      "inputs": [[830, 0, 0], [833, 0, 0]]
    }, 
    {
      "op": "Activation", 
      "name": "activation65", 
      "attr": {"act_type": "tanh"}, 
      "inputs": [[834, 0, 0]]
    }, 
    {
      "op": "_mul", 
      "name": "lstm_t32_out", 
      "inputs": [[828, 0, 0], [835, 0, 0]]
    }, 
    {
      "op": "dot", 
      "name": "dot198", 
      "inputs": [[836, 0, 0], [129, 0, 0]]
    }, 
    {
      "op": "broadcast_add", 
      "name": "broadcast_plus132", 
      "inputs": [[837, 0, 0], [131, 0, 0]]
    }, 
    {
      "op": "dot", 
      "name": "dot199", 
      "inputs": [[822, 0, 0], [133, 0, 0]]
    }, 
    {
      "op": "elemwise_add", 
      "name": "_plus161", 
      "inputs": [[838, 0, 0], [839, 0, 0]]
    }, 
    {
      "op": "elemwise_add", 
      "name": "_plus162", 
      "inputs": [[840, 0, 0], [804, 0, 0]]
    }, 
    {
      "op": "tanh", 
      "name": "tanh34", 
      "inputs": [[841, 0, 0]]
    }, 
    {
      "op": "dot", 
      "name": "dot200", 
      "inputs": [[842, 0, 0], [138, 0, 0]]
    }, 
    {
      "op": "broadcast_add", 
      "name": "broadcast_plus133", 
      "inputs": [[843, 0, 0], [140, 0, 0]]
    }, 
    {
      "op": "argmax", 
      "name": "argmax16", 
      "attr": {"axis": "1"}, 
      "inputs": [[844, 0, 0]]
    }, 
    {
      "op": "expand_dims", 
      "name": "expand_dims104", 
      "attr": {"axis": "0"}, 
      "inputs": [[845, 0, 0]]
    }, 
    {
      "op": "Concat", 
      "name": "concat51", 
      "attr": {
        "dim": "0", 
        "num_args": "2"
      }, 
      "inputs": [[803, 0, 0], [846, 0, 0]]
    }, 
    {
      "op": "Embedding", 
      "name": "embedding17", 
      "attr": {
        "input_dim": "9705", 
        "output_dim": "256"
      }, 
      "inputs": [[845, 0, 0], [2, 0, 0]]
    }, 
    {
      "op": "dot", 
      "name": "dot203", 
      "inputs": [[836, 0, 0], [76, 0, 0]]
    }, 
    {
      "op": "broadcast_add", 
      "name": "broadcast_plus135", 
      "inputs": [[849, 0, 0], [78, 0, 0]]
    }, 
    {
      "op": "sigmoid", 
      "name": "beta", 
      "inputs": [[850, 0, 0]]
    }, 
    {
      "op": "broadcast_to", 
      "name": "broadcast_to117", 
      "attr": {"shape": "(24, 512)"}, 
      "inputs": [[851, 0, 0]]
    }, 
    {
      "op": "broadcast_add", 
      "name": "broadcast_plus134", 
      "inputs": [[88, 0, 0], [89, 0, 0]]
    }, 
    {
      "op": "dot", 
      "name": "dot201", 
      "inputs": [[836, 0, 0], [91, 0, 0]]
    }, 
    {
      "op": "expand_dims", 
      "name": "expand_dims82", 
      "attr": {"axis": "1"}, 
      "inputs": [[854, 0, 0]]
    }, 
    {
      "op": "broadcast_to", 
      "name": "broadcast_to115", 
      "attr": {"shape": "(24, 196, 512)"}, 
      "inputs": [[855, 0, 0]]
    }, 
    {
      "op": "elemwise_add", 
      "name": "_plus163", 
      "inputs": [[853, 0, 0], [856, 0, 0]]
    }, 
    {
      "op": "Activation", 
      "name": "activation66", 
      "attr": {"act_type": "relu"}, 
      "inputs": [[857, 0, 0]]
    }, 
    {
      "op": "dot", 
      "name": "dot202", 
      "inputs": [[858, 0, 0], [97, 0, 0]]
    }, 
    {
      "op": "Reshape", 
      "name": "reshape34", 
      "attr": {"shape": "[-1, 196]"}, 
      "inputs": [[859, 0, 0]]
    }, 
    {
      "op": "softmax", 
      "name": "softmax49", 
      "inputs": [[860, 0, 0]]
    }, 
    {
      "op": "expand_dims", 
      "name": "expand_dims83", 
      "attr": {"axis": "2"}, 
      "inputs": [[861, 0, 0]]
    }, 
    {
      "op": "broadcast_to", 
      "name": "broadcast_to116", 
      "attr": {"shape": "(24, 196, 512)"}, 
      "inputs": [[862, 0, 0]]
    }, 
    {
      "op": "_mul", 
      "name": "_mul164", 
      "inputs": [[86, 0, 0], [863, 0, 0]]
    }, 
    {
      "op": "sum", 
      "name": "context", 
      "attr": {"axis": "1"}, 
      "inputs": [[864, 0, 0]]
    }, 
    {
      "op": "_mul", 
      "name": "_mul165", 
      "inputs": [[852, 0, 0], [865, 0, 0]]
    }, 
    {
      "op": "Concat", 
      "name": "concat33", 
      "attr": {
        "dim": "1", 
        "num_args": "2"
      }, 
      "inputs": [[848, 0, 0], [866, 0, 0]]
    }, 
    {
      "op": "FullyConnected", 
      "name": "lstm_t33_i2h", 
      "attr": {"num_hidden": "1024"}, 
      "inputs": [[867, 0, 0], [107, 0, 0], [108, 0, 0]]
    }, 
    {
      "op": "FullyConnected", 
      "name": "lstm_t33_h2h", 
      "attr": {"num_hidden": "1024"}, 
      "inputs": [[836, 0, 0], [110, 0, 0], [111, 0, 0]]
    }, 
    {
      "op": "elemwise_add", 
      "name": "_plus164", 
      "inputs": [[868, 0, 0], [869, 0, 0]]
    }, 
    {
      "op": "SliceChannel", 
      "name": "lstm_t33_slice", 
      "attr": {"num_outputs": "4"}, 
      "inputs": [[870, 0, 0]]
    }, 
    {
      "op": "Activation", 
      "name": "lstm_t33_o", 
      "attr": {"act_type": "sigmoid"}, 
      "inputs": [[871, 3, 0]]
    }, 
    {
      "op": "Activation", 
      "name": "lstm_t33_f", 
      "attr": {"act_type": "sigmoid"}, 
      "inputs": [[871, 1, 0]]
    }, 
    {
      "op": "_mul", 
      "name": "_mul166", 
      "inputs": [[873, 0, 0], [834, 0, 0]]
    }, 
    {
      "op": "Activation", 
      "name": "lstm_t33_i", 
      "attr": {"act_type": "sigmoid"}, 
      "inputs": [[871, 0, 0]]
    }, 
    {
      "op": "Activation", 
      "name": "lstm_t33_c", 
      "attr": {"act_type": "tanh"}, 
      "inputs": [[871, 2, 0]]
    }, 
    {
      "op": "_mul", 
      "name": "_mul167", 
      "inputs": [[875, 0, 0], [876, 0, 0]]
    }, 
    {
      "op": "elemwise_add", 
      "name": "lstm_t33_state", 
      "inputs": [[874, 0, 0], [877, 0, 0]]
    }, 
    {
      "op": "Activation", 
      "name": "activation67", 
      "attr": {"act_type": "tanh"}, 
      "inputs": [[878, 0, 0]]
    }, 
    {
      "op": "_mul", 
      "name": "lstm_t33_out", 
      "inputs": [[872, 0, 0], [879, 0, 0]]
    }, 
    {
      "op": "dot", 
      "name": "dot204", 
      "inputs": [[880, 0, 0], [129, 0, 0]]
    }, 
    {
      "op": "broadcast_add", 
      "name": "broadcast_plus136", 
      "inputs": [[881, 0, 0], [131, 0, 0]]
    }, 
    {
      "op": "dot", 
      "name": "dot205", 
      "inputs": [[866, 0, 0], [133, 0, 0]]
    }, 
    {
      "op": "elemwise_add", 
      "name": "_plus165", 
      "inputs": [[882, 0, 0], [883, 0, 0]]
    }, 
    {
      "op": "elemwise_add", 
      "name": "_plus166", 
      "inputs": [[884, 0, 0], [848, 0, 0]]
    }, 
    {
      "op": "tanh", 
      "name": "tanh35", 
      "inputs": [[885, 0, 0]]
    }, 
    {
      "op": "dot", 
      "name": "dot206", 
      "inputs": [[886, 0, 0], [138, 0, 0]]
    }, 
    {
      "op": "broadcast_add", 
      "name": "broadcast_plus137", 
      "inputs": [[887, 0, 0], [140, 0, 0]]
    }, 
    {
      "op": "argmax", 
      "name": "argmax17", 
      "attr": {"axis": "1"}, 
      "inputs": [[888, 0, 0]]
    }, 
    {
      "op": "expand_dims", 
      "name": "expand_dims105", 
      "attr": {"axis": "0"}, 
      "inputs": [[889, 0, 0]]
    }, 
    {
      "op": "Concat", 
      "name": "concat52", 
      "attr": {
        "dim": "0", 
        "num_args": "2"
      }, 
      "inputs": [[847, 0, 0], [890, 0, 0]]
    }, 
    {
      "op": "Embedding", 
      "name": "embedding18", 
      "attr": {
        "input_dim": "9705", 
        "output_dim": "256"
      }, 
      "inputs": [[889, 0, 0], [2, 0, 0]]
    }, 
    {
      "op": "dot", 
      "name": "dot209", 
      "inputs": [[880, 0, 0], [76, 0, 0]]
    }, 
    {
      "op": "broadcast_add", 
      "name": "broadcast_plus139", 
      "inputs": [[893, 0, 0], [78, 0, 0]]
    }, 
    {
      "op": "sigmoid", 
      "name": "beta", 
      "inputs": [[894, 0, 0]]
    }, 
    {
      "op": "broadcast_to", 
      "name": "broadcast_to120", 
      "attr": {"shape": "(24, 512)"}, 
      "inputs": [[895, 0, 0]]
    }, 
    {
      "op": "broadcast_add", 
      "name": "broadcast_plus138", 
      "inputs": [[88, 0, 0], [89, 0, 0]]
    }, 
    {
      "op": "dot", 
      "name": "dot207", 
      "inputs": [[880, 0, 0], [91, 0, 0]]
    }, 
    {
      "op": "expand_dims", 
      "name": "expand_dims84", 
      "attr": {"axis": "1"}, 
      "inputs": [[898, 0, 0]]
    }, 
    {
      "op": "broadcast_to", 
      "name": "broadcast_to118", 
      "attr": {"shape": "(24, 196, 512)"}, 
      "inputs": [[899, 0, 0]]
    }, 
    {
      "op": "elemwise_add", 
      "name": "_plus167", 
      "inputs": [[897, 0, 0], [900, 0, 0]]
    }, 
    {
      "op": "Activation", 
      "name": "activation68", 
      "attr": {"act_type": "relu"}, 
      "inputs": [[901, 0, 0]]
    }, 
    {
      "op": "dot", 
      "name": "dot208", 
      "inputs": [[902, 0, 0], [97, 0, 0]]
    }, 
    {
      "op": "Reshape", 
      "name": "reshape35", 
      "attr": {"shape": "[-1, 196]"}, 
      "inputs": [[903, 0, 0]]
    }, 
    {
      "op": "softmax", 
      "name": "softmax50", 
      "inputs": [[904, 0, 0]]
    }, 
    {
      "op": "expand_dims", 
      "name": "expand_dims85", 
      "attr": {"axis": "2"}, 
      "inputs": [[905, 0, 0]]
    }, 
    {
      "op": "broadcast_to", 
      "name": "broadcast_to119", 
      "attr": {"shape": "(24, 196, 512)"}, 
      "inputs": [[906, 0, 0]]
    }, 
    {
      "op": "_mul", 
      "name": "_mul168", 
      "inputs": [[86, 0, 0], [907, 0, 0]]
    }, 
    {
      "op": "sum", 
      "name": "context", 
      "attr": {"axis": "1"}, 
      "inputs": [[908, 0, 0]]
    }, 
    {
      "op": "_mul", 
      "name": "_mul169", 
      "inputs": [[896, 0, 0], [909, 0, 0]]
    }, 
    {
      "op": "Concat", 
      "name": "concat34", 
      "attr": {
        "dim": "1", 
        "num_args": "2"
      }, 
      "inputs": [[892, 0, 0], [910, 0, 0]]
    }, 
    {
      "op": "FullyConnected", 
      "name": "lstm_t34_i2h", 
      "attr": {"num_hidden": "1024"}, 
      "inputs": [[911, 0, 0], [107, 0, 0], [108, 0, 0]]
    }, 
    {
      "op": "FullyConnected", 
      "name": "lstm_t34_h2h", 
      "attr": {"num_hidden": "1024"}, 
      "inputs": [[880, 0, 0], [110, 0, 0], [111, 0, 0]]
    }, 
    {
      "op": "elemwise_add", 
      "name": "_plus168", 
      "inputs": [[912, 0, 0], [913, 0, 0]]
    }, 
    {
      "op": "SliceChannel", 
      "name": "lstm_t34_slice", 
      "attr": {"num_outputs": "4"}, 
      "inputs": [[914, 0, 0]]
    }, 
    {
      "op": "Activation", 
      "name": "lstm_t34_o", 
      "attr": {"act_type": "sigmoid"}, 
      "inputs": [[915, 3, 0]]
    }, 
    {
      "op": "Activation", 
      "name": "lstm_t34_f", 
      "attr": {"act_type": "sigmoid"}, 
      "inputs": [[915, 1, 0]]
    }, 
    {
      "op": "_mul", 
      "name": "_mul170", 
      "inputs": [[917, 0, 0], [878, 0, 0]]
    }, 
    {
      "op": "Activation", 
      "name": "lstm_t34_i", 
      "attr": {"act_type": "sigmoid"}, 
      "inputs": [[915, 0, 0]]
    }, 
    {
      "op": "Activation", 
      "name": "lstm_t34_c", 
      "attr": {"act_type": "tanh"}, 
      "inputs": [[915, 2, 0]]
    }, 
    {
      "op": "_mul", 
      "name": "_mul171", 
      "inputs": [[919, 0, 0], [920, 0, 0]]
    }, 
    {
      "op": "elemwise_add", 
      "name": "lstm_t34_state", 
      "inputs": [[918, 0, 0], [921, 0, 0]]
    }, 
    {
      "op": "Activation", 
      "name": "activation69", 
      "attr": {"act_type": "tanh"}, 
      "inputs": [[922, 0, 0]]
    }, 
    {
      "op": "_mul", 
      "name": "lstm_t34_out", 
      "inputs": [[916, 0, 0], [923, 0, 0]]
    }, 
    {
      "op": "dot", 
      "name": "dot210", 
      "inputs": [[924, 0, 0], [129, 0, 0]]
    }, 
    {
      "op": "broadcast_add", 
      "name": "broadcast_plus140", 
      "inputs": [[925, 0, 0], [131, 0, 0]]
    }, 
    {
      "op": "dot", 
      "name": "dot211", 
      "inputs": [[910, 0, 0], [133, 0, 0]]
    }, 
    {
      "op": "elemwise_add", 
      "name": "_plus169", 
      "inputs": [[926, 0, 0], [927, 0, 0]]
    }, 
    {
      "op": "elemwise_add", 
      "name": "_plus170", 
      "inputs": [[928, 0, 0], [892, 0, 0]]
    }, 
    {
      "op": "tanh", 
      "name": "tanh36", 
      "inputs": [[929, 0, 0]]
    }, 
    {
      "op": "dot", 
      "name": "dot212", 
      "inputs": [[930, 0, 0], [138, 0, 0]]
    }, 
    {
      "op": "broadcast_add", 
      "name": "broadcast_plus141", 
      "inputs": [[931, 0, 0], [140, 0, 0]]
    }, 
    {
      "op": "argmax", 
      "name": "argmax18", 
      "attr": {"axis": "1"}, 
      "inputs": [[932, 0, 0]]
    }, 
    {
      "op": "expand_dims", 
      "name": "expand_dims106", 
      "attr": {"axis": "0"}, 
      "inputs": [[933, 0, 0]]
    }, 
    {
      "op": "Concat", 
      "name": "concat53", 
      "attr": {
        "dim": "0", 
        "num_args": "2"
      }, 
      "inputs": [[891, 0, 0], [934, 0, 0]]
    }, 
    {
      "op": "Embedding", 
      "name": "embedding19", 
      "attr": {
        "input_dim": "9705", 
        "output_dim": "256"
      }, 
      "inputs": [[933, 0, 0], [2, 0, 0]]
    }, 
    {
      "op": "dot", 
      "name": "dot215", 
      "inputs": [[924, 0, 0], [76, 0, 0]]
    }, 
    {
      "op": "broadcast_add", 
      "name": "broadcast_plus143", 
      "inputs": [[937, 0, 0], [78, 0, 0]]
    }, 
    {
      "op": "sigmoid", 
      "name": "beta", 
      "inputs": [[938, 0, 0]]
    }, 
    {
      "op": "broadcast_to", 
      "name": "broadcast_to123", 
      "attr": {"shape": "(24, 512)"}, 
      "inputs": [[939, 0, 0]]
    }, 
    {
      "op": "broadcast_add", 
      "name": "broadcast_plus142", 
      "inputs": [[88, 0, 0], [89, 0, 0]]
    }, 
    {
      "op": "dot", 
      "name": "dot213", 
      "inputs": [[924, 0, 0], [91, 0, 0]]
    }, 
    {
      "op": "expand_dims", 
      "name": "expand_dims86", 
      "attr": {"axis": "1"}, 
      "inputs": [[942, 0, 0]]
    }, 
    {
      "op": "broadcast_to", 
      "name": "broadcast_to121", 
      "attr": {"shape": "(24, 196, 512)"}, 
      "inputs": [[943, 0, 0]]
    }, 
    {
      "op": "elemwise_add", 
      "name": "_plus171", 
      "inputs": [[941, 0, 0], [944, 0, 0]]
    }, 
    {
      "op": "Activation", 
      "name": "activation70", 
      "attr": {"act_type": "relu"}, 
      "inputs": [[945, 0, 0]]
    }, 
    {
      "op": "dot", 
      "name": "dot214", 
      "inputs": [[946, 0, 0], [97, 0, 0]]
    }, 
    {
      "op": "Reshape", 
      "name": "reshape36", 
      "attr": {"shape": "[-1, 196]"}, 
      "inputs": [[947, 0, 0]]
    }, 
    {
      "op": "softmax", 
      "name": "softmax51", 
      "inputs": [[948, 0, 0]]
    }, 
    {
      "op": "expand_dims", 
      "name": "expand_dims87", 
      "attr": {"axis": "2"}, 
      "inputs": [[949, 0, 0]]
    }, 
    {
      "op": "broadcast_to", 
      "name": "broadcast_to122", 
      "attr": {"shape": "(24, 196, 512)"}, 
      "inputs": [[950, 0, 0]]
    }, 
    {
      "op": "_mul", 
      "name": "_mul172", 
      "inputs": [[86, 0, 0], [951, 0, 0]]
    }, 
    {
      "op": "sum", 
      "name": "context", 
      "attr": {"axis": "1"}, 
      "inputs": [[952, 0, 0]]
    }, 
    {
      "op": "_mul", 
      "name": "_mul173", 
      "inputs": [[940, 0, 0], [953, 0, 0]]
    }, 
    {
      "op": "Concat", 
      "name": "concat35", 
      "attr": {
        "dim": "1", 
        "num_args": "2"
      }, 
      "inputs": [[936, 0, 0], [954, 0, 0]]
    }, 
    {
      "op": "FullyConnected", 
      "name": "lstm_t35_i2h", 
      "attr": {"num_hidden": "1024"}, 
      "inputs": [[955, 0, 0], [107, 0, 0], [108, 0, 0]]
    }, 
    {
      "op": "FullyConnected", 
      "name": "lstm_t35_h2h", 
      "attr": {"num_hidden": "1024"}, 
      "inputs": [[924, 0, 0], [110, 0, 0], [111, 0, 0]]
    }, 
    {
      "op": "elemwise_add", 
      "name": "_plus172", 
      "inputs": [[956, 0, 0], [957, 0, 0]]
    }, 
    {
      "op": "SliceChannel", 
      "name": "lstm_t35_slice", 
      "attr": {"num_outputs": "4"}, 
      "inputs": [[958, 0, 0]]
    }, 
    {
      "op": "Activation", 
      "name": "lstm_t35_o", 
      "attr": {"act_type": "sigmoid"}, 
      "inputs": [[959, 3, 0]]
    }, 
    {
      "op": "Activation", 
      "name": "lstm_t35_f", 
      "attr": {"act_type": "sigmoid"}, 
      "inputs": [[959, 1, 0]]
    }, 
    {
      "op": "_mul", 
      "name": "_mul174", 
      "inputs": [[961, 0, 0], [922, 0, 0]]
    }, 
    {
      "op": "Activation", 
      "name": "lstm_t35_i", 
      "attr": {"act_type": "sigmoid"}, 
      "inputs": [[959, 0, 0]]
    }, 
    {
      "op": "Activation", 
      "name": "lstm_t35_c", 
      "attr": {"act_type": "tanh"}, 
      "inputs": [[959, 2, 0]]
    }, 
    {
      "op": "_mul", 
      "name": "_mul175", 
      "inputs": [[963, 0, 0], [964, 0, 0]]
    }, 
    {
      "op": "elemwise_add", 
      "name": "lstm_t35_state", 
      "inputs": [[962, 0, 0], [965, 0, 0]]
    }, 
    {
      "op": "Activation", 
      "name": "activation71", 
      "attr": {"act_type": "tanh"}, 
      "inputs": [[966, 0, 0]]
    }, 
    {
      "op": "_mul", 
      "name": "lstm_t35_out", 
      "inputs": [[960, 0, 0], [967, 0, 0]]
    }, 
    {
      "op": "dot", 
      "name": "dot216", 
      "inputs": [[968, 0, 0], [129, 0, 0]]
    }, 
    {
      "op": "broadcast_add", 
      "name": "broadcast_plus144", 
      "inputs": [[969, 0, 0], [131, 0, 0]]
    }, 
    {
      "op": "dot", 
      "name": "dot217", 
      "inputs": [[954, 0, 0], [133, 0, 0]]
    }, 
    {
      "op": "elemwise_add", 
      "name": "_plus173", 
      "inputs": [[970, 0, 0], [971, 0, 0]]
    }, 
    {
      "op": "elemwise_add", 
      "name": "_plus174", 
      "inputs": [[972, 0, 0], [936, 0, 0]]
    }, 
    {
      "op": "tanh", 
      "name": "tanh37", 
      "inputs": [[973, 0, 0]]
    }, 
    {
      "op": "dot", 
      "name": "dot218", 
      "inputs": [[974, 0, 0], [138, 0, 0]]
    }, 
    {
      "op": "broadcast_add", 
      "name": "broadcast_plus145", 
      "inputs": [[975, 0, 0], [140, 0, 0]]
    }, 
    {
      "op": "argmax", 
      "name": "argmax19", 
      "attr": {"axis": "1"}, 
      "inputs": [[976, 0, 0]]
    }, 
    {
      "op": "expand_dims", 
      "name": "expand_dims107", 
      "attr": {"axis": "0"}, 
      "inputs": [[977, 0, 0]]
    }, 
    {
      "op": "Concat", 
      "name": "concat54", 
      "attr": {
        "dim": "0", 
        "num_args": "2"
      }, 
      "inputs": [[935, 0, 0], [978, 0, 0]]
    }, 
    {
      "op": "transpose", 
      "name": "transpose1", 
      "inputs": [[979, 0, 0]]
    }
  ], 
  "arg_nodes": [
    2, 
    4, 
    5, 
    6, 
    9, 
    10, 
    14, 
    15, 
    18, 
    19, 
    23, 
    24, 
    27, 
    28, 
    31, 
    32, 
    35, 
    36, 
    40, 
    41, 
    44, 
    45, 
    48, 
    49, 
    52, 
    53, 
    57, 
    58, 
    61, 
    62, 
    65, 
    66, 
    71, 
    73, 
    76, 
    78, 
    82, 
    83, 
    84, 
    85, 
    87, 
    89, 
    91, 
    97, 
    107, 
    108, 
    110, 
    111, 
    117, 
    119, 
    129, 
    131, 
    133, 
    138, 
    140
  ], 
  "node_row_ptr": [
    0, 
    1, 
    2, 
    3, 
    4, 
    5, 
    6, 
    7, 
    8, 
    9, 
    10, 
    11, 
    12, 
    13, 
    14, 
    15, 
    16, 
    17, 
    18, 
    19, 
    20, 
    21, 
    22, 
    23, 
    24, 
    25, 
    26, 
    27, 
    28, 
    29, 
    30, 
    31, 
    32, 
    33, 
    34, 
    35, 
    36, 
    37, 
    38, 
    39, 
    40, 
    41, 
    42, 
    43, 
    44, 
    45, 
    46, 
    47, 
    48, 
    49, 
    50, 
    51, 
    52, 
    53, 
    54, 
    55, 
    56, 
    57, 
    58, 
    59, 
    60, 
    61, 
    62, 
    63, 
    64, 
    65, 
    66, 
    67, 
    68, 
    69, 
    70, 
    71, 
    72, 
    73, 
    74, 
    75, 
    76, 
    77, 
    78, 
    79, 
    80, 
    81, 
    82, 
    83, 
    84, 
    85, 
    86, 
    89, 
    90, 
    91, 
    92, 
    93, 
    94, 
    95, 
    96, 
    97, 
    98, 
    99, 
    100, 
    101, 
    102, 
    103, 
    104, 
    105, 
    106, 
    107, 
    108, 
    109, 
    110, 
    111, 
    112, 
    113, 
    114, 
    115, 
    116, 
    120, 
    121, 
    122, 
    123, 
    124, 
    125, 
    126, 
    127, 
    128, 
    129, 
    130, 
    131, 
    132, 
    133, 
    134, 
    135, 
    136, 
    137, 
    138, 
    139, 
    140, 
    141, 
    142, 
    143, 
    144, 
    145, 
    146, 
    147, 
    148, 
    149, 
    150, 
    151, 
    152, 
    153, 
    154, 
    155, 
    156, 
    157, 
    158, 
    159, 
    160, 
    161, 
    162, 
    163, 
    164, 
    165, 
    166, 
    167, 
    168, 
    169, 
    170, 
    171, 
    172, 
    176, 
    177, 
    178, 
    179, 
    180, 
    181, 
    182, 
    183, 
    184, 
    185, 
    186, 
    187, 
    188, 
    189, 
    190, 
    191, 
    192, 
    193, 
    194, 
    195, 
    196, 
    197, 
    198, 
    199, 
    200, 
    201, 
    202, 
    203, 
    204, 
    205, 
    206, 
    207, 
    208, 
    209, 
    210, 
    211, 
    212, 
    213, 
    214, 
    215, 
    216, 
    217, 
    218, 
    219, 
    223, 
    224, 
    225, 
    226, 
    227, 
    228, 
    229, 
    230, 
    231, 
    232, 
    233, 
    234, 
    235, 
    236, 
    237, 
    238, 
    239, 
    240, 
    241, 
    242, 
    243, 
    244, 
    245, 
    246, 
    247, 
    248, 
    249, 
    250, 
    251, 
    252, 
    253, 
    254, 
    255, 
    256, 
    257, 
    258, 
    259, 
    260, 
    261, 
    262, 
    263, 
    264, 
    265, 
    266, 
    270, 
    271, 
    272, 
    273, 
    274, 
    275, 
    276, 
    277, 
    278, 
    279, 
    280, 
    281, 
    282, 
    283, 
    284, 
    285, 
    286, 
    287, 
    288, 
    289, 
    290, 
    291, 
    292, 
    293, 
    294, 
    295, 
    296, 
    297, 
    298, 
    299, 
    300, 
    301, 
    302, 
    303, 
    304, 
    305, 
    306, 
    307, 
    308, 
    309, 
    310, 
    311, 
    312, 
    313, 
    317, 
    318, 
    319, 
    320, 
    321, 
    322, 
    323, 
    324, 
    325, 
    326, 
    327, 
    328, 
    329, 
    330, 
    331, 
    332, 
    333, 
    334, 
    335, 
    336, 
    337, 
    338, 
    339, 
    340, 
    341, 
    342, 
    343, 
    344, 
    345, 
    346, 
    347, 
    348, 
    349, 
    350, 
    351, 
    352, 
    353, 
    354, 
    355, 
    356, 
    357, 
    358, 
    359, 
    360, 
    364, 
    365, 
    366, 
    367, 
    368, 
    369, 
    370, 
    371, 
    372, 
    373, 
    374, 
    375, 
    376, 
    377, 
    378, 
    379, 
    380, 
    381, 
    382, 
    383, 
    384, 
    385, 
    386, 
    387, 
    388, 
    389, 
    390, 
    391, 
    392, 
    393, 
    394, 
    395, 
    396, 
    397, 
    398, 
    399, 
    400, 
    401, 
    402, 
    403, 
    404, 
    405, 
    406, 
    407, 
    411, 
    412, 
    413, 
    414, 
    415, 
    416, 
    417, 
    418, 
    419, 
    420, 
    421, 
    422, 
    423, 
    424, 
    425, 
    426, 
    427, 
    428, 
    429, 
    430, 
    431, 
    432, 
    433, 
    434, 
    435, 
    436, 
    437, 
    438, 
    439, 
    440, 
    441, 
    442, 
    443, 
    444, 
    445, 
    446, 
    447, 
    448, 
    449, 
    450, 
    451, 
    452, 
    453, 
    454, 
    458, 
    459, 
    460, 
    461, 
    462, 
    463, 
    464, 
    465, 
    466, 
    467, 
    468, 
    469, 
    470, 
    471, 
    472, 
    473, 
    474, 
    475, 
    476, 
    477, 
    478, 
    479, 
    480, 
    481, 
    482, 
    483, 
    484, 
    485, 
    486, 
    487, 
    488, 
    489, 
    490, 
    491, 
    492, 
    493, 
    494, 
    495, 
    496, 
    497, 
    498, 
    499, 
    500, 
    501, 
    505, 
    506, 
    507, 
    508, 
    509, 
    510, 
    511, 
    512, 
    513, 
    514, 
    515, 
    516, 
    517, 
    518, 
    519, 
    520, 
    521, 
    522, 
    523, 
    524, 
    525, 
    526, 
    527, 
    528, 
    529, 
    530, 
    531, 
    532, 
    533, 
    534, 
    535, 
    536, 
    537, 
    538, 
    539, 
    540, 
    541, 
    542, 
    543, 
    544, 
    545, 
    546, 
    547, 
    548, 
    552, 
    553, 
    554, 
    555, 
    556, 
    557, 
    558, 
    559, 
    560, 
    561, 
    562, 
    563, 
    564, 
    565, 
    566, 
    567, 
    568, 
    569, 
    570, 
    571, 
    572, 
    573, 
    574, 
    575, 
    576, 
    577, 
    578, 
    579, 
    580, 
    581, 
    582, 
    583, 
    584, 
    585, 
    586, 
    587, 
    588, 
    589, 
    590, 
    591, 
    592, 
    593, 
    594, 
    595, 
    599, 
    600, 
    601, 
    602, 
    603, 
    604, 
    605, 
    606, 
    607, 
    608, 
    609, 
    610, 
    611, 
    612, 
    613, 
    614, 
    615, 
    616, 
    617, 
    618, 
    619, 
    620, 
    621, 
    622, 
    623, 
    624, 
    625, 
    626, 
    627, 
    628, 
    629, 
    630, 
    631, 
    632, 
    633, 
    634, 
    635, 
    636, 
    637, 
    638, 
    639, 
    640, 
    641, 
    642, 
    646, 
    647, 
    648, 
    649, 
    650, 
    651, 
    652, 
    653, 
    654, 
    655, 
    656, 
    657, 
    658, 
    659, 
    660, 
    661, 
    662, 
    663, 
    664, 
    665, 
    666, 
    667, 
    668, 
    669, 
    670, 
    671, 
    672, 
    673, 
    674, 
    675, 
    676, 
    677, 
    678, 
    679, 
    680, 
    681, 
    682, 
    683, 
    684, 
    685, 
    686, 
    687, 
    688, 
    689, 
    693, 
    694, 
    695, 
    696, 
    697, 
    698, 
    699, 
    700, 
    701, 
    702, 
    703, 
    704, 
    705, 
    706, 
    707, 
    708, 
    709, 
    710, 
    711, 
    712, 
    713, 
    714, 
    715, 
    716, 
    717, 
    718, 
    719, 
    720, 
    721, 
    722, 
    723, 
    724, 
    725, 
    726, 
    727, 
    728, 
    729, 
    730, 
    731, 
    732, 
    733, 
    734, 
    735, 
    736, 
    740, 
    741, 
    742, 
    743, 
    744, 
    745, 
    746, 
    747, 
    748, 
    749, 
    750, 
    751, 
    752, 
    753, 
    754, 
    755, 
    756, 
    757, 
    758, 
    759, 
    760, 
    761, 
    762, 
    763, 
    764, 
    765, 
    766, 
    767, 
    768, 
    769, 
    770, 
    771, 
    772, 
    773, 
    774, 
    775, 
    776, 
    777, 
    778, 
    779, 
    780, 
    781, 
    782, 
    783, 
    787, 
    788, 
    789, 
    790, 
    791, 
    792, 
    793, 
    794, 
    795, 
    796, 
    797, 
    798, 
    799, 
    800, 
    801, 
    802, 
    803, 
    804, 
    805, 
    806, 
    807, 
    808, 
    809, 
    810, 
    811, 
    812, 
    813, 
    814, 
    815, 
    816, 
    817, 
    818, 
    819, 
    820, 
    821, 
    822, 
    823, 
    824, 
    825, 
    826, 
    827, 
    828, 
    829, 
    830, 
    834, 
    835, 
    836, 
    837, 
    838, 
    839, 
    840, 
    841, 
    842, 
    843, 
    844, 
    845, 
    846, 
    847, 
    848, 
    849, 
    850, 
    851, 
    852, 
    853, 
    854, 
    855, 
    856, 
    857, 
    858, 
    859, 
    860, 
    861, 
    862, 
    863, 
    864, 
    865, 
    866, 
    867, 
    868, 
    869, 
    870, 
    871, 
    872, 
    873, 
    874, 
    875, 
    876, 
    877, 
    881, 
    882, 
    883, 
    884, 
    885, 
    886, 
    887, 
    888, 
    889, 
    890, 
    891, 
    892, 
    893, 
    894, 
    895, 
    896, 
    897, 
    898, 
    899, 
    900, 
    901, 
    902, 
    903, 
    904, 
    905, 
    906, 
    907, 
    908, 
    909, 
    910, 
    911, 
    912, 
    913, 
    914, 
    915, 
    916, 
    917, 
    918, 
    919, 
    920, 
    921, 
    922, 
    923, 
    924, 
    928, 
    929, 
    930, 
    931, 
    932, 
    933, 
    934, 
    935, 
    936, 
    937, 
    938, 
    939, 
    940, 
    941, 
    942, 
    943, 
    944, 
    945, 
    946, 
    947, 
    948, 
    949, 
    950, 
    951, 
    952, 
    953, 
    954, 
    955, 
    956, 
    957, 
    958, 
    959, 
    960, 
    961, 
    962, 
    963, 
    964, 
    965, 
    966, 
    967, 
    968, 
    969, 
    970, 
    971, 
    975, 
    976, 
    977, 
    978, 
    979, 
    980, 
    981, 
    982, 
    983, 
    984, 
    985, 
    986, 
    987, 
    988, 
    989, 
    990, 
    991, 
    992, 
    993, 
    994, 
    995, 
    996, 
    997, 
    998, 
    999, 
    1000, 
    1001, 
    1002, 
    1003, 
    1004, 
    1005, 
    1006, 
    1007, 
    1008, 
    1009, 
    1010, 
    1011, 
    1012, 
    1013, 
    1014, 
    1015, 
    1016, 
    1017, 
    1018, 
    1022, 
    1023, 
    1024, 
    1025, 
    1026, 
    1027, 
    1028, 
    1029, 
    1030, 
    1031, 
    1032, 
    1033, 
    1034, 
    1035, 
    1036, 
    1037, 
    1038, 
    1039, 
    1040, 
    1041, 
    1042, 
    1043
  ], 
  "heads": [[980, 0, 0]], 
  "attrs": {"mxnet_version": ["int", 1000]}
}