{
  "nodes": [
    {
      "op": "null", 
      "name": "captions", 
      "attr": {
        "__dtype__": "0", 
        "__shape__": "(24, 17)"
      }, 
      "inputs": []
    }, 
    {
      "op": "SliceChannel", 
      "name": "split0", 
      "attr": {
        "num_outputs": "17", 
        "squeeze_axis": "True"
      }, 
      "inputs": [[0, 0, 0]]
    }, 
    {
      "op": "null", 
      "name": "w_embed_weight", 
      "attr": {
        "__init__": "[\"xavier\", {\"rnd_type\": \"uniform\", \"magnitude\": 3, \"factor_type\": \"avg\"}]", 
        "__shape__": "[9705, 256]"
      }, 
      "inputs": []
    }, 
    {
      "op": "Embedding", 
      "name": "word_vector", 
      "attr": {
        "input_dim": "9705", 
        "output_dim": "256"
      }, 
      "inputs": [[1, 0, 0], [2, 0, 0]]
    }, 
    {
      "op": "null", 
      "name": "data", 
      "inputs": []
    }, 
    {
      "op": "null", 
      "name": "conv1_1_weight", 
      "inputs": []
    }, 
    {
      "op": "null", 
      "name": "conv1_1_bias", 
      "inputs": []
    }, 
    {
      "op": "Convolution", 
      "name": "conv1_1", 
      "attr": {
        "cudnn_off": "False", 
        "cudnn_tune": "off", 
        "dilate": "(1,1)", 
        "kernel": "(3,3)", 
        "no_bias": "False", 
        "num_filter": "64", 
        "num_group": "1", 
        "pad": "(1,1)", 
        "stride": "(1,1)", 
        "workspace": "1024"
      }, 
      "inputs": [[4, 0, 0], [5, 0, 0], [6, 0, 0]]
    }, 
    {
      "op": "Activation", 
      "name": "relu1_1", 
      "attr": {"act_type": "relu"}, 
      "inputs": [[7, 0, 0]]
    }, 
    {
      "op": "null", 
      "name": "conv1_2_weight", 
      "inputs": []
    }, 
    {
      "op": "null", 
      "name": "conv1_2_bias", 
      "inputs": []
    }, 
    {
      "op": "Convolution", 
      "name": "conv1_2", 
      "attr": {
        "cudnn_off": "False", 
        "cudnn_tune": "off", 
        "dilate": "(1,1)", 
        "kernel": "(3,3)", 
        "no_bias": "False", 
        "num_filter": "64", 
        "num_group": "1", 
        "pad": "(1,1)", 
        "stride": "(1,1)", 
        "workspace": "1024"
      }, 
      "inputs": [[8, 0, 0], [9, 0, 0], [10, 0, 0]]
    }, 
    {
      "op": "Activation", 
      "name": "relu1_2", 
      "attr": {"act_type": "relu"}, 
      "inputs": [[11, 0, 0]]
    }, 
    {
      "op": "Pooling", 
      "name": "pool1", 
      "attr": {
        "global_pool": "False", 
        "kernel": "(2,2)", 
        "pad": "(0,0)", 
        "pool_type": "max", 
        "pooling_convention": "full", 
        "stride": "(2,2)"
      }, 
      "inputs": [[12, 0, 0]]
    }, 
    {
      "op": "null", 
      "name": "conv2_1_weight", 
      "inputs": []
    }, 
    {
      "op": "null", 
      "name": "conv2_1_bias", 
      "inputs": []
    }, 
    {
      "op": "Convolution", 
      "name": "conv2_1", 
      "attr": {
        "cudnn_off": "False", 
        "cudnn_tune": "off", 
        "dilate": "(1,1)", 
        "kernel": "(3,3)", 
        "no_bias": "False", 
        "num_filter": "128", 
        "num_group": "1", 
        "pad": "(1,1)", 
        "stride": "(1,1)", 
        "workspace": "1024"
      }, 
      "inputs": [[13, 0, 0], [14, 0, 0], [15, 0, 0]]
    }, 
    {
      "op": "Activation", 
      "name": "relu2_1", 
      "attr": {"act_type": "relu"}, 
      "inputs": [[16, 0, 0]]
    }, 
    {
      "op": "null", 
      "name": "conv2_2_weight", 
      "inputs": []
    }, 
    {
      "op": "null", 
      "name": "conv2_2_bias", 
      "inputs": []
    }, 
    {
      "op": "Convolution", 
      "name": "conv2_2", 
      "attr": {
        "cudnn_off": "False", 
        "cudnn_tune": "off", 
        "dilate": "(1,1)", 
        "kernel": "(3,3)", 
        "no_bias": "False", 
        "num_filter": "128", 
        "num_group": "1", 
        "pad": "(1,1)", 
        "stride": "(1,1)", 
        "workspace": "1024"
      }, 
      "inputs": [[17, 0, 0], [18, 0, 0], [19, 0, 0]]
    }, 
    {
      "op": "Activation", 
      "name": "relu2_2", 
      "attr": {"act_type": "relu"}, 
      "inputs": [[20, 0, 0]]
    }, 
    {
      "op": "Pooling", 
      "name": "pool2", 
      "attr": {
        "global_pool": "False", 
        "kernel": "(2,2)", 
        "pad": "(0,0)", 
        "pool_type": "max", 
        "pooling_convention": "full", 
        "stride": "(2,2)"
      }, 
      "inputs": [[21, 0, 0]]
    }, 
    {
      "op": "null", 
      "name": "conv3_1_weight", 
      "inputs": []
    }, 
    {
      "op": "null", 
      "name": "conv3_1_bias", 
      "inputs": []
    }, 
    {
      "op": "Convolution", 
      "name": "conv3_1", 
      "attr": {
        "cudnn_off": "False", 
        "cudnn_tune": "off", 
        "dilate": "(1,1)", 
        "kernel": "(3,3)", 
        "no_bias": "False", 
        "num_filter": "256", 
        "num_group": "1", 
        "pad": "(1,1)", 
        "stride": "(1,1)", 
        "workspace": "1024"
      }, 
      "inputs": [[22, 0, 0], [23, 0, 0], [24, 0, 0]]
    }, 
    {
      "op": "Activation", 
      "name": "relu3_1", 
      "attr": {"act_type": "relu"}, 
      "inputs": [[25, 0, 0]]
    }, 
    {
      "op": "null", 
      "name": "conv3_2_weight", 
      "inputs": []
    }, 
    {
      "op": "null", 
      "name": "conv3_2_bias", 
      "inputs": []
    }, 
    {
      "op": "Convolution", 
      "name": "conv3_2", 
      "attr": {
        "cudnn_off": "False", 
        "cudnn_tune": "off", 
        "dilate": "(1,1)", 
        "kernel": "(3,3)", 
        "no_bias": "False", 
        "num_filter": "256", 
        "num_group": "1", 
        "pad": "(1,1)", 
        "stride": "(1,1)", 
        "workspace": "1024"
      }, 
      "inputs": [[26, 0, 0], [27, 0, 0], [28, 0, 0]]
    }, 
    {
      "op": "Activation", 
      "name": "relu3_2", 
      "attr": {"act_type": "relu"}, 
      "inputs": [[29, 0, 0]]
    }, 
    {
      "op": "null", 
      "name": "conv3_3_weight", 
      "inputs": []
    }, 
    {
      "op": "null", 
      "name": "conv3_3_bias", 
      "inputs": []
    }, 
    {
      "op": "Convolution", 
      "name": "conv3_3", 
      "attr": {
        "cudnn_off": "False", 
        "cudnn_tune": "off", 
        "dilate": "(1,1)", 
        "kernel": "(3,3)", 
        "no_bias": "False", 
        "num_filter": "256", 
        "num_group": "1", 
        "pad": "(1,1)", 
        "stride": "(1,1)", 
        "workspace": "1024"
      }, 
      "inputs": [[30, 0, 0], [31, 0, 0], [32, 0, 0]]
    }, 
    {
      "op": "Activation", 
      "name": "relu3_3", 
      "attr": {"act_type": "relu"}, 
      "inputs": [[33, 0, 0]]
    }, 
    {
      "op": "null", 
      "name": "conv3_4_weight", 
      "inputs": []
    }, 
    {
      "op": "null", 
      "name": "conv3_4_bias", 
      "inputs": []
    }, 
    {
      "op": "Convolution", 
      "name": "conv3_4", 
      "attr": {
        "cudnn_off": "False", 
        "cudnn_tune": "off", 
        "dilate": "(1,1)", 
        "kernel": "(3,3)", 
        "no_bias": "False", 
        "num_filter": "256", 
        "num_group": "1", 
        "pad": "(1,1)", 
        "stride": "(1,1)", 
        "workspace": "1024"
      }, 
      "inputs": [[34, 0, 0], [35, 0, 0], [36, 0, 0]]
    }, 
    {
      "op": "Activation", 
      "name": "relu3_4", 
      "attr": {"act_type": "relu"}, 
      "inputs": [[37, 0, 0]]
    }, 
    {
      "op": "Pooling", 
      "name": "pool3", 
      "attr": {
        "global_pool": "False", 
        "kernel": "(2,2)", 
        "pad": "(0,0)", 
        "pool_type": "max", 
        "pooling_convention": "full", 
        "stride": "(2,2)"
      }, 
      "inputs": [[38, 0, 0]]
    }, 
    {
      "op": "null", 
      "name": "conv4_1_weight", 
      "inputs": []
    }, 
    {
      "op": "null", 
      "name": "conv4_1_bias", 
      "inputs": []
    }, 
    {
      "op": "Convolution", 
      "name": "conv4_1", 
      "attr": {
        "cudnn_off": "False", 
        "cudnn_tune": "off", 
        "dilate": "(1,1)", 
        "kernel": "(3,3)", 
        "no_bias": "False", 
        "num_filter": "512", 
        "num_group": "1", 
        "pad": "(1,1)", 
        "stride": "(1,1)", 
        "workspace": "1024"
      }, 
      "inputs": [[39, 0, 0], [40, 0, 0], [41, 0, 0]]
    }, 
    {
      "op": "Activation", 
      "name": "relu4_1", 
      "attr": {"act_type": "relu"}, 
      "inputs": [[42, 0, 0]]
    }, 
    {
      "op": "null", 
      "name": "conv4_2_weight", 
      "inputs": []
    }, 
    {
      "op": "null", 
      "name": "conv4_2_bias", 
      "inputs": []
    }, 
    {
      "op": "Convolution", 
      "name": "conv4_2", 
      "attr": {
        "cudnn_off": "False", 
        "cudnn_tune": "off", 
        "dilate": "(1,1)", 
        "kernel": "(3,3)", 
        "no_bias": "False", 
        "num_filter": "512", 
        "num_group": "1", 
        "pad": "(1,1)", 
        "stride": "(1,1)", 
        "workspace": "1024"
      }, 
      "inputs": [[43, 0, 0], [44, 0, 0], [45, 0, 0]]
    }, 
    {
      "op": "Activation", 
      "name": "relu4_2", 
      "attr": {"act_type": "relu"}, 
      "inputs": [[46, 0, 0]]
    }, 
    {
      "op": "null", 
      "name": "conv4_3_weight", 
      "inputs": []
    }, 
    {
      "op": "null", 
      "name": "conv4_3_bias", 
      "inputs": []
    }, 
    {
      "op": "Convolution", 
      "name": "conv4_3", 
      "attr": {
        "cudnn_off": "False", 
        "cudnn_tune": "off", 
        "dilate": "(1,1)", 
        "kernel": "(3,3)", 
        "no_bias": "False", 
        "num_filter": "512", 
        "num_group": "1", 
        "pad": "(1,1)", 
        "stride": "(1,1)", 
        "workspace": "1024"
      }, 
      "inputs": [[47, 0, 0], [48, 0, 0], [49, 0, 0]]
    }, 
    {
      "op": "Activation", 
      "name": "relu4_3", 
      "attr": {"act_type": "relu"}, 
      "inputs": [[50, 0, 0]]
    }, 
    {
      "op": "null", 
      "name": "conv4_4_weight", 
      "inputs": []
    }, 
    {
      "op": "null", 
      "name": "conv4_4_bias", 
      "inputs": []
    }, 
    {
      "op": "Convolution", 
      "name": "conv4_4", 
      "attr": {
        "cudnn_off": "False", 
        "cudnn_tune": "off", 
        "dilate": "(1,1)", 
        "kernel": "(3,3)", 
        "no_bias": "False", 
        "num_filter": "512", 
        "num_group": "1", 
        "pad": "(1,1)", 
        "stride": "(1,1)", 
        "workspace": "1024"
      }, 
      "inputs": [[51, 0, 0], [52, 0, 0], [53, 0, 0]]
    }, 
    {
      "op": "Activation", 
      "name": "relu4_4", 
      "attr": {"act_type": "relu"}, 
      "inputs": [[54, 0, 0]]
    }, 
    {
      "op": "Pooling", 
      "name": "pool4", 
      "attr": {
        "global_pool": "False", 
        "kernel": "(2,2)", 
        "pad": "(0,0)", 
        "pool_type": "max", 
        "pooling_convention": "full", 
        "stride": "(2,2)"
      }, 
      "inputs": [[55, 0, 0]]
    }, 
    {
      "op": "null", 
      "name": "conv5_1_weight", 
      "inputs": []
    }, 
    {
      "op": "null", 
      "name": "conv5_1_bias", 
      "inputs": []
    }, 
    {
      "op": "Convolution", 
      "name": "conv5_1", 
      "attr": {
        "cudnn_off": "False", 
        "cudnn_tune": "off", 
        "dilate": "(1,1)", 
        "kernel": "(3,3)", 
        "no_bias": "False", 
        "num_filter": "512", 
        "num_group": "1", 
        "pad": "(1,1)", 
        "stride": "(1,1)", 
        "workspace": "1024"
      }, 
      "inputs": [[56, 0, 0], [57, 0, 0], [58, 0, 0]]
    }, 
    {
      "op": "Activation", 
      "name": "relu5_1", 
      "attr": {"act_type": "relu"}, 
      "inputs": [[59, 0, 0]]
    }, 
    {
      "op": "null", 
      "name": "conv5_2_weight", 
      "inputs": []
    }, 
    {
      "op": "null", 
      "name": "conv5_2_bias", 
      "inputs": []
    }, 
    {
      "op": "Convolution", 
      "name": "conv5_2", 
      "attr": {
        "cudnn_off": "False", 
        "cudnn_tune": "off", 
        "dilate": "(1,1)", 
        "kernel": "(3,3)", 
        "no_bias": "False", 
        "num_filter": "512", 
        "num_group": "1", 
        "pad": "(1,1)", 
        "stride": "(1,1)", 
        "workspace": "1024"
      }, 
      "inputs": [[60, 0, 0], [61, 0, 0], [62, 0, 0]]
    }, 
    {
      "op": "Activation", 
      "name": "relu5_2", 
      "attr": {"act_type": "relu"}, 
      "inputs": [[63, 0, 0]]
    }, 
    {
      "op": "null", 
      "name": "conv5_3_weight", 
      "inputs": []
    }, 
    {
      "op": "null", 
      "name": "conv5_3_bias", 
      "inputs": []
    }, 
    {
      "op": "Convolution", 
      "name": "conv5_3", 
      "attr": {
        "cudnn_off": "False", 
        "cudnn_tune": "off", 
        "dilate": "(1,1)", 
        "kernel": "(3,3)", 
        "no_bias": "False", 
        "num_filter": "512", 
        "num_group": "1", 
        "pad": "(1,1)", 
        "stride": "(1,1)", 
        "workspace": "1024"
      }, 
      "inputs": [[64, 0, 0], [65, 0, 0], [66, 0, 0]]
    }, 
    {
      "op": "transpose", 
      "name": "transpose0", 
      "attr": {"axes": "(0, 2, 3, 1)"}, 
      "inputs": [[67, 0, 0]]
    }, 
    {
      "op": "Reshape", 
      "name": "reshape0", 
      "attr": {"shape": "[-1, 196, 512]"}, 
      "inputs": [[68, 0, 0]]
    }, 
    {
      "op": "mean", 
      "name": "mean0", 
      "attr": {"axis": "1"}, 
      "inputs": [[69, 0, 0]]
    }, 
    {
      "op": "null", 
      "name": "w_inith_weight", 
      "attr": {
        "__init__": "[\"xavier\", {\"rnd_type\": \"uniform\", \"magnitude\": 3, \"factor_type\": \"avg\"}]", 
        "__shape__": "[512, 256]"
      }, 
      "inputs": []
    }, 
    {
      "op": "dot", 
      "name": "dot0", 
      "inputs": [[70, 0, 0], [71, 0, 0]]
    }, 
    {
      "op": "null", 
      "name": "b_inith_bias", 
      "attr": {
        "__init__": "[\"xavier\", {\"rnd_type\": \"uniform\", \"magnitude\": 3, \"factor_type\": \"avg\"}]", 
        "__shape__": "[256]"
      }, 
      "inputs": []
    }, 
    {
      "op": "broadcast_add", 
      "name": "broadcast_plus0", 
      "inputs": [[72, 0, 0], [73, 0, 0]]
    }, 
    {
      "op": "tanh", 
      "name": "tanh0", 
      "inputs": [[74, 0, 0]]
    }, 
    {
      "op": "null", 
      "name": "w_select_weight", 
      "attr": {
        "__init__": "[\"xavier\", {\"rnd_type\": \"uniform\", \"magnitude\": 3, \"factor_type\": \"avg\"}]", 
        "__shape__": "[256, 1]"
      }, 
      "inputs": []
    }, 
    {
      "op": "dot", 
      "name": "dot5", 
      "inputs": [[75, 0, 0], [76, 0, 0]]
    }, 
    {
      "op": "null", 
      "name": "b_select_bias", 
      "attr": {
        "__init__": "[\"xavier\", {\"rnd_type\": \"uniform\", \"magnitude\": 3, \"factor_type\": \"avg\"}]", 
        "__shape__": "[1]"
      }, 
      "inputs": []
    }, 
    {
      "op": "broadcast_add", 
      "name": "broadcast_plus3", 
      "inputs": [[77, 0, 0], [78, 0, 0]]
    }, 
    {
      "op": "sigmoid", 
      "name": "beta", 
      "inputs": [[79, 0, 0]]
    }, 
    {
      "op": "broadcast_to", 
      "name": "broadcast_to2", 
      "attr": {"shape": "(24, 512)"}, 
      "inputs": [[80, 0, 0]]
    }, 
    {
      "op": "null", 
      "name": "conv_features_gamma", 
      "attr": {
        "eps": "2e-05", 
        "fix_gamma": "False", 
        "momentum": "0.9"
      }, 
      "inputs": []
    }, 
    {
      "op": "null", 
      "name": "conv_features_beta", 
      "attr": {
        "eps": "2e-05", 
        "fix_gamma": "False", 
        "momentum": "0.9"
      }, 
      "inputs": []
    }, 
    {
      "op": "null", 
      "name": "conv_features_moving_mean", 
      "attr": {
        "__init__": "[\"zero\", {}]", 
        "eps": "2e-05", 
        "fix_gamma": "False", 
        "momentum": "0.9"
      }, 
      "inputs": []
    }, 
    {
      "op": "null", 
      "name": "conv_features_moving_var", 
      "attr": {
        "__init__": "[\"one\", {}]", 
        "eps": "2e-05", 
        "fix_gamma": "False", 
        "momentum": "0.9"
      }, 
      "inputs": []
    }, 
    {
      "op": "BatchNorm", 
      "name": "conv_features", 
      "attr": {
        "eps": "2e-05", 
        "fix_gamma": "False", 
        "momentum": "0.9"
      }, 
      "inputs": [[69, 0, 0], [82, 0, 0], [83, 0, 0], [84, 0, 1], [85, 0, 1]]
    }, 
    {
      "op": "null", 
      "name": "w_featureproj_weight", 
      "attr": {
        "__init__": "[\"xavier\", {\"rnd_type\": \"uniform\", \"magnitude\": 3, \"factor_type\": \"avg\"}]", 
        "__shape__": "[512, 512]"
      }, 
      "inputs": []
    }, 
    {
      "op": "dot", 
      "name": "dot2", 
      "inputs": [[69, 0, 0], [87, 0, 0]]
    }, 
    {
      "op": "null", 
      "name": "b_att_bias", 
      "attr": {
        "__init__": "[\"xavier\", {\"rnd_type\": \"uniform\", \"magnitude\": 3, \"factor_type\": \"avg\"}]", 
        "__shape__": "[512]"
      }, 
      "inputs": []
    }, 
    {
      "op": "broadcast_add", 
      "name": "broadcast_plus2", 
      "inputs": [[88, 0, 0], [89, 0, 0]]
    }, 
    {
      "op": "null", 
      "name": "w_att_weight", 
      "attr": {
        "__init__": "[\"xavier\", {\"rnd_type\": \"uniform\", \"magnitude\": 3, \"factor_type\": \"avg\"}]", 
        "__shape__": "[256, 512]"
      }, 
      "inputs": []
    }, 
    {
      "op": "dot", 
      "name": "dot3", 
      "inputs": [[75, 0, 0], [91, 0, 0]]
    }, 
    {
      "op": "expand_dims", 
      "name": "expand_dims0", 
      "attr": {"axis": "1"}, 
      "inputs": [[92, 0, 0]]
    }, 
    {
      "op": "broadcast_to", 
      "name": "broadcast_to0", 
      "attr": {"shape": "(24, 196, 512)"}, 
      "inputs": [[93, 0, 0]]
    }, 
    {
      "op": "elemwise_add", 
      "name": "_plus0", 
      "inputs": [[90, 0, 0], [94, 0, 0]]
    }, 
    {
      "op": "Activation", 
      "name": "activation0", 
      "attr": {"act_type": "relu"}, 
      "inputs": [[95, 0, 0]]
    }, 
    {
      "op": "null", 
      "name": "w_att_att_weight", 
      "attr": {
        "__init__": "[\"xavier\", {\"rnd_type\": \"uniform\", \"magnitude\": 3, \"factor_type\": \"avg\"}]", 
        "__shape__": "[512, 1]"
      }, 
      "inputs": []
    }, 
    {
      "op": "dot", 
      "name": "dot4", 
      "inputs": [[96, 0, 0], [97, 0, 0]]
    }, 
    {
      "op": "Reshape", 
      "name": "reshape1", 
      "attr": {"shape": "[-1, 196]"}, 
      "inputs": [[98, 0, 0]]
    }, 
    {
      "op": "softmax", 
      "name": "softmax0", 
      "inputs": [[99, 0, 0]]
    }, 
    {
      "op": "expand_dims", 
      "name": "expand_dims1", 
      "attr": {"axis": "2"}, 
      "inputs": [[100, 0, 0]]
    }, 
    {
      "op": "broadcast_to", 
      "name": "broadcast_to1", 
      "attr": {"shape": "(24, 196, 512)"}, 
      "inputs": [[101, 0, 0]]
    }, 
    {
      "op": "_mul", 
      "name": "_mul0", 
      "inputs": [[86, 0, 0], [102, 0, 0]]
    }, 
    {
      "op": "sum", 
      "name": "context", 
      "attr": {"axis": "1"}, 
      "inputs": [[103, 0, 0]]
    }, 
    {
      "op": "_mul", 
      "name": "_mul1", 
      "inputs": [[81, 0, 0], [104, 0, 0]]
    }, 
    {
      "op": "Concat", 
      "name": "concat0", 
      "attr": {
        "dim": "1", 
        "num_args": "2"
      }, 
      "inputs": [[3, 0, 0], [105, 0, 0]]
    }, 
    {
      "op": "null", 
      "name": "lstm_i2h_weight", 
      "inputs": []
    }, 
    {
      "op": "null", 
      "name": "lstm_i2h_bias", 
      "attr": {"__init__": "[\"lstmbias\", {\"forget_bias\": 1.0}]"}, 
      "inputs": []
    }, 
    {
      "op": "FullyConnected", 
      "name": "lstm_t0_i2h", 
      "attr": {"num_hidden": "1024"}, 
      "inputs": [[106, 0, 0], [107, 0, 0], [108, 0, 0]]
    }, 
    {
      "op": "null", 
      "name": "lstm_h2h_weight", 
      "inputs": []
    }, 
    {
      "op": "null", 
      "name": "lstm_h2h_bias", 
      "inputs": []
    }, 
    {
      "op": "FullyConnected", 
      "name": "lstm_t0_h2h", 
      "attr": {"num_hidden": "1024"}, 
      "inputs": [[75, 0, 0], [110, 0, 0], [111, 0, 0]]
    }, 
    {
      "op": "elemwise_add", 
      "name": "_plus1", 
      "inputs": [[109, 0, 0], [112, 0, 0]]
    }, 
    {
      "op": "SliceChannel", 
      "name": "lstm_t0_slice", 
      "attr": {"num_outputs": "4"}, 
      "inputs": [[113, 0, 0]]
    }, 
    {
      "op": "Activation", 
      "name": "lstm_t0_o", 
      "attr": {"act_type": "sigmoid"}, 
      "inputs": [[114, 3, 0]]
    }, 
    {
      "op": "Activation", 
      "name": "lstm_t0_f", 
      "attr": {"act_type": "sigmoid"}, 
      "inputs": [[114, 1, 0]]
    }, 
    {
      "op": "null", 
      "name": "w_initc_weight", 
      "attr": {
        "__init__": "[\"xavier\", {\"rnd_type\": \"uniform\", \"magnitude\": 3, \"factor_type\": \"avg\"}]", 
        "__shape__": "[512, 256]"
      }, 
      "inputs": []
    }, 
    {
      "op": "dot", 
      "name": "dot1", 
      "inputs": [[70, 0, 0], [117, 0, 0]]
    }, 
    {
      "op": "null", 
      "name": "b_initc_bias", 
      "attr": {
        "__init__": "[\"xavier\", {\"rnd_type\": \"uniform\", \"magnitude\": 3, \"factor_type\": \"avg\"}]", 
        "__shape__": "[256]"
      }, 
      "inputs": []
    }, 
    {
      "op": "broadcast_add", 
      "name": "broadcast_plus1", 
      "inputs": [[118, 0, 0], [119, 0, 0]]
    }, 
    {
      "op": "tanh", 
      "name": "tanh1", 
      "inputs": [[120, 0, 0]]
    }, 
    {
      "op": "_mul", 
      "name": "_mul2", 
      "inputs": [[116, 0, 0], [121, 0, 0]]
    }, 
    {
      "op": "Activation", 
      "name": "lstm_t0_i", 
      "attr": {"act_type": "sigmoid"}, 
      "inputs": [[114, 0, 0]]
    }, 
    {
      "op": "Activation", 
      "name": "lstm_t0_c", 
      "attr": {"act_type": "tanh"}, 
      "inputs": [[114, 2, 0]]
    }, 
    {
      "op": "_mul", 
      "name": "_mul3", 
      "inputs": [[123, 0, 0], [124, 0, 0]]
    }, 
    {
      "op": "elemwise_add", 
      "name": "lstm_t0_state", 
      "inputs": [[122, 0, 0], [125, 0, 0]]
    }, 
    {
      "op": "Activation", 
      "name": "activation1", 
      "attr": {"act_type": "tanh"}, 
      "inputs": [[126, 0, 0]]
    }, 
    {
      "op": "_mul", 
      "name": "lstm_t0_out", 
      "inputs": [[115, 0, 0], [127, 0, 0]]
    }, 
    {
      "op": "Dropout", 
      "name": "dropout0", 
      "attr": {"p": "0.5"}, 
      "inputs": [[128, 0, 0]]
    }, 
    {
      "op": "null", 
      "name": "w_h_decode_weight", 
      "attr": {
        "__init__": "[\"xavier\", {\"rnd_type\": \"uniform\", \"magnitude\": 3, \"factor_type\": \"avg\"}]", 
        "__shape__": "[256, 256]"
      }, 
      "inputs": []
    }, 
    {
      "op": "dot", 
      "name": "dot6", 
      "inputs": [[129, 0, 0], [130, 0, 0]]
    }, 
    {
      "op": "null", 
      "name": "b_h_decode_bias", 
      "attr": {
        "__init__": "[\"xavier\", {\"rnd_type\": \"uniform\", \"magnitude\": 3, \"factor_type\": \"avg\"}]", 
        "__shape__": "[256]"
      }, 
      "inputs": []
    }, 
    {
      "op": "broadcast_add", 
      "name": "broadcast_plus4", 
      "inputs": [[131, 0, 0], [132, 0, 0]]
    }, 
    {
      "op": "null", 
      "name": "w_ctx2out_weight", 
      "attr": {
        "__init__": "[\"xavier\", {\"rnd_type\": \"uniform\", \"magnitude\": 3, \"factor_type\": \"avg\"}]", 
        "__shape__": "[512, 256]"
      }, 
      "inputs": []
    }, 
    {
      "op": "dot", 
      "name": "dot7", 
      "inputs": [[105, 0, 0], [134, 0, 0]]
    }, 
    {
      "op": "elemwise_add", 
      "name": "_plus2", 
      "inputs": [[133, 0, 0], [135, 0, 0]]
    }, 
    {
      "op": "elemwise_add", 
      "name": "_plus3", 
      "inputs": [[136, 0, 0], [3, 0, 0]]
    }, 
    {
      "op": "tanh", 
      "name": "tanh2", 
      "inputs": [[137, 0, 0]]
    }, 
    {
      "op": "Dropout", 
      "name": "dropout1", 
      "attr": {"p": "0.5"}, 
      "inputs": [[138, 0, 0]]
    }, 
    {
      "op": "null", 
      "name": "w_out_decode_weight", 
      "attr": {
        "__init__": "[\"xavier\", {\"rnd_type\": \"uniform\", \"magnitude\": 3, \"factor_type\": \"avg\"}]", 
        "__shape__": "[256, 9705]"
      }, 
      "inputs": []
    }, 
    {
      "op": "dot", 
      "name": "dot8", 
      "inputs": [[139, 0, 0], [140, 0, 0]]
    }, 
    {
      "op": "null", 
      "name": "b_out_decode_bias", 
      "attr": {
        "__init__": "[\"xavier\", {\"rnd_type\": \"uniform\", \"magnitude\": 3, \"factor_type\": \"avg\"}]", 
        "__shape__": "[9705]"
      }, 
      "inputs": []
    }, 
    {
      "op": "broadcast_add", 
      "name": "broadcast_plus5", 
      "inputs": [[141, 0, 0], [142, 0, 0]]
    }, 
    {
      "op": "softmax", 
      "name": "softmax1", 
      "inputs": [[143, 0, 0]]
    }, 
    {
      "op": "log", 
      "name": "log0", 
      "inputs": [[144, 0, 0]]
    }, 
    {
      "op": "_mul_scalar", 
      "name": "_mulscalar16", 
      "attr": {"scalar": "-1.0"}, 
      "inputs": [[145, 0, 0]]
    }, 
    {
      "op": "one_hot", 
      "name": "one_hot0", 
      "attr": {"depth": "9705"}, 
      "inputs": [[1, 1, 0]]
    }, 
    {
      "op": "_mul", 
      "name": "_mul4", 
      "inputs": [[146, 0, 0], [147, 0, 0]]
    }, 
    {
      "op": "Cast", 
      "name": "cast0", 
      "attr": {"dtype": "float32"}, 
      "inputs": [[1, 1, 0]]
    }, 
    {
      "op": "_ones", 
      "name": "_ones0", 
      "attr": {
        "dtype": "float32", 
        "shape": "[24]"
      }, 
      "inputs": []
    }, 
    {
      "op": "_mul_scalar", 
      "name": "_mulscalar0", 
      "attr": {"scalar": "0"}, 
      "inputs": [[150, 0, 0]]
    }, 
    {
      "op": "broadcast_not_equal", 
      "name": "broadcast_not_equal0", 
      "inputs": [[149, 0, 0], [151, 0, 0]]
    }, 
    {
      "op": "Cast", 
      "name": "cast1", 
      "attr": {"dtype": "float32"}, 
      "inputs": [[152, 0, 0]]
    }, 
    {
      "op": "expand_dims", 
      "name": "expand_dims2", 
      "attr": {"axis": "1"}, 
      "inputs": [[153, 0, 0]]
    }, 
    {
      "op": "broadcast_to", 
      "name": "broadcast_to3", 
      "attr": {"shape": "(24, 9705)"}, 
      "inputs": [[154, 0, 0]]
    }, 
    {
      "op": "_mul", 
      "name": "_mul5", 
      "inputs": [[148, 0, 0], [155, 0, 0]]
    }, 
    {
      "op": "sum", 
      "name": "sum0", 
      "inputs": [[156, 0, 0]]
    }, 
    {
      "op": "_plus_scalar", 
      "name": "_plusscalar0", 
      "attr": {"scalar": "0.0"}, 
      "inputs": [[157, 0, 0]]
    }, 
    {
      "op": "Embedding", 
      "name": "word_vector", 
      "attr": {
        "input_dim": "9705", 
        "output_dim": "256"
      }, 
      "inputs": [[1, 1, 0], [2, 0, 0]]
    }, 
    {
      "op": "dot", 
      "name": "dot11", 
      "inputs": [[128, 0, 0], [76, 0, 0]]
    }, 
    {
      "op": "broadcast_add", 
      "name": "broadcast_plus7", 
      "inputs": [[160, 0, 0], [78, 0, 0]]
    }, 
    {
      "op": "sigmoid", 
      "name": "beta", 
      "inputs": [[161, 0, 0]]
    }, 
    {
      "op": "broadcast_to", 
      "name": "broadcast_to6", 
      "attr": {"shape": "(24, 512)"}, 
      "inputs": [[162, 0, 0]]
    }, 
    {
      "op": "broadcast_add", 
      "name": "broadcast_plus6", 
      "inputs": [[88, 0, 0], [89, 0, 0]]
    }, 
    {
      "op": "dot", 
      "name": "dot9", 
      "inputs": [[128, 0, 0], [91, 0, 0]]
    }, 
    {
      "op": "expand_dims", 
      "name": "expand_dims3", 
      "attr": {"axis": "1"}, 
      "inputs": [[165, 0, 0]]
    }, 
    {
      "op": "broadcast_to", 
      "name": "broadcast_to4", 
      "attr": {"shape": "(24, 196, 512)"}, 
      "inputs": [[166, 0, 0]]
    }, 
    {
      "op": "elemwise_add", 
      "name": "_plus4", 
      "inputs": [[164, 0, 0], [167, 0, 0]]
    }, 
    {
      "op": "Activation", 
      "name": "activation2", 
      "attr": {"act_type": "relu"}, 
      "inputs": [[168, 0, 0]]
    }, 
    {
      "op": "dot", 
      "name": "dot10", 
      "inputs": [[169, 0, 0], [97, 0, 0]]
    }, 
    {
      "op": "Reshape", 
      "name": "reshape2", 
      "attr": {"shape": "[-1, 196]"}, 
      "inputs": [[170, 0, 0]]
    }, 
    {
      "op": "softmax", 
      "name": "softmax2", 
      "inputs": [[171, 0, 0]]
    }, 
    {
      "op": "expand_dims", 
      "name": "expand_dims4", 
      "attr": {"axis": "2"}, 
      "inputs": [[172, 0, 0]]
    }, 
    {
      "op": "broadcast_to", 
      "name": "broadcast_to5", 
      "attr": {"shape": "(24, 196, 512)"}, 
      "inputs": [[173, 0, 0]]
    }, 
    {
      "op": "_mul", 
      "name": "_mul6", 
      "inputs": [[86, 0, 0], [174, 0, 0]]
    }, 
    {
      "op": "sum", 
      "name": "context", 
      "attr": {"axis": "1"}, 
      "inputs": [[175, 0, 0]]
    }, 
    {
      "op": "_mul", 
      "name": "_mul7", 
      "inputs": [[163, 0, 0], [176, 0, 0]]
    }, 
    {
      "op": "Concat", 
      "name": "concat1", 
      "attr": {
        "dim": "1", 
        "num_args": "2"
      }, 
      "inputs": [[159, 0, 0], [177, 0, 0]]
    }, 
    {
      "op": "FullyConnected", 
      "name": "lstm_t1_i2h", 
      "attr": {"num_hidden": "1024"}, 
      "inputs": [[178, 0, 0], [107, 0, 0], [108, 0, 0]]
    }, 
    {
      "op": "FullyConnected", 
      "name": "lstm_t1_h2h", 
      "attr": {"num_hidden": "1024"}, 
      "inputs": [[128, 0, 0], [110, 0, 0], [111, 0, 0]]
    }, 
    {
      "op": "elemwise_add", 
      "name": "_plus5", 
      "inputs": [[179, 0, 0], [180, 0, 0]]
    }, 
    {
      "op": "SliceChannel", 
      "name": "lstm_t1_slice", 
      "attr": {"num_outputs": "4"}, 
      "inputs": [[181, 0, 0]]
    }, 
    {
      "op": "Activation", 
      "name": "lstm_t1_o", 
      "attr": {"act_type": "sigmoid"}, 
      "inputs": [[182, 3, 0]]
    }, 
    {
      "op": "Activation", 
      "name": "lstm_t1_f", 
      "attr": {"act_type": "sigmoid"}, 
      "inputs": [[182, 1, 0]]
    }, 
    {
      "op": "_mul", 
      "name": "_mul8", 
      "inputs": [[184, 0, 0], [126, 0, 0]]
    }, 
    {
      "op": "Activation", 
      "name": "lstm_t1_i", 
      "attr": {"act_type": "sigmoid"}, 
      "inputs": [[182, 0, 0]]
    }, 
    {
      "op": "Activation", 
      "name": "lstm_t1_c", 
      "attr": {"act_type": "tanh"}, 
      "inputs": [[182, 2, 0]]
    }, 
    {
      "op": "_mul", 
      "name": "_mul9", 
      "inputs": [[186, 0, 0], [187, 0, 0]]
    }, 
    {
      "op": "elemwise_add", 
      "name": "lstm_t1_state", 
      "inputs": [[185, 0, 0], [188, 0, 0]]
    }, 
    {
      "op": "Activation", 
      "name": "activation3", 
      "attr": {"act_type": "tanh"}, 
      "inputs": [[189, 0, 0]]
    }, 
    {
      "op": "_mul", 
      "name": "lstm_t1_out", 
      "inputs": [[183, 0, 0], [190, 0, 0]]
    }, 
    {
      "op": "Dropout", 
      "name": "dropout2", 
      "attr": {"p": "0.5"}, 
      "inputs": [[191, 0, 0]]
    }, 
    {
      "op": "dot", 
      "name": "dot12", 
      "inputs": [[192, 0, 0], [130, 0, 0]]
    }, 
    {
      "op": "broadcast_add", 
      "name": "broadcast_plus8", 
      "inputs": [[193, 0, 0], [132, 0, 0]]
    }, 
    {
      "op": "dot", 
      "name": "dot13", 
      "inputs": [[177, 0, 0], [134, 0, 0]]
    }, 
    {
      "op": "elemwise_add", 
      "name": "_plus6", 
      "inputs": [[194, 0, 0], [195, 0, 0]]
    }, 
    {
      "op": "elemwise_add", 
      "name": "_plus7", 
      "inputs": [[196, 0, 0], [159, 0, 0]]
    }, 
    {
      "op": "tanh", 
      "name": "tanh3", 
      "inputs": [[197, 0, 0]]
    }, 
    {
      "op": "Dropout", 
      "name": "dropout3", 
      "attr": {"p": "0.5"}, 
      "inputs": [[198, 0, 0]]
    }, 
    {
      "op": "dot", 
      "name": "dot14", 
      "inputs": [[199, 0, 0], [140, 0, 0]]
    }, 
    {
      "op": "broadcast_add", 
      "name": "broadcast_plus9", 
      "inputs": [[200, 0, 0], [142, 0, 0]]
    }, 
    {
      "op": "softmax", 
      "name": "softmax3", 
      "inputs": [[201, 0, 0]]
    }, 
    {
      "op": "log", 
      "name": "log1", 
      "inputs": [[202, 0, 0]]
    }, 
    {
      "op": "_mul_scalar", 
      "name": "_mulscalar17", 
      "attr": {"scalar": "-1.0"}, 
      "inputs": [[203, 0, 0]]
    }, 
    {
      "op": "one_hot", 
      "name": "one_hot1", 
      "attr": {"depth": "9705"}, 
      "inputs": [[1, 2, 0]]
    }, 
    {
      "op": "_mul", 
      "name": "_mul10", 
      "inputs": [[204, 0, 0], [205, 0, 0]]
    }, 
    {
      "op": "Cast", 
      "name": "cast2", 
      "attr": {"dtype": "float32"}, 
      "inputs": [[1, 2, 0]]
    }, 
    {
      "op": "_ones", 
      "name": "_ones1", 
      "attr": {
        "dtype": "float32", 
        "shape": "[24]"
      }, 
      "inputs": []
    }, 
    {
      "op": "_mul_scalar", 
      "name": "_mulscalar1", 
      "attr": {"scalar": "0"}, 
      "inputs": [[208, 0, 0]]
    }, 
    {
      "op": "broadcast_not_equal", 
      "name": "broadcast_not_equal1", 
      "inputs": [[207, 0, 0], [209, 0, 0]]
    }, 
    {
      "op": "Cast", 
      "name": "cast3", 
      "attr": {"dtype": "float32"}, 
      "inputs": [[210, 0, 0]]
    }, 
    {
      "op": "expand_dims", 
      "name": "expand_dims5", 
      "attr": {"axis": "1"}, 
      "inputs": [[211, 0, 0]]
    }, 
    {
      "op": "broadcast_to", 
      "name": "broadcast_to7", 
      "attr": {"shape": "(24, 9705)"}, 
      "inputs": [[212, 0, 0]]
    }, 
    {
      "op": "_mul", 
      "name": "_mul11", 
      "inputs": [[206, 0, 0], [213, 0, 0]]
    }, 
    {
      "op": "sum", 
      "name": "sum1", 
      "inputs": [[214, 0, 0]]
    }, 
    {
      "op": "elemwise_add", 
      "name": "_plus8", 
      "inputs": [[158, 0, 0], [215, 0, 0]]
    }, 
    {
      "op": "Embedding", 
      "name": "word_vector", 
      "attr": {
        "input_dim": "9705", 
        "output_dim": "256"
      }, 
      "inputs": [[1, 2, 0], [2, 0, 0]]
    }, 
    {
      "op": "dot", 
      "name": "dot17", 
      "inputs": [[191, 0, 0], [76, 0, 0]]
    }, 
    {
      "op": "broadcast_add", 
      "name": "broadcast_plus11", 
      "inputs": [[218, 0, 0], [78, 0, 0]]
    }, 
    {
      "op": "sigmoid", 
      "name": "beta", 
      "inputs": [[219, 0, 0]]
    }, 
    {
      "op": "broadcast_to", 
      "name": "broadcast_to10", 
      "attr": {"shape": "(24, 512)"}, 
      "inputs": [[220, 0, 0]]
    }, 
    {
      "op": "broadcast_add", 
      "name": "broadcast_plus10", 
      "inputs": [[88, 0, 0], [89, 0, 0]]
    }, 
    {
      "op": "dot", 
      "name": "dot15", 
      "inputs": [[191, 0, 0], [91, 0, 0]]
    }, 
    {
      "op": "expand_dims", 
      "name": "expand_dims6", 
      "attr": {"axis": "1"}, 
      "inputs": [[223, 0, 0]]
    }, 
    {
      "op": "broadcast_to", 
      "name": "broadcast_to8", 
      "attr": {"shape": "(24, 196, 512)"}, 
      "inputs": [[224, 0, 0]]
    }, 
    {
      "op": "elemwise_add", 
      "name": "_plus9", 
      "inputs": [[222, 0, 0], [225, 0, 0]]
    }, 
    {
      "op": "Activation", 
      "name": "activation4", 
      "attr": {"act_type": "relu"}, 
      "inputs": [[226, 0, 0]]
    }, 
    {
      "op": "dot", 
      "name": "dot16", 
      "inputs": [[227, 0, 0], [97, 0, 0]]
    }, 
    {
      "op": "Reshape", 
      "name": "reshape3", 
      "attr": {"shape": "[-1, 196]"}, 
      "inputs": [[228, 0, 0]]
    }, 
    {
      "op": "softmax", 
      "name": "softmax4", 
      "inputs": [[229, 0, 0]]
    }, 
    {
      "op": "expand_dims", 
      "name": "expand_dims7", 
      "attr": {"axis": "2"}, 
      "inputs": [[230, 0, 0]]
    }, 
    {
      "op": "broadcast_to", 
      "name": "broadcast_to9", 
      "attr": {"shape": "(24, 196, 512)"}, 
      "inputs": [[231, 0, 0]]
    }, 
    {
      "op": "_mul", 
      "name": "_mul12", 
      "inputs": [[86, 0, 0], [232, 0, 0]]
    }, 
    {
      "op": "sum", 
      "name": "context", 
      "attr": {"axis": "1"}, 
      "inputs": [[233, 0, 0]]
    }, 
    {
      "op": "_mul", 
      "name": "_mul13", 
      "inputs": [[221, 0, 0], [234, 0, 0]]
    }, 
    {
      "op": "Concat", 
      "name": "concat2", 
      "attr": {
        "dim": "1", 
        "num_args": "2"
      }, 
      "inputs": [[217, 0, 0], [235, 0, 0]]
    }, 
    {
      "op": "FullyConnected", 
      "name": "lstm_t2_i2h", 
      "attr": {"num_hidden": "1024"}, 
      "inputs": [[236, 0, 0], [107, 0, 0], [108, 0, 0]]
    }, 
    {
      "op": "FullyConnected", 
      "name": "lstm_t2_h2h", 
      "attr": {"num_hidden": "1024"}, 
      "inputs": [[191, 0, 0], [110, 0, 0], [111, 0, 0]]
    }, 
    {
      "op": "elemwise_add", 
      "name": "_plus10", 
      "inputs": [[237, 0, 0], [238, 0, 0]]
    }, 
    {
      "op": "SliceChannel", 
      "name": "lstm_t2_slice", 
      "attr": {"num_outputs": "4"}, 
      "inputs": [[239, 0, 0]]
    }, 
    {
      "op": "Activation", 
      "name": "lstm_t2_o", 
      "attr": {"act_type": "sigmoid"}, 
      "inputs": [[240, 3, 0]]
    }, 
    {
      "op": "Activation", 
      "name": "lstm_t2_f", 
      "attr": {"act_type": "sigmoid"}, 
      "inputs": [[240, 1, 0]]
    }, 
    {
      "op": "_mul", 
      "name": "_mul14", 
      "inputs": [[242, 0, 0], [189, 0, 0]]
    }, 
    {
      "op": "Activation", 
      "name": "lstm_t2_i", 
      "attr": {"act_type": "sigmoid"}, 
      "inputs": [[240, 0, 0]]
    }, 
    {
      "op": "Activation", 
      "name": "lstm_t2_c", 
      "attr": {"act_type": "tanh"}, 
      "inputs": [[240, 2, 0]]
    }, 
    {
      "op": "_mul", 
      "name": "_mul15", 
      "inputs": [[244, 0, 0], [245, 0, 0]]
    }, 
    {
      "op": "elemwise_add", 
      "name": "lstm_t2_state", 
      "inputs": [[243, 0, 0], [246, 0, 0]]
    }, 
    {
      "op": "Activation", 
      "name": "activation5", 
      "attr": {"act_type": "tanh"}, 
      "inputs": [[247, 0, 0]]
    }, 
    {
      "op": "_mul", 
      "name": "lstm_t2_out", 
      "inputs": [[241, 0, 0], [248, 0, 0]]
    }, 
    {
      "op": "Dropout", 
      "name": "dropout4", 
      "attr": {"p": "0.5"}, 
      "inputs": [[249, 0, 0]]
    }, 
    {
      "op": "dot", 
      "name": "dot18", 
      "inputs": [[250, 0, 0], [130, 0, 0]]
    }, 
    {
      "op": "broadcast_add", 
      "name": "broadcast_plus12", 
      "inputs": [[251, 0, 0], [132, 0, 0]]
    }, 
    {
      "op": "dot", 
      "name": "dot19", 
      "inputs": [[235, 0, 0], [134, 0, 0]]
    }, 
    {
      "op": "elemwise_add", 
      "name": "_plus11", 
      "inputs": [[252, 0, 0], [253, 0, 0]]
    }, 
    {
      "op": "elemwise_add", 
      "name": "_plus12", 
      "inputs": [[254, 0, 0], [217, 0, 0]]
    }, 
    {
      "op": "tanh", 
      "name": "tanh4", 
      "inputs": [[255, 0, 0]]
    }, 
    {
      "op": "Dropout", 
      "name": "dropout5", 
      "attr": {"p": "0.5"}, 
      "inputs": [[256, 0, 0]]
    }, 
    {
      "op": "dot", 
      "name": "dot20", 
      "inputs": [[257, 0, 0], [140, 0, 0]]
    }, 
    {
      "op": "broadcast_add", 
      "name": "broadcast_plus13", 
      "inputs": [[258, 0, 0], [142, 0, 0]]
    }, 
    {
      "op": "softmax", 
      "name": "softmax5", 
      "inputs": [[259, 0, 0]]
    }, 
    {
      "op": "log", 
      "name": "log2", 
      "inputs": [[260, 0, 0]]
    }, 
    {
      "op": "_mul_scalar", 
      "name": "_mulscalar18", 
      "attr": {"scalar": "-1.0"}, 
      "inputs": [[261, 0, 0]]
    }, 
    {
      "op": "one_hot", 
      "name": "one_hot2", 
      "attr": {"depth": "9705"}, 
      "inputs": [[1, 3, 0]]
    }, 
    {
      "op": "_mul", 
      "name": "_mul16", 
      "inputs": [[262, 0, 0], [263, 0, 0]]
    }, 
    {
      "op": "Cast", 
      "name": "cast4", 
      "attr": {"dtype": "float32"}, 
      "inputs": [[1, 3, 0]]
    }, 
    {
      "op": "_ones", 
      "name": "_ones2", 
      "attr": {
        "dtype": "float32", 
        "shape": "[24]"
      }, 
      "inputs": []
    }, 
    {
      "op": "_mul_scalar", 
      "name": "_mulscalar2", 
      "attr": {"scalar": "0"}, 
      "inputs": [[266, 0, 0]]
    }, 
    {
      "op": "broadcast_not_equal", 
      "name": "broadcast_not_equal2", 
      "inputs": [[265, 0, 0], [267, 0, 0]]
    }, 
    {
      "op": "Cast", 
      "name": "cast5", 
      "attr": {"dtype": "float32"}, 
      "inputs": [[268, 0, 0]]
    }, 
    {
      "op": "expand_dims", 
      "name": "expand_dims8", 
      "attr": {"axis": "1"}, 
      "inputs": [[269, 0, 0]]
    }, 
    {
      "op": "broadcast_to", 
      "name": "broadcast_to11", 
      "attr": {"shape": "(24, 9705)"}, 
      "inputs": [[270, 0, 0]]
    }, 
    {
      "op": "_mul", 
      "name": "_mul17", 
      "inputs": [[264, 0, 0], [271, 0, 0]]
    }, 
    {
      "op": "sum", 
      "name": "sum2", 
      "inputs": [[272, 0, 0]]
    }, 
    {
      "op": "elemwise_add", 
      "name": "_plus13", 
      "inputs": [[216, 0, 0], [273, 0, 0]]
    }, 
    {
      "op": "Embedding", 
      "name": "word_vector", 
      "attr": {
        "input_dim": "9705", 
        "output_dim": "256"
      }, 
      "inputs": [[1, 3, 0], [2, 0, 0]]
    }, 
    {
      "op": "dot", 
      "name": "dot23", 
      "inputs": [[249, 0, 0], [76, 0, 0]]
    }, 
    {
      "op": "broadcast_add", 
      "name": "broadcast_plus15", 
      "inputs": [[276, 0, 0], [78, 0, 0]]
    }, 
    {
      "op": "sigmoid", 
      "name": "beta", 
      "inputs": [[277, 0, 0]]
    }, 
    {
      "op": "broadcast_to", 
      "name": "broadcast_to14", 
      "attr": {"shape": "(24, 512)"}, 
      "inputs": [[278, 0, 0]]
    }, 
    {
      "op": "broadcast_add", 
      "name": "broadcast_plus14", 
      "inputs": [[88, 0, 0], [89, 0, 0]]
    }, 
    {
      "op": "dot", 
      "name": "dot21", 
      "inputs": [[249, 0, 0], [91, 0, 0]]
    }, 
    {
      "op": "expand_dims", 
      "name": "expand_dims9", 
      "attr": {"axis": "1"}, 
      "inputs": [[281, 0, 0]]
    }, 
    {
      "op": "broadcast_to", 
      "name": "broadcast_to12", 
      "attr": {"shape": "(24, 196, 512)"}, 
      "inputs": [[282, 0, 0]]
    }, 
    {
      "op": "elemwise_add", 
      "name": "_plus14", 
      "inputs": [[280, 0, 0], [283, 0, 0]]
    }, 
    {
      "op": "Activation", 
      "name": "activation6", 
      "attr": {"act_type": "relu"}, 
      "inputs": [[284, 0, 0]]
    }, 
    {
      "op": "dot", 
      "name": "dot22", 
      "inputs": [[285, 0, 0], [97, 0, 0]]
    }, 
    {
      "op": "Reshape", 
      "name": "reshape4", 
      "attr": {"shape": "[-1, 196]"}, 
      "inputs": [[286, 0, 0]]
    }, 
    {
      "op": "softmax", 
      "name": "softmax6", 
      "inputs": [[287, 0, 0]]
    }, 
    {
      "op": "expand_dims", 
      "name": "expand_dims10", 
      "attr": {"axis": "2"}, 
      "inputs": [[288, 0, 0]]
    }, 
    {
      "op": "broadcast_to", 
      "name": "broadcast_to13", 
      "attr": {"shape": "(24, 196, 512)"}, 
      "inputs": [[289, 0, 0]]
    }, 
    {
      "op": "_mul", 
      "name": "_mul18", 
      "inputs": [[86, 0, 0], [290, 0, 0]]
    }, 
    {
      "op": "sum", 
      "name": "context", 
      "attr": {"axis": "1"}, 
      "inputs": [[291, 0, 0]]
    }, 
    {
      "op": "_mul", 
      "name": "_mul19", 
      "inputs": [[279, 0, 0], [292, 0, 0]]
    }, 
    {
      "op": "Concat", 
      "name": "concat3", 
      "attr": {
        "dim": "1", 
        "num_args": "2"
      }, 
      "inputs": [[275, 0, 0], [293, 0, 0]]
    }, 
    {
      "op": "FullyConnected", 
      "name": "lstm_t3_i2h", 
      "attr": {"num_hidden": "1024"}, 
      "inputs": [[294, 0, 0], [107, 0, 0], [108, 0, 0]]
    }, 
    {
      "op": "FullyConnected", 
      "name": "lstm_t3_h2h", 
      "attr": {"num_hidden": "1024"}, 
      "inputs": [[249, 0, 0], [110, 0, 0], [111, 0, 0]]
    }, 
    {
      "op": "elemwise_add", 
      "name": "_plus15", 
      "inputs": [[295, 0, 0], [296, 0, 0]]
    }, 
    {
      "op": "SliceChannel", 
      "name": "lstm_t3_slice", 
      "attr": {"num_outputs": "4"}, 
      "inputs": [[297, 0, 0]]
    }, 
    {
      "op": "Activation", 
      "name": "lstm_t3_o", 
      "attr": {"act_type": "sigmoid"}, 
      "inputs": [[298, 3, 0]]
    }, 
    {
      "op": "Activation", 
      "name": "lstm_t3_f", 
      "attr": {"act_type": "sigmoid"}, 
      "inputs": [[298, 1, 0]]
    }, 
    {
      "op": "_mul", 
      "name": "_mul20", 
      "inputs": [[300, 0, 0], [247, 0, 0]]
    }, 
    {
      "op": "Activation", 
      "name": "lstm_t3_i", 
      "attr": {"act_type": "sigmoid"}, 
      "inputs": [[298, 0, 0]]
    }, 
    {
      "op": "Activation", 
      "name": "lstm_t3_c", 
      "attr": {"act_type": "tanh"}, 
      "inputs": [[298, 2, 0]]
    }, 
    {
      "op": "_mul", 
      "name": "_mul21", 
      "inputs": [[302, 0, 0], [303, 0, 0]]
    }, 
    {
      "op": "elemwise_add", 
      "name": "lstm_t3_state", 
      "inputs": [[301, 0, 0], [304, 0, 0]]
    }, 
    {
      "op": "Activation", 
      "name": "activation7", 
      "attr": {"act_type": "tanh"}, 
      "inputs": [[305, 0, 0]]
    }, 
    {
      "op": "_mul", 
      "name": "lstm_t3_out", 
      "inputs": [[299, 0, 0], [306, 0, 0]]
    }, 
    {
      "op": "Dropout", 
      "name": "dropout6", 
      "attr": {"p": "0.5"}, 
      "inputs": [[307, 0, 0]]
    }, 
    {
      "op": "dot", 
      "name": "dot24", 
      "inputs": [[308, 0, 0], [130, 0, 0]]
    }, 
    {
      "op": "broadcast_add", 
      "name": "broadcast_plus16", 
      "inputs": [[309, 0, 0], [132, 0, 0]]
    }, 
    {
      "op": "dot", 
      "name": "dot25", 
      "inputs": [[293, 0, 0], [134, 0, 0]]
    }, 
    {
      "op": "elemwise_add", 
      "name": "_plus16", 
      "inputs": [[310, 0, 0], [311, 0, 0]]
    }, 
    {
      "op": "elemwise_add", 
      "name": "_plus17", 
      "inputs": [[312, 0, 0], [275, 0, 0]]
    }, 
    {
      "op": "tanh", 
      "name": "tanh5", 
      "inputs": [[313, 0, 0]]
    }, 
    {
      "op": "Dropout", 
      "name": "dropout7", 
      "attr": {"p": "0.5"}, 
      "inputs": [[314, 0, 0]]
    }, 
    {
      "op": "dot", 
      "name": "dot26", 
      "inputs": [[315, 0, 0], [140, 0, 0]]
    }, 
    {
      "op": "broadcast_add", 
      "name": "broadcast_plus17", 
      "inputs": [[316, 0, 0], [142, 0, 0]]
    }, 
    {
      "op": "softmax", 
      "name": "softmax7", 
      "inputs": [[317, 0, 0]]
    }, 
    {
      "op": "log", 
      "name": "log3", 
      "inputs": [[318, 0, 0]]
    }, 
    {
      "op": "_mul_scalar", 
      "name": "_mulscalar19", 
      "attr": {"scalar": "-1.0"}, 
      "inputs": [[319, 0, 0]]
    }, 
    {
      "op": "one_hot", 
      "name": "one_hot3", 
      "attr": {"depth": "9705"}, 
      "inputs": [[1, 4, 0]]
    }, 
    {
      "op": "_mul", 
      "name": "_mul22", 
      "inputs": [[320, 0, 0], [321, 0, 0]]
    }, 
    {
      "op": "Cast", 
      "name": "cast6", 
      "attr": {"dtype": "float32"}, 
      "inputs": [[1, 4, 0]]
    }, 
    {
      "op": "_ones", 
      "name": "_ones3", 
      "attr": {
        "dtype": "float32", 
        "shape": "[24]"
      }, 
      "inputs": []
    }, 
    {
      "op": "_mul_scalar", 
      "name": "_mulscalar3", 
      "attr": {"scalar": "0"}, 
      "inputs": [[324, 0, 0]]
    }, 
    {
      "op": "broadcast_not_equal", 
      "name": "broadcast_not_equal3", 
      "inputs": [[323, 0, 0], [325, 0, 0]]
    }, 
    {
      "op": "Cast", 
      "name": "cast7", 
      "attr": {"dtype": "float32"}, 
      "inputs": [[326, 0, 0]]
    }, 
    {
      "op": "expand_dims", 
      "name": "expand_dims11", 
      "attr": {"axis": "1"}, 
      "inputs": [[327, 0, 0]]
    }, 
    {
      "op": "broadcast_to", 
      "name": "broadcast_to15", 
      "attr": {"shape": "(24, 9705)"}, 
      "inputs": [[328, 0, 0]]
    }, 
    {
      "op": "_mul", 
      "name": "_mul23", 
      "inputs": [[322, 0, 0], [329, 0, 0]]
    }, 
    {
      "op": "sum", 
      "name": "sum3", 
      "inputs": [[330, 0, 0]]
    }, 
    {
      "op": "elemwise_add", 
      "name": "_plus18", 
      "inputs": [[274, 0, 0], [331, 0, 0]]
    }, 
    {
      "op": "Embedding", 
      "name": "word_vector", 
      "attr": {
        "input_dim": "9705", 
        "output_dim": "256"
      }, 
      "inputs": [[1, 4, 0], [2, 0, 0]]
    }, 
    {
      "op": "dot", 
      "name": "dot29", 
      "inputs": [[307, 0, 0], [76, 0, 0]]
    }, 
    {
      "op": "broadcast_add", 
      "name": "broadcast_plus19", 
      "inputs": [[334, 0, 0], [78, 0, 0]]
    }, 
    {
      "op": "sigmoid", 
      "name": "beta", 
      "inputs": [[335, 0, 0]]
    }, 
    {
      "op": "broadcast_to", 
      "name": "broadcast_to18", 
      "attr": {"shape": "(24, 512)"}, 
      "inputs": [[336, 0, 0]]
    }, 
    {
      "op": "broadcast_add", 
      "name": "broadcast_plus18", 
      "inputs": [[88, 0, 0], [89, 0, 0]]
    }, 
    {
      "op": "dot", 
      "name": "dot27", 
      "inputs": [[307, 0, 0], [91, 0, 0]]
    }, 
    {
      "op": "expand_dims", 
      "name": "expand_dims12", 
      "attr": {"axis": "1"}, 
      "inputs": [[339, 0, 0]]
    }, 
    {
      "op": "broadcast_to", 
      "name": "broadcast_to16", 
      "attr": {"shape": "(24, 196, 512)"}, 
      "inputs": [[340, 0, 0]]
    }, 
    {
      "op": "elemwise_add", 
      "name": "_plus19", 
      "inputs": [[338, 0, 0], [341, 0, 0]]
    }, 
    {
      "op": "Activation", 
      "name": "activation8", 
      "attr": {"act_type": "relu"}, 
      "inputs": [[342, 0, 0]]
    }, 
    {
      "op": "dot", 
      "name": "dot28", 
      "inputs": [[343, 0, 0], [97, 0, 0]]
    }, 
    {
      "op": "Reshape", 
      "name": "reshape5", 
      "attr": {"shape": "[-1, 196]"}, 
      "inputs": [[344, 0, 0]]
    }, 
    {
      "op": "softmax", 
      "name": "softmax8", 
      "inputs": [[345, 0, 0]]
    }, 
    {
      "op": "expand_dims", 
      "name": "expand_dims13", 
      "attr": {"axis": "2"}, 
      "inputs": [[346, 0, 0]]
    }, 
    {
      "op": "broadcast_to", 
      "name": "broadcast_to17", 
      "attr": {"shape": "(24, 196, 512)"}, 
      "inputs": [[347, 0, 0]]
    }, 
    {
      "op": "_mul", 
      "name": "_mul24", 
      "inputs": [[86, 0, 0], [348, 0, 0]]
    }, 
    {
      "op": "sum", 
      "name": "context", 
      "attr": {"axis": "1"}, 
      "inputs": [[349, 0, 0]]
    }, 
    {
      "op": "_mul", 
      "name": "_mul25", 
      "inputs": [[337, 0, 0], [350, 0, 0]]
    }, 
    {
      "op": "Concat", 
      "name": "concat4", 
      "attr": {
        "dim": "1", 
        "num_args": "2"
      }, 
      "inputs": [[333, 0, 0], [351, 0, 0]]
    }, 
    {
      "op": "FullyConnected", 
      "name": "lstm_t4_i2h", 
      "attr": {"num_hidden": "1024"}, 
      "inputs": [[352, 0, 0], [107, 0, 0], [108, 0, 0]]
    }, 
    {
      "op": "FullyConnected", 
      "name": "lstm_t4_h2h", 
      "attr": {"num_hidden": "1024"}, 
      "inputs": [[307, 0, 0], [110, 0, 0], [111, 0, 0]]
    }, 
    {
      "op": "elemwise_add", 
      "name": "_plus20", 
      "inputs": [[353, 0, 0], [354, 0, 0]]
    }, 
    {
      "op": "SliceChannel", 
      "name": "lstm_t4_slice", 
      "attr": {"num_outputs": "4"}, 
      "inputs": [[355, 0, 0]]
    }, 
    {
      "op": "Activation", 
      "name": "lstm_t4_o", 
      "attr": {"act_type": "sigmoid"}, 
      "inputs": [[356, 3, 0]]
    }, 
    {
      "op": "Activation", 
      "name": "lstm_t4_f", 
      "attr": {"act_type": "sigmoid"}, 
      "inputs": [[356, 1, 0]]
    }, 
    {
      "op": "_mul", 
      "name": "_mul26", 
      "inputs": [[358, 0, 0], [305, 0, 0]]
    }, 
    {
      "op": "Activation", 
      "name": "lstm_t4_i", 
      "attr": {"act_type": "sigmoid"}, 
      "inputs": [[356, 0, 0]]
    }, 
    {
      "op": "Activation", 
      "name": "lstm_t4_c", 
      "attr": {"act_type": "tanh"}, 
      "inputs": [[356, 2, 0]]
    }, 
    {
      "op": "_mul", 
      "name": "_mul27", 
      "inputs": [[360, 0, 0], [361, 0, 0]]
    }, 
    {
      "op": "elemwise_add", 
      "name": "lstm_t4_state", 
      "inputs": [[359, 0, 0], [362, 0, 0]]
    }, 
    {
      "op": "Activation", 
      "name": "activation9", 
      "attr": {"act_type": "tanh"}, 
      "inputs": [[363, 0, 0]]
    }, 
    {
      "op": "_mul", 
      "name": "lstm_t4_out", 
      "inputs": [[357, 0, 0], [364, 0, 0]]
    }, 
    {
      "op": "Dropout", 
      "name": "dropout8", 
      "attr": {"p": "0.5"}, 
      "inputs": [[365, 0, 0]]
    }, 
    {
      "op": "dot", 
      "name": "dot30", 
      "inputs": [[366, 0, 0], [130, 0, 0]]
    }, 
    {
      "op": "broadcast_add", 
      "name": "broadcast_plus20", 
      "inputs": [[367, 0, 0], [132, 0, 0]]
    }, 
    {
      "op": "dot", 
      "name": "dot31", 
      "inputs": [[351, 0, 0], [134, 0, 0]]
    }, 
    {
      "op": "elemwise_add", 
      "name": "_plus21", 
      "inputs": [[368, 0, 0], [369, 0, 0]]
    }, 
    {
      "op": "elemwise_add", 
      "name": "_plus22", 
      "inputs": [[370, 0, 0], [333, 0, 0]]
    }, 
    {
      "op": "tanh", 
      "name": "tanh6", 
      "inputs": [[371, 0, 0]]
    }, 
    {
      "op": "Dropout", 
      "name": "dropout9", 
      "attr": {"p": "0.5"}, 
      "inputs": [[372, 0, 0]]
    }, 
    {
      "op": "dot", 
      "name": "dot32", 
      "inputs": [[373, 0, 0], [140, 0, 0]]
    }, 
    {
      "op": "broadcast_add", 
      "name": "broadcast_plus21", 
      "inputs": [[374, 0, 0], [142, 0, 0]]
    }, 
    {
      "op": "softmax", 
      "name": "softmax9", 
      "inputs": [[375, 0, 0]]
    }, 
    {
      "op": "log", 
      "name": "log4", 
      "inputs": [[376, 0, 0]]
    }, 
    {
      "op": "_mul_scalar", 
      "name": "_mulscalar20", 
      "attr": {"scalar": "-1.0"}, 
      "inputs": [[377, 0, 0]]
    }, 
    {
      "op": "one_hot", 
      "name": "one_hot4", 
      "attr": {"depth": "9705"}, 
      "inputs": [[1, 5, 0]]
    }, 
    {
      "op": "_mul", 
      "name": "_mul28", 
      "inputs": [[378, 0, 0], [379, 0, 0]]
    }, 
    {
      "op": "Cast", 
      "name": "cast8", 
      "attr": {"dtype": "float32"}, 
      "inputs": [[1, 5, 0]]
    }, 
    {
      "op": "_ones", 
      "name": "_ones4", 
      "attr": {
        "dtype": "float32", 
        "shape": "[24]"
      }, 
      "inputs": []
    }, 
    {
      "op": "_mul_scalar", 
      "name": "_mulscalar4", 
      "attr": {"scalar": "0"}, 
      "inputs": [[382, 0, 0]]
    }, 
    {
      "op": "broadcast_not_equal", 
      "name": "broadcast_not_equal4", 
      "inputs": [[381, 0, 0], [383, 0, 0]]
    }, 
    {
      "op": "Cast", 
      "name": "cast9", 
      "attr": {"dtype": "float32"}, 
      "inputs": [[384, 0, 0]]
    }, 
    {
      "op": "expand_dims", 
      "name": "expand_dims14", 
      "attr": {"axis": "1"}, 
      "inputs": [[385, 0, 0]]
    }, 
    {
      "op": "broadcast_to", 
      "name": "broadcast_to19", 
      "attr": {"shape": "(24, 9705)"}, 
      "inputs": [[386, 0, 0]]
    }, 
    {
      "op": "_mul", 
      "name": "_mul29", 
      "inputs": [[380, 0, 0], [387, 0, 0]]
    }, 
    {
      "op": "sum", 
      "name": "sum4", 
      "inputs": [[388, 0, 0]]
    }, 
    {
      "op": "elemwise_add", 
      "name": "_plus23", 
      "inputs": [[332, 0, 0], [389, 0, 0]]
    }, 
    {
      "op": "Embedding", 
      "name": "word_vector", 
      "attr": {
        "input_dim": "9705", 
        "output_dim": "256"
      }, 
      "inputs": [[1, 5, 0], [2, 0, 0]]
    }, 
    {
      "op": "dot", 
      "name": "dot35", 
      "inputs": [[365, 0, 0], [76, 0, 0]]
    }, 
    {
      "op": "broadcast_add", 
      "name": "broadcast_plus23", 
      "inputs": [[392, 0, 0], [78, 0, 0]]
    }, 
    {
      "op": "sigmoid", 
      "name": "beta", 
      "inputs": [[393, 0, 0]]
    }, 
    {
      "op": "broadcast_to", 
      "name": "broadcast_to22", 
      "attr": {"shape": "(24, 512)"}, 
      "inputs": [[394, 0, 0]]
    }, 
    {
      "op": "broadcast_add", 
      "name": "broadcast_plus22", 
      "inputs": [[88, 0, 0], [89, 0, 0]]
    }, 
    {
      "op": "dot", 
      "name": "dot33", 
      "inputs": [[365, 0, 0], [91, 0, 0]]
    }, 
    {
      "op": "expand_dims", 
      "name": "expand_dims15", 
      "attr": {"axis": "1"}, 
      "inputs": [[397, 0, 0]]
    }, 
    {
      "op": "broadcast_to", 
      "name": "broadcast_to20", 
      "attr": {"shape": "(24, 196, 512)"}, 
      "inputs": [[398, 0, 0]]
    }, 
    {
      "op": "elemwise_add", 
      "name": "_plus24", 
      "inputs": [[396, 0, 0], [399, 0, 0]]
    }, 
    {
      "op": "Activation", 
      "name": "activation10", 
      "attr": {"act_type": "relu"}, 
      "inputs": [[400, 0, 0]]
    }, 
    {
      "op": "dot", 
      "name": "dot34", 
      "inputs": [[401, 0, 0], [97, 0, 0]]
    }, 
    {
      "op": "Reshape", 
      "name": "reshape6", 
      "attr": {"shape": "[-1, 196]"}, 
      "inputs": [[402, 0, 0]]
    }, 
    {
      "op": "softmax", 
      "name": "softmax10", 
      "inputs": [[403, 0, 0]]
    }, 
    {
      "op": "expand_dims", 
      "name": "expand_dims16", 
      "attr": {"axis": "2"}, 
      "inputs": [[404, 0, 0]]
    }, 
    {
      "op": "broadcast_to", 
      "name": "broadcast_to21", 
      "attr": {"shape": "(24, 196, 512)"}, 
      "inputs": [[405, 0, 0]]
    }, 
    {
      "op": "_mul", 
      "name": "_mul30", 
      "inputs": [[86, 0, 0], [406, 0, 0]]
    }, 
    {
      "op": "sum", 
      "name": "context", 
      "attr": {"axis": "1"}, 
      "inputs": [[407, 0, 0]]
    }, 
    {
      "op": "_mul", 
      "name": "_mul31", 
      "inputs": [[395, 0, 0], [408, 0, 0]]
    }, 
    {
      "op": "Concat", 
      "name": "concat5", 
      "attr": {
        "dim": "1", 
        "num_args": "2"
      }, 
      "inputs": [[391, 0, 0], [409, 0, 0]]
    }, 
    {
      "op": "FullyConnected", 
      "name": "lstm_t5_i2h", 
      "attr": {"num_hidden": "1024"}, 
      "inputs": [[410, 0, 0], [107, 0, 0], [108, 0, 0]]
    }, 
    {
      "op": "FullyConnected", 
      "name": "lstm_t5_h2h", 
      "attr": {"num_hidden": "1024"}, 
      "inputs": [[365, 0, 0], [110, 0, 0], [111, 0, 0]]
    }, 
    {
      "op": "elemwise_add", 
      "name": "_plus25", 
      "inputs": [[411, 0, 0], [412, 0, 0]]
    }, 
    {
      "op": "SliceChannel", 
      "name": "lstm_t5_slice", 
      "attr": {"num_outputs": "4"}, 
      "inputs": [[413, 0, 0]]
    }, 
    {
      "op": "Activation", 
      "name": "lstm_t5_o", 
      "attr": {"act_type": "sigmoid"}, 
      "inputs": [[414, 3, 0]]
    }, 
    {
      "op": "Activation", 
      "name": "lstm_t5_f", 
      "attr": {"act_type": "sigmoid"}, 
      "inputs": [[414, 1, 0]]
    }, 
    {
      "op": "_mul", 
      "name": "_mul32", 
      "inputs": [[416, 0, 0], [363, 0, 0]]
    }, 
    {
      "op": "Activation", 
      "name": "lstm_t5_i", 
      "attr": {"act_type": "sigmoid"}, 
      "inputs": [[414, 0, 0]]
    }, 
    {
      "op": "Activation", 
      "name": "lstm_t5_c", 
      "attr": {"act_type": "tanh"}, 
      "inputs": [[414, 2, 0]]
    }, 
    {
      "op": "_mul", 
      "name": "_mul33", 
      "inputs": [[418, 0, 0], [419, 0, 0]]
    }, 
    {
      "op": "elemwise_add", 
      "name": "lstm_t5_state", 
      "inputs": [[417, 0, 0], [420, 0, 0]]
    }, 
    {
      "op": "Activation", 
      "name": "activation11", 
      "attr": {"act_type": "tanh"}, 
      "inputs": [[421, 0, 0]]
    }, 
    {
      "op": "_mul", 
      "name": "lstm_t5_out", 
      "inputs": [[415, 0, 0], [422, 0, 0]]
    }, 
    {
      "op": "Dropout", 
      "name": "dropout10", 
      "attr": {"p": "0.5"}, 
      "inputs": [[423, 0, 0]]
    }, 
    {
      "op": "dot", 
      "name": "dot36", 
      "inputs": [[424, 0, 0], [130, 0, 0]]
    }, 
    {
      "op": "broadcast_add", 
      "name": "broadcast_plus24", 
      "inputs": [[425, 0, 0], [132, 0, 0]]
    }, 
    {
      "op": "dot", 
      "name": "dot37", 
      "inputs": [[409, 0, 0], [134, 0, 0]]
    }, 
    {
      "op": "elemwise_add", 
      "name": "_plus26", 
      "inputs": [[426, 0, 0], [427, 0, 0]]
    }, 
    {
      "op": "elemwise_add", 
      "name": "_plus27", 
      "inputs": [[428, 0, 0], [391, 0, 0]]
    }, 
    {
      "op": "tanh", 
      "name": "tanh7", 
      "inputs": [[429, 0, 0]]
    }, 
    {
      "op": "Dropout", 
      "name": "dropout11", 
      "attr": {"p": "0.5"}, 
      "inputs": [[430, 0, 0]]
    }, 
    {
      "op": "dot", 
      "name": "dot38", 
      "inputs": [[431, 0, 0], [140, 0, 0]]
    }, 
    {
      "op": "broadcast_add", 
      "name": "broadcast_plus25", 
      "inputs": [[432, 0, 0], [142, 0, 0]]
    }, 
    {
      "op": "softmax", 
      "name": "softmax11", 
      "inputs": [[433, 0, 0]]
    }, 
    {
      "op": "log", 
      "name": "log5", 
      "inputs": [[434, 0, 0]]
    }, 
    {
      "op": "_mul_scalar", 
      "name": "_mulscalar21", 
      "attr": {"scalar": "-1.0"}, 
      "inputs": [[435, 0, 0]]
    }, 
    {
      "op": "one_hot", 
      "name": "one_hot5", 
      "attr": {"depth": "9705"}, 
      "inputs": [[1, 6, 0]]
    }, 
    {
      "op": "_mul", 
      "name": "_mul34", 
      "inputs": [[436, 0, 0], [437, 0, 0]]
    }, 
    {
      "op": "Cast", 
      "name": "cast10", 
      "attr": {"dtype": "float32"}, 
      "inputs": [[1, 6, 0]]
    }, 
    {
      "op": "_ones", 
      "name": "_ones5", 
      "attr": {
        "dtype": "float32", 
        "shape": "[24]"
      }, 
      "inputs": []
    }, 
    {
      "op": "_mul_scalar", 
      "name": "_mulscalar5", 
      "attr": {"scalar": "0"}, 
      "inputs": [[440, 0, 0]]
    }, 
    {
      "op": "broadcast_not_equal", 
      "name": "broadcast_not_equal5", 
      "inputs": [[439, 0, 0], [441, 0, 0]]
    }, 
    {
      "op": "Cast", 
      "name": "cast11", 
      "attr": {"dtype": "float32"}, 
      "inputs": [[442, 0, 0]]
    }, 
    {
      "op": "expand_dims", 
      "name": "expand_dims17", 
      "attr": {"axis": "1"}, 
      "inputs": [[443, 0, 0]]
    }, 
    {
      "op": "broadcast_to", 
      "name": "broadcast_to23", 
      "attr": {"shape": "(24, 9705)"}, 
      "inputs": [[444, 0, 0]]
    }, 
    {
      "op": "_mul", 
      "name": "_mul35", 
      "inputs": [[438, 0, 0], [445, 0, 0]]
    }, 
    {
      "op": "sum", 
      "name": "sum5", 
      "inputs": [[446, 0, 0]]
    }, 
    {
      "op": "elemwise_add", 
      "name": "_plus28", 
      "inputs": [[390, 0, 0], [447, 0, 0]]
    }, 
    {
      "op": "Embedding", 
      "name": "word_vector", 
      "attr": {
        "input_dim": "9705", 
        "output_dim": "256"
      }, 
      "inputs": [[1, 6, 0], [2, 0, 0]]
    }, 
    {
      "op": "dot", 
      "name": "dot41", 
      "inputs": [[423, 0, 0], [76, 0, 0]]
    }, 
    {
      "op": "broadcast_add", 
      "name": "broadcast_plus27", 
      "inputs": [[450, 0, 0], [78, 0, 0]]
    }, 
    {
      "op": "sigmoid", 
      "name": "beta", 
      "inputs": [[451, 0, 0]]
    }, 
    {
      "op": "broadcast_to", 
      "name": "broadcast_to26", 
      "attr": {"shape": "(24, 512)"}, 
      "inputs": [[452, 0, 0]]
    }, 
    {
      "op": "broadcast_add", 
      "name": "broadcast_plus26", 
      "inputs": [[88, 0, 0], [89, 0, 0]]
    }, 
    {
      "op": "dot", 
      "name": "dot39", 
      "inputs": [[423, 0, 0], [91, 0, 0]]
    }, 
    {
      "op": "expand_dims", 
      "name": "expand_dims18", 
      "attr": {"axis": "1"}, 
      "inputs": [[455, 0, 0]]
    }, 
    {
      "op": "broadcast_to", 
      "name": "broadcast_to24", 
      "attr": {"shape": "(24, 196, 512)"}, 
      "inputs": [[456, 0, 0]]
    }, 
    {
      "op": "elemwise_add", 
      "name": "_plus29", 
      "inputs": [[454, 0, 0], [457, 0, 0]]
    }, 
    {
      "op": "Activation", 
      "name": "activation12", 
      "attr": {"act_type": "relu"}, 
      "inputs": [[458, 0, 0]]
    }, 
    {
      "op": "dot", 
      "name": "dot40", 
      "inputs": [[459, 0, 0], [97, 0, 0]]
    }, 
    {
      "op": "Reshape", 
      "name": "reshape7", 
      "attr": {"shape": "[-1, 196]"}, 
      "inputs": [[460, 0, 0]]
    }, 
    {
      "op": "softmax", 
      "name": "softmax12", 
      "inputs": [[461, 0, 0]]
    }, 
    {
      "op": "expand_dims", 
      "name": "expand_dims19", 
      "attr": {"axis": "2"}, 
      "inputs": [[462, 0, 0]]
    }, 
    {
      "op": "broadcast_to", 
      "name": "broadcast_to25", 
      "attr": {"shape": "(24, 196, 512)"}, 
      "inputs": [[463, 0, 0]]
    }, 
    {
      "op": "_mul", 
      "name": "_mul36", 
      "inputs": [[86, 0, 0], [464, 0, 0]]
    }, 
    {
      "op": "sum", 
      "name": "context", 
      "attr": {"axis": "1"}, 
      "inputs": [[465, 0, 0]]
    }, 
    {
      "op": "_mul", 
      "name": "_mul37", 
      "inputs": [[453, 0, 0], [466, 0, 0]]
    }, 
    {
      "op": "Concat", 
      "name": "concat6", 
      "attr": {
        "dim": "1", 
        "num_args": "2"
      }, 
      "inputs": [[449, 0, 0], [467, 0, 0]]
    }, 
    {
      "op": "FullyConnected", 
      "name": "lstm_t6_i2h", 
      "attr": {"num_hidden": "1024"}, 
      "inputs": [[468, 0, 0], [107, 0, 0], [108, 0, 0]]
    }, 
    {
      "op": "FullyConnected", 
      "name": "lstm_t6_h2h", 
      "attr": {"num_hidden": "1024"}, 
      "inputs": [[423, 0, 0], [110, 0, 0], [111, 0, 0]]
    }, 
    {
      "op": "elemwise_add", 
      "name": "_plus30", 
      "inputs": [[469, 0, 0], [470, 0, 0]]
    }, 
    {
      "op": "SliceChannel", 
      "name": "lstm_t6_slice", 
      "attr": {"num_outputs": "4"}, 
      "inputs": [[471, 0, 0]]
    }, 
    {
      "op": "Activation", 
      "name": "lstm_t6_o", 
      "attr": {"act_type": "sigmoid"}, 
      "inputs": [[472, 3, 0]]
    }, 
    {
      "op": "Activation", 
      "name": "lstm_t6_f", 
      "attr": {"act_type": "sigmoid"}, 
      "inputs": [[472, 1, 0]]
    }, 
    {
      "op": "_mul", 
      "name": "_mul38", 
      "inputs": [[474, 0, 0], [421, 0, 0]]
    }, 
    {
      "op": "Activation", 
      "name": "lstm_t6_i", 
      "attr": {"act_type": "sigmoid"}, 
      "inputs": [[472, 0, 0]]
    }, 
    {
      "op": "Activation", 
      "name": "lstm_t6_c", 
      "attr": {"act_type": "tanh"}, 
      "inputs": [[472, 2, 0]]
    }, 
    {
      "op": "_mul", 
      "name": "_mul39", 
      "inputs": [[476, 0, 0], [477, 0, 0]]
    }, 
    {
      "op": "elemwise_add", 
      "name": "lstm_t6_state", 
      "inputs": [[475, 0, 0], [478, 0, 0]]
    }, 
    {
      "op": "Activation", 
      "name": "activation13", 
      "attr": {"act_type": "tanh"}, 
      "inputs": [[479, 0, 0]]
    }, 
    {
      "op": "_mul", 
      "name": "lstm_t6_out", 
      "inputs": [[473, 0, 0], [480, 0, 0]]
    }, 
    {
      "op": "Dropout", 
      "name": "dropout12", 
      "attr": {"p": "0.5"}, 
      "inputs": [[481, 0, 0]]
    }, 
    {
      "op": "dot", 
      "name": "dot42", 
      "inputs": [[482, 0, 0], [130, 0, 0]]
    }, 
    {
      "op": "broadcast_add", 
      "name": "broadcast_plus28", 
      "inputs": [[483, 0, 0], [132, 0, 0]]
    }, 
    {
      "op": "dot", 
      "name": "dot43", 
      "inputs": [[467, 0, 0], [134, 0, 0]]
    }, 
    {
      "op": "elemwise_add", 
      "name": "_plus31", 
      "inputs": [[484, 0, 0], [485, 0, 0]]
    }, 
    {
      "op": "elemwise_add", 
      "name": "_plus32", 
      "inputs": [[486, 0, 0], [449, 0, 0]]
    }, 
    {
      "op": "tanh", 
      "name": "tanh8", 
      "inputs": [[487, 0, 0]]
    }, 
    {
      "op": "Dropout", 
      "name": "dropout13", 
      "attr": {"p": "0.5"}, 
      "inputs": [[488, 0, 0]]
    }, 
    {
      "op": "dot", 
      "name": "dot44", 
      "inputs": [[489, 0, 0], [140, 0, 0]]
    }, 
    {
      "op": "broadcast_add", 
      "name": "broadcast_plus29", 
      "inputs": [[490, 0, 0], [142, 0, 0]]
    }, 
    {
      "op": "softmax", 
      "name": "softmax13", 
      "inputs": [[491, 0, 0]]
    }, 
    {
      "op": "log", 
      "name": "log6", 
      "inputs": [[492, 0, 0]]
    }, 
    {
      "op": "_mul_scalar", 
      "name": "_mulscalar22", 
      "attr": {"scalar": "-1.0"}, 
      "inputs": [[493, 0, 0]]
    }, 
    {
      "op": "one_hot", 
      "name": "one_hot6", 
      "attr": {"depth": "9705"}, 
      "inputs": [[1, 7, 0]]
    }, 
    {
      "op": "_mul", 
      "name": "_mul40", 
      "inputs": [[494, 0, 0], [495, 0, 0]]
    }, 
    {
      "op": "Cast", 
      "name": "cast12", 
      "attr": {"dtype": "float32"}, 
      "inputs": [[1, 7, 0]]
    }, 
    {
      "op": "_ones", 
      "name": "_ones6", 
      "attr": {
        "dtype": "float32", 
        "shape": "[24]"
      }, 
      "inputs": []
    }, 
    {
      "op": "_mul_scalar", 
      "name": "_mulscalar6", 
      "attr": {"scalar": "0"}, 
      "inputs": [[498, 0, 0]]
    }, 
    {
      "op": "broadcast_not_equal", 
      "name": "broadcast_not_equal6", 
      "inputs": [[497, 0, 0], [499, 0, 0]]
    }, 
    {
      "op": "Cast", 
      "name": "cast13", 
      "attr": {"dtype": "float32"}, 
      "inputs": [[500, 0, 0]]
    }, 
    {
      "op": "expand_dims", 
      "name": "expand_dims20", 
      "attr": {"axis": "1"}, 
      "inputs": [[501, 0, 0]]
    }, 
    {
      "op": "broadcast_to", 
      "name": "broadcast_to27", 
      "attr": {"shape": "(24, 9705)"}, 
      "inputs": [[502, 0, 0]]
    }, 
    {
      "op": "_mul", 
      "name": "_mul41", 
      "inputs": [[496, 0, 0], [503, 0, 0]]
    }, 
    {
      "op": "sum", 
      "name": "sum6", 
      "inputs": [[504, 0, 0]]
    }, 
    {
      "op": "elemwise_add", 
      "name": "_plus33", 
      "inputs": [[448, 0, 0], [505, 0, 0]]
    }, 
    {
      "op": "Embedding", 
      "name": "word_vector", 
      "attr": {
        "input_dim": "9705", 
        "output_dim": "256"
      }, 
      "inputs": [[1, 7, 0], [2, 0, 0]]
    }, 
    {
      "op": "dot", 
      "name": "dot47", 
      "inputs": [[481, 0, 0], [76, 0, 0]]
    }, 
    {
      "op": "broadcast_add", 
      "name": "broadcast_plus31", 
      "inputs": [[508, 0, 0], [78, 0, 0]]
    }, 
    {
      "op": "sigmoid", 
      "name": "beta", 
      "inputs": [[509, 0, 0]]
    }, 
    {
      "op": "broadcast_to", 
      "name": "broadcast_to30", 
      "attr": {"shape": "(24, 512)"}, 
      "inputs": [[510, 0, 0]]
    }, 
    {
      "op": "broadcast_add", 
      "name": "broadcast_plus30", 
      "inputs": [[88, 0, 0], [89, 0, 0]]
    }, 
    {
      "op": "dot", 
      "name": "dot45", 
      "inputs": [[481, 0, 0], [91, 0, 0]]
    }, 
    {
      "op": "expand_dims", 
      "name": "expand_dims21", 
      "attr": {"axis": "1"}, 
      "inputs": [[513, 0, 0]]
    }, 
    {
      "op": "broadcast_to", 
      "name": "broadcast_to28", 
      "attr": {"shape": "(24, 196, 512)"}, 
      "inputs": [[514, 0, 0]]
    }, 
    {
      "op": "elemwise_add", 
      "name": "_plus34", 
      "inputs": [[512, 0, 0], [515, 0, 0]]
    }, 
    {
      "op": "Activation", 
      "name": "activation14", 
      "attr": {"act_type": "relu"}, 
      "inputs": [[516, 0, 0]]
    }, 
    {
      "op": "dot", 
      "name": "dot46", 
      "inputs": [[517, 0, 0], [97, 0, 0]]
    }, 
    {
      "op": "Reshape", 
      "name": "reshape8", 
      "attr": {"shape": "[-1, 196]"}, 
      "inputs": [[518, 0, 0]]
    }, 
    {
      "op": "softmax", 
      "name": "softmax14", 
      "inputs": [[519, 0, 0]]
    }, 
    {
      "op": "expand_dims", 
      "name": "expand_dims22", 
      "attr": {"axis": "2"}, 
      "inputs": [[520, 0, 0]]
    }, 
    {
      "op": "broadcast_to", 
      "name": "broadcast_to29", 
      "attr": {"shape": "(24, 196, 512)"}, 
      "inputs": [[521, 0, 0]]
    }, 
    {
      "op": "_mul", 
      "name": "_mul42", 
      "inputs": [[86, 0, 0], [522, 0, 0]]
    }, 
    {
      "op": "sum", 
      "name": "context", 
      "attr": {"axis": "1"}, 
      "inputs": [[523, 0, 0]]
    }, 
    {
      "op": "_mul", 
      "name": "_mul43", 
      "inputs": [[511, 0, 0], [524, 0, 0]]
    }, 
    {
      "op": "Concat", 
      "name": "concat7", 
      "attr": {
        "dim": "1", 
        "num_args": "2"
      }, 
      "inputs": [[507, 0, 0], [525, 0, 0]]
    }, 
    {
      "op": "FullyConnected", 
      "name": "lstm_t7_i2h", 
      "attr": {"num_hidden": "1024"}, 
      "inputs": [[526, 0, 0], [107, 0, 0], [108, 0, 0]]
    }, 
    {
      "op": "FullyConnected", 
      "name": "lstm_t7_h2h", 
      "attr": {"num_hidden": "1024"}, 
      "inputs": [[481, 0, 0], [110, 0, 0], [111, 0, 0]]
    }, 
    {
      "op": "elemwise_add", 
      "name": "_plus35", 
      "inputs": [[527, 0, 0], [528, 0, 0]]
    }, 
    {
      "op": "SliceChannel", 
      "name": "lstm_t7_slice", 
      "attr": {"num_outputs": "4"}, 
      "inputs": [[529, 0, 0]]
    }, 
    {
      "op": "Activation", 
      "name": "lstm_t7_o", 
      "attr": {"act_type": "sigmoid"}, 
      "inputs": [[530, 3, 0]]
    }, 
    {
      "op": "Activation", 
      "name": "lstm_t7_f", 
      "attr": {"act_type": "sigmoid"}, 
      "inputs": [[530, 1, 0]]
    }, 
    {
      "op": "_mul", 
      "name": "_mul44", 
      "inputs": [[532, 0, 0], [479, 0, 0]]
    }, 
    {
      "op": "Activation", 
      "name": "lstm_t7_i", 
      "attr": {"act_type": "sigmoid"}, 
      "inputs": [[530, 0, 0]]
    }, 
    {
      "op": "Activation", 
      "name": "lstm_t7_c", 
      "attr": {"act_type": "tanh"}, 
      "inputs": [[530, 2, 0]]
    }, 
    {
      "op": "_mul", 
      "name": "_mul45", 
      "inputs": [[534, 0, 0], [535, 0, 0]]
    }, 
    {
      "op": "elemwise_add", 
      "name": "lstm_t7_state", 
      "inputs": [[533, 0, 0], [536, 0, 0]]
    }, 
    {
      "op": "Activation", 
      "name": "activation15", 
      "attr": {"act_type": "tanh"}, 
      "inputs": [[537, 0, 0]]
    }, 
    {
      "op": "_mul", 
      "name": "lstm_t7_out", 
      "inputs": [[531, 0, 0], [538, 0, 0]]
    }, 
    {
      "op": "Dropout", 
      "name": "dropout14", 
      "attr": {"p": "0.5"}, 
      "inputs": [[539, 0, 0]]
    }, 
    {
      "op": "dot", 
      "name": "dot48", 
      "inputs": [[540, 0, 0], [130, 0, 0]]
    }, 
    {
      "op": "broadcast_add", 
      "name": "broadcast_plus32", 
      "inputs": [[541, 0, 0], [132, 0, 0]]
    }, 
    {
      "op": "dot", 
      "name": "dot49", 
      "inputs": [[525, 0, 0], [134, 0, 0]]
    }, 
    {
      "op": "elemwise_add", 
      "name": "_plus36", 
      "inputs": [[542, 0, 0], [543, 0, 0]]
    }, 
    {
      "op": "elemwise_add", 
      "name": "_plus37", 
      "inputs": [[544, 0, 0], [507, 0, 0]]
    }, 
    {
      "op": "tanh", 
      "name": "tanh9", 
      "inputs": [[545, 0, 0]]
    }, 
    {
      "op": "Dropout", 
      "name": "dropout15", 
      "attr": {"p": "0.5"}, 
      "inputs": [[546, 0, 0]]
    }, 
    {
      "op": "dot", 
      "name": "dot50", 
      "inputs": [[547, 0, 0], [140, 0, 0]]
    }, 
    {
      "op": "broadcast_add", 
      "name": "broadcast_plus33", 
      "inputs": [[548, 0, 0], [142, 0, 0]]
    }, 
    {
      "op": "softmax", 
      "name": "softmax15", 
      "inputs": [[549, 0, 0]]
    }, 
    {
      "op": "log", 
      "name": "log7", 
      "inputs": [[550, 0, 0]]
    }, 
    {
      "op": "_mul_scalar", 
      "name": "_mulscalar23", 
      "attr": {"scalar": "-1.0"}, 
      "inputs": [[551, 0, 0]]
    }, 
    {
      "op": "one_hot", 
      "name": "one_hot7", 
      "attr": {"depth": "9705"}, 
      "inputs": [[1, 8, 0]]
    }, 
    {
      "op": "_mul", 
      "name": "_mul46", 
      "inputs": [[552, 0, 0], [553, 0, 0]]
    }, 
    {
      "op": "Cast", 
      "name": "cast14", 
      "attr": {"dtype": "float32"}, 
      "inputs": [[1, 8, 0]]
    }, 
    {
      "op": "_ones", 
      "name": "_ones7", 
      "attr": {
        "dtype": "float32", 
        "shape": "[24]"
      }, 
      "inputs": []
    }, 
    {
      "op": "_mul_scalar", 
      "name": "_mulscalar7", 
      "attr": {"scalar": "0"}, 
      "inputs": [[556, 0, 0]]
    }, 
    {
      "op": "broadcast_not_equal", 
      "name": "broadcast_not_equal7", 
      "inputs": [[555, 0, 0], [557, 0, 0]]
    }, 
    {
      "op": "Cast", 
      "name": "cast15", 
      "attr": {"dtype": "float32"}, 
      "inputs": [[558, 0, 0]]
    }, 
    {
      "op": "expand_dims", 
      "name": "expand_dims23", 
      "attr": {"axis": "1"}, 
      "inputs": [[559, 0, 0]]
    }, 
    {
      "op": "broadcast_to", 
      "name": "broadcast_to31", 
      "attr": {"shape": "(24, 9705)"}, 
      "inputs": [[560, 0, 0]]
    }, 
    {
      "op": "_mul", 
      "name": "_mul47", 
      "inputs": [[554, 0, 0], [561, 0, 0]]
    }, 
    {
      "op": "sum", 
      "name": "sum7", 
      "inputs": [[562, 0, 0]]
    }, 
    {
      "op": "elemwise_add", 
      "name": "_plus38", 
      "inputs": [[506, 0, 0], [563, 0, 0]]
    }, 
    {
      "op": "Embedding", 
      "name": "word_vector", 
      "attr": {
        "input_dim": "9705", 
        "output_dim": "256"
      }, 
      "inputs": [[1, 8, 0], [2, 0, 0]]
    }, 
    {
      "op": "dot", 
      "name": "dot53", 
      "inputs": [[539, 0, 0], [76, 0, 0]]
    }, 
    {
      "op": "broadcast_add", 
      "name": "broadcast_plus35", 
      "inputs": [[566, 0, 0], [78, 0, 0]]
    }, 
    {
      "op": "sigmoid", 
      "name": "beta", 
      "inputs": [[567, 0, 0]]
    }, 
    {
      "op": "broadcast_to", 
      "name": "broadcast_to34", 
      "attr": {"shape": "(24, 512)"}, 
      "inputs": [[568, 0, 0]]
    }, 
    {
      "op": "broadcast_add", 
      "name": "broadcast_plus34", 
      "inputs": [[88, 0, 0], [89, 0, 0]]
    }, 
    {
      "op": "dot", 
      "name": "dot51", 
      "inputs": [[539, 0, 0], [91, 0, 0]]
    }, 
    {
      "op": "expand_dims", 
      "name": "expand_dims24", 
      "attr": {"axis": "1"}, 
      "inputs": [[571, 0, 0]]
    }, 
    {
      "op": "broadcast_to", 
      "name": "broadcast_to32", 
      "attr": {"shape": "(24, 196, 512)"}, 
      "inputs": [[572, 0, 0]]
    }, 
    {
      "op": "elemwise_add", 
      "name": "_plus39", 
      "inputs": [[570, 0, 0], [573, 0, 0]]
    }, 
    {
      "op": "Activation", 
      "name": "activation16", 
      "attr": {"act_type": "relu"}, 
      "inputs": [[574, 0, 0]]
    }, 
    {
      "op": "dot", 
      "name": "dot52", 
      "inputs": [[575, 0, 0], [97, 0, 0]]
    }, 
    {
      "op": "Reshape", 
      "name": "reshape9", 
      "attr": {"shape": "[-1, 196]"}, 
      "inputs": [[576, 0, 0]]
    }, 
    {
      "op": "softmax", 
      "name": "softmax16", 
      "inputs": [[577, 0, 0]]
    }, 
    {
      "op": "expand_dims", 
      "name": "expand_dims25", 
      "attr": {"axis": "2"}, 
      "inputs": [[578, 0, 0]]
    }, 
    {
      "op": "broadcast_to", 
      "name": "broadcast_to33", 
      "attr": {"shape": "(24, 196, 512)"}, 
      "inputs": [[579, 0, 0]]
    }, 
    {
      "op": "_mul", 
      "name": "_mul48", 
      "inputs": [[86, 0, 0], [580, 0, 0]]
    }, 
    {
      "op": "sum", 
      "name": "context", 
      "attr": {"axis": "1"}, 
      "inputs": [[581, 0, 0]]
    }, 
    {
      "op": "_mul", 
      "name": "_mul49", 
      "inputs": [[569, 0, 0], [582, 0, 0]]
    }, 
    {
      "op": "Concat", 
      "name": "concat8", 
      "attr": {
        "dim": "1", 
        "num_args": "2"
      }, 
      "inputs": [[565, 0, 0], [583, 0, 0]]
    }, 
    {
      "op": "FullyConnected", 
      "name": "lstm_t8_i2h", 
      "attr": {"num_hidden": "1024"}, 
      "inputs": [[584, 0, 0], [107, 0, 0], [108, 0, 0]]
    }, 
    {
      "op": "FullyConnected", 
      "name": "lstm_t8_h2h", 
      "attr": {"num_hidden": "1024"}, 
      "inputs": [[539, 0, 0], [110, 0, 0], [111, 0, 0]]
    }, 
    {
      "op": "elemwise_add", 
      "name": "_plus40", 
      "inputs": [[585, 0, 0], [586, 0, 0]]
    }, 
    {
      "op": "SliceChannel", 
      "name": "lstm_t8_slice", 
      "attr": {"num_outputs": "4"}, 
      "inputs": [[587, 0, 0]]
    }, 
    {
      "op": "Activation", 
      "name": "lstm_t8_o", 
      "attr": {"act_type": "sigmoid"}, 
      "inputs": [[588, 3, 0]]
    }, 
    {
      "op": "Activation", 
      "name": "lstm_t8_f", 
      "attr": {"act_type": "sigmoid"}, 
      "inputs": [[588, 1, 0]]
    }, 
    {
      "op": "_mul", 
      "name": "_mul50", 
      "inputs": [[590, 0, 0], [537, 0, 0]]
    }, 
    {
      "op": "Activation", 
      "name": "lstm_t8_i", 
      "attr": {"act_type": "sigmoid"}, 
      "inputs": [[588, 0, 0]]
    }, 
    {
      "op": "Activation", 
      "name": "lstm_t8_c", 
      "attr": {"act_type": "tanh"}, 
      "inputs": [[588, 2, 0]]
    }, 
    {
      "op": "_mul", 
      "name": "_mul51", 
      "inputs": [[592, 0, 0], [593, 0, 0]]
    }, 
    {
      "op": "elemwise_add", 
      "name": "lstm_t8_state", 
      "inputs": [[591, 0, 0], [594, 0, 0]]
    }, 
    {
      "op": "Activation", 
      "name": "activation17", 
      "attr": {"act_type": "tanh"}, 
      "inputs": [[595, 0, 0]]
    }, 
    {
      "op": "_mul", 
      "name": "lstm_t8_out", 
      "inputs": [[589, 0, 0], [596, 0, 0]]
    }, 
    {
      "op": "Dropout", 
      "name": "dropout16", 
      "attr": {"p": "0.5"}, 
      "inputs": [[597, 0, 0]]
    }, 
    {
      "op": "dot", 
      "name": "dot54", 
      "inputs": [[598, 0, 0], [130, 0, 0]]
    }, 
    {
      "op": "broadcast_add", 
      "name": "broadcast_plus36", 
      "inputs": [[599, 0, 0], [132, 0, 0]]
    }, 
    {
      "op": "dot", 
      "name": "dot55", 
      "inputs": [[583, 0, 0], [134, 0, 0]]
    }, 
    {
      "op": "elemwise_add", 
      "name": "_plus41", 
      "inputs": [[600, 0, 0], [601, 0, 0]]
    }, 
    {
      "op": "elemwise_add", 
      "name": "_plus42", 
      "inputs": [[602, 0, 0], [565, 0, 0]]
    }, 
    {
      "op": "tanh", 
      "name": "tanh10", 
      "inputs": [[603, 0, 0]]
    }, 
    {
      "op": "Dropout", 
      "name": "dropout17", 
      "attr": {"p": "0.5"}, 
      "inputs": [[604, 0, 0]]
    }, 
    {
      "op": "dot", 
      "name": "dot56", 
      "inputs": [[605, 0, 0], [140, 0, 0]]
    }, 
    {
      "op": "broadcast_add", 
      "name": "broadcast_plus37", 
      "inputs": [[606, 0, 0], [142, 0, 0]]
    }, 
    {
      "op": "softmax", 
      "name": "softmax17", 
      "inputs": [[607, 0, 0]]
    }, 
    {
      "op": "log", 
      "name": "log8", 
      "inputs": [[608, 0, 0]]
    }, 
    {
      "op": "_mul_scalar", 
      "name": "_mulscalar24", 
      "attr": {"scalar": "-1.0"}, 
      "inputs": [[609, 0, 0]]
    }, 
    {
      "op": "one_hot", 
      "name": "one_hot8", 
      "attr": {"depth": "9705"}, 
      "inputs": [[1, 9, 0]]
    }, 
    {
      "op": "_mul", 
      "name": "_mul52", 
      "inputs": [[610, 0, 0], [611, 0, 0]]
    }, 
    {
      "op": "Cast", 
      "name": "cast16", 
      "attr": {"dtype": "float32"}, 
      "inputs": [[1, 9, 0]]
    }, 
    {
      "op": "_ones", 
      "name": "_ones8", 
      "attr": {
        "dtype": "float32", 
        "shape": "[24]"
      }, 
      "inputs": []
    }, 
    {
      "op": "_mul_scalar", 
      "name": "_mulscalar8", 
      "attr": {"scalar": "0"}, 
      "inputs": [[614, 0, 0]]
    }, 
    {
      "op": "broadcast_not_equal", 
      "name": "broadcast_not_equal8", 
      "inputs": [[613, 0, 0], [615, 0, 0]]
    }, 
    {
      "op": "Cast", 
      "name": "cast17", 
      "attr": {"dtype": "float32"}, 
      "inputs": [[616, 0, 0]]
    }, 
    {
      "op": "expand_dims", 
      "name": "expand_dims26", 
      "attr": {"axis": "1"}, 
      "inputs": [[617, 0, 0]]
    }, 
    {
      "op": "broadcast_to", 
      "name": "broadcast_to35", 
      "attr": {"shape": "(24, 9705)"}, 
      "inputs": [[618, 0, 0]]
    }, 
    {
      "op": "_mul", 
      "name": "_mul53", 
      "inputs": [[612, 0, 0], [619, 0, 0]]
    }, 
    {
      "op": "sum", 
      "name": "sum8", 
      "inputs": [[620, 0, 0]]
    }, 
    {
      "op": "elemwise_add", 
      "name": "_plus43", 
      "inputs": [[564, 0, 0], [621, 0, 0]]
    }, 
    {
      "op": "Embedding", 
      "name": "word_vector", 
      "attr": {
        "input_dim": "9705", 
        "output_dim": "256"
      }, 
      "inputs": [[1, 9, 0], [2, 0, 0]]
    }, 
    {
      "op": "dot", 
      "name": "dot59", 
      "inputs": [[597, 0, 0], [76, 0, 0]]
    }, 
    {
      "op": "broadcast_add", 
      "name": "broadcast_plus39", 
      "inputs": [[624, 0, 0], [78, 0, 0]]
    }, 
    {
      "op": "sigmoid", 
      "name": "beta", 
      "inputs": [[625, 0, 0]]
    }, 
    {
      "op": "broadcast_to", 
      "name": "broadcast_to38", 
      "attr": {"shape": "(24, 512)"}, 
      "inputs": [[626, 0, 0]]
    }, 
    {
      "op": "broadcast_add", 
      "name": "broadcast_plus38", 
      "inputs": [[88, 0, 0], [89, 0, 0]]
    }, 
    {
      "op": "dot", 
      "name": "dot57", 
      "inputs": [[597, 0, 0], [91, 0, 0]]
    }, 
    {
      "op": "expand_dims", 
      "name": "expand_dims27", 
      "attr": {"axis": "1"}, 
      "inputs": [[629, 0, 0]]
    }, 
    {
      "op": "broadcast_to", 
      "name": "broadcast_to36", 
      "attr": {"shape": "(24, 196, 512)"}, 
      "inputs": [[630, 0, 0]]
    }, 
    {
      "op": "elemwise_add", 
      "name": "_plus44", 
      "inputs": [[628, 0, 0], [631, 0, 0]]
    }, 
    {
      "op": "Activation", 
      "name": "activation18", 
      "attr": {"act_type": "relu"}, 
      "inputs": [[632, 0, 0]]
    }, 
    {
      "op": "dot", 
      "name": "dot58", 
      "inputs": [[633, 0, 0], [97, 0, 0]]
    }, 
    {
      "op": "Reshape", 
      "name": "reshape10", 
      "attr": {"shape": "[-1, 196]"}, 
      "inputs": [[634, 0, 0]]
    }, 
    {
      "op": "softmax", 
      "name": "softmax18", 
      "inputs": [[635, 0, 0]]
    }, 
    {
      "op": "expand_dims", 
      "name": "expand_dims28", 
      "attr": {"axis": "2"}, 
      "inputs": [[636, 0, 0]]
    }, 
    {
      "op": "broadcast_to", 
      "name": "broadcast_to37", 
      "attr": {"shape": "(24, 196, 512)"}, 
      "inputs": [[637, 0, 0]]
    }, 
    {
      "op": "_mul", 
      "name": "_mul54", 
      "inputs": [[86, 0, 0], [638, 0, 0]]
    }, 
    {
      "op": "sum", 
      "name": "context", 
      "attr": {"axis": "1"}, 
      "inputs": [[639, 0, 0]]
    }, 
    {
      "op": "_mul", 
      "name": "_mul55", 
      "inputs": [[627, 0, 0], [640, 0, 0]]
    }, 
    {
      "op": "Concat", 
      "name": "concat9", 
      "attr": {
        "dim": "1", 
        "num_args": "2"
      }, 
      "inputs": [[623, 0, 0], [641, 0, 0]]
    }, 
    {
      "op": "FullyConnected", 
      "name": "lstm_t9_i2h", 
      "attr": {"num_hidden": "1024"}, 
      "inputs": [[642, 0, 0], [107, 0, 0], [108, 0, 0]]
    }, 
    {
      "op": "FullyConnected", 
      "name": "lstm_t9_h2h", 
      "attr": {"num_hidden": "1024"}, 
      "inputs": [[597, 0, 0], [110, 0, 0], [111, 0, 0]]
    }, 
    {
      "op": "elemwise_add", 
      "name": "_plus45", 
      "inputs": [[643, 0, 0], [644, 0, 0]]
    }, 
    {
      "op": "SliceChannel", 
      "name": "lstm_t9_slice", 
      "attr": {"num_outputs": "4"}, 
      "inputs": [[645, 0, 0]]
    }, 
    {
      "op": "Activation", 
      "name": "lstm_t9_o", 
      "attr": {"act_type": "sigmoid"}, 
      "inputs": [[646, 3, 0]]
    }, 
    {
      "op": "Activation", 
      "name": "lstm_t9_f", 
      "attr": {"act_type": "sigmoid"}, 
      "inputs": [[646, 1, 0]]
    }, 
    {
      "op": "_mul", 
      "name": "_mul56", 
      "inputs": [[648, 0, 0], [595, 0, 0]]
    }, 
    {
      "op": "Activation", 
      "name": "lstm_t9_i", 
      "attr": {"act_type": "sigmoid"}, 
      "inputs": [[646, 0, 0]]
    }, 
    {
      "op": "Activation", 
      "name": "lstm_t9_c", 
      "attr": {"act_type": "tanh"}, 
      "inputs": [[646, 2, 0]]
    }, 
    {
      "op": "_mul", 
      "name": "_mul57", 
      "inputs": [[650, 0, 0], [651, 0, 0]]
    }, 
    {
      "op": "elemwise_add", 
      "name": "lstm_t9_state", 
      "inputs": [[649, 0, 0], [652, 0, 0]]
    }, 
    {
      "op": "Activation", 
      "name": "activation19", 
      "attr": {"act_type": "tanh"}, 
      "inputs": [[653, 0, 0]]
    }, 
    {
      "op": "_mul", 
      "name": "lstm_t9_out", 
      "inputs": [[647, 0, 0], [654, 0, 0]]
    }, 
    {
      "op": "Dropout", 
      "name": "dropout18", 
      "attr": {"p": "0.5"}, 
      "inputs": [[655, 0, 0]]
    }, 
    {
      "op": "dot", 
      "name": "dot60", 
      "inputs": [[656, 0, 0], [130, 0, 0]]
    }, 
    {
      "op": "broadcast_add", 
      "name": "broadcast_plus40", 
      "inputs": [[657, 0, 0], [132, 0, 0]]
    }, 
    {
      "op": "dot", 
      "name": "dot61", 
      "inputs": [[641, 0, 0], [134, 0, 0]]
    }, 
    {
      "op": "elemwise_add", 
      "name": "_plus46", 
      "inputs": [[658, 0, 0], [659, 0, 0]]
    }, 
    {
      "op": "elemwise_add", 
      "name": "_plus47", 
      "inputs": [[660, 0, 0], [623, 0, 0]]
    }, 
    {
      "op": "tanh", 
      "name": "tanh11", 
      "inputs": [[661, 0, 0]]
    }, 
    {
      "op": "Dropout", 
      "name": "dropout19", 
      "attr": {"p": "0.5"}, 
      "inputs": [[662, 0, 0]]
    }, 
    {
      "op": "dot", 
      "name": "dot62", 
      "inputs": [[663, 0, 0], [140, 0, 0]]
    }, 
    {
      "op": "broadcast_add", 
      "name": "broadcast_plus41", 
      "inputs": [[664, 0, 0], [142, 0, 0]]
    }, 
    {
      "op": "softmax", 
      "name": "softmax19", 
      "inputs": [[665, 0, 0]]
    }, 
    {
      "op": "log", 
      "name": "log9", 
      "inputs": [[666, 0, 0]]
    }, 
    {
      "op": "_mul_scalar", 
      "name": "_mulscalar25", 
      "attr": {"scalar": "-1.0"}, 
      "inputs": [[667, 0, 0]]
    }, 
    {
      "op": "one_hot", 
      "name": "one_hot9", 
      "attr": {"depth": "9705"}, 
      "inputs": [[1, 10, 0]]
    }, 
    {
      "op": "_mul", 
      "name": "_mul58", 
      "inputs": [[668, 0, 0], [669, 0, 0]]
    }, 
    {
      "op": "Cast", 
      "name": "cast18", 
      "attr": {"dtype": "float32"}, 
      "inputs": [[1, 10, 0]]
    }, 
    {
      "op": "_ones", 
      "name": "_ones9", 
      "attr": {
        "dtype": "float32", 
        "shape": "[24]"
      }, 
      "inputs": []
    }, 
    {
      "op": "_mul_scalar", 
      "name": "_mulscalar9", 
      "attr": {"scalar": "0"}, 
      "inputs": [[672, 0, 0]]
    }, 
    {
      "op": "broadcast_not_equal", 
      "name": "broadcast_not_equal9", 
      "inputs": [[671, 0, 0], [673, 0, 0]]
    }, 
    {
      "op": "Cast", 
      "name": "cast19", 
      "attr": {"dtype": "float32"}, 
      "inputs": [[674, 0, 0]]
    }, 
    {
      "op": "expand_dims", 
      "name": "expand_dims29", 
      "attr": {"axis": "1"}, 
      "inputs": [[675, 0, 0]]
    }, 
    {
      "op": "broadcast_to", 
      "name": "broadcast_to39", 
      "attr": {"shape": "(24, 9705)"}, 
      "inputs": [[676, 0, 0]]
    }, 
    {
      "op": "_mul", 
      "name": "_mul59", 
      "inputs": [[670, 0, 0], [677, 0, 0]]
    }, 
    {
      "op": "sum", 
      "name": "sum9", 
      "inputs": [[678, 0, 0]]
    }, 
    {
      "op": "elemwise_add", 
      "name": "_plus48", 
      "inputs": [[622, 0, 0], [679, 0, 0]]
    }, 
    {
      "op": "Embedding", 
      "name": "word_vector", 
      "attr": {
        "input_dim": "9705", 
        "output_dim": "256"
      }, 
      "inputs": [[1, 10, 0], [2, 0, 0]]
    }, 
    {
      "op": "dot", 
      "name": "dot65", 
      "inputs": [[655, 0, 0], [76, 0, 0]]
    }, 
    {
      "op": "broadcast_add", 
      "name": "broadcast_plus43", 
      "inputs": [[682, 0, 0], [78, 0, 0]]
    }, 
    {
      "op": "sigmoid", 
      "name": "beta", 
      "inputs": [[683, 0, 0]]
    }, 
    {
      "op": "broadcast_to", 
      "name": "broadcast_to42", 
      "attr": {"shape": "(24, 512)"}, 
      "inputs": [[684, 0, 0]]
    }, 
    {
      "op": "broadcast_add", 
      "name": "broadcast_plus42", 
      "inputs": [[88, 0, 0], [89, 0, 0]]
    }, 
    {
      "op": "dot", 
      "name": "dot63", 
      "inputs": [[655, 0, 0], [91, 0, 0]]
    }, 
    {
      "op": "expand_dims", 
      "name": "expand_dims30", 
      "attr": {"axis": "1"}, 
      "inputs": [[687, 0, 0]]
    }, 
    {
      "op": "broadcast_to", 
      "name": "broadcast_to40", 
      "attr": {"shape": "(24, 196, 512)"}, 
      "inputs": [[688, 0, 0]]
    }, 
    {
      "op": "elemwise_add", 
      "name": "_plus49", 
      "inputs": [[686, 0, 0], [689, 0, 0]]
    }, 
    {
      "op": "Activation", 
      "name": "activation20", 
      "attr": {"act_type": "relu"}, 
      "inputs": [[690, 0, 0]]
    }, 
    {
      "op": "dot", 
      "name": "dot64", 
      "inputs": [[691, 0, 0], [97, 0, 0]]
    }, 
    {
      "op": "Reshape", 
      "name": "reshape11", 
      "attr": {"shape": "[-1, 196]"}, 
      "inputs": [[692, 0, 0]]
    }, 
    {
      "op": "softmax", 
      "name": "softmax20", 
      "inputs": [[693, 0, 0]]
    }, 
    {
      "op": "expand_dims", 
      "name": "expand_dims31", 
      "attr": {"axis": "2"}, 
      "inputs": [[694, 0, 0]]
    }, 
    {
      "op": "broadcast_to", 
      "name": "broadcast_to41", 
      "attr": {"shape": "(24, 196, 512)"}, 
      "inputs": [[695, 0, 0]]
    }, 
    {
      "op": "_mul", 
      "name": "_mul60", 
      "inputs": [[86, 0, 0], [696, 0, 0]]
    }, 
    {
      "op": "sum", 
      "name": "context", 
      "attr": {"axis": "1"}, 
      "inputs": [[697, 0, 0]]
    }, 
    {
      "op": "_mul", 
      "name": "_mul61", 
      "inputs": [[685, 0, 0], [698, 0, 0]]
    }, 
    {
      "op": "Concat", 
      "name": "concat10", 
      "attr": {
        "dim": "1", 
        "num_args": "2"
      }, 
      "inputs": [[681, 0, 0], [699, 0, 0]]
    }, 
    {
      "op": "FullyConnected", 
      "name": "lstm_t10_i2h", 
      "attr": {"num_hidden": "1024"}, 
      "inputs": [[700, 0, 0], [107, 0, 0], [108, 0, 0]]
    }, 
    {
      "op": "FullyConnected", 
      "name": "lstm_t10_h2h", 
      "attr": {"num_hidden": "1024"}, 
      "inputs": [[655, 0, 0], [110, 0, 0], [111, 0, 0]]
    }, 
    {
      "op": "elemwise_add", 
      "name": "_plus50", 
      "inputs": [[701, 0, 0], [702, 0, 0]]
    }, 
    {
      "op": "SliceChannel", 
      "name": "lstm_t10_slice", 
      "attr": {"num_outputs": "4"}, 
      "inputs": [[703, 0, 0]]
    }, 
    {
      "op": "Activation", 
      "name": "lstm_t10_o", 
      "attr": {"act_type": "sigmoid"}, 
      "inputs": [[704, 3, 0]]
    }, 
    {
      "op": "Activation", 
      "name": "lstm_t10_f", 
      "attr": {"act_type": "sigmoid"}, 
      "inputs": [[704, 1, 0]]
    }, 
    {
      "op": "_mul", 
      "name": "_mul62", 
      "inputs": [[706, 0, 0], [653, 0, 0]]
    }, 
    {
      "op": "Activation", 
      "name": "lstm_t10_i", 
      "attr": {"act_type": "sigmoid"}, 
      "inputs": [[704, 0, 0]]
    }, 
    {
      "op": "Activation", 
      "name": "lstm_t10_c", 
      "attr": {"act_type": "tanh"}, 
      "inputs": [[704, 2, 0]]
    }, 
    {
      "op": "_mul", 
      "name": "_mul63", 
      "inputs": [[708, 0, 0], [709, 0, 0]]
    }, 
    {
      "op": "elemwise_add", 
      "name": "lstm_t10_state", 
      "inputs": [[707, 0, 0], [710, 0, 0]]
    }, 
    {
      "op": "Activation", 
      "name": "activation21", 
      "attr": {"act_type": "tanh"}, 
      "inputs": [[711, 0, 0]]
    }, 
    {
      "op": "_mul", 
      "name": "lstm_t10_out", 
      "inputs": [[705, 0, 0], [712, 0, 0]]
    }, 
    {
      "op": "Dropout", 
      "name": "dropout20", 
      "attr": {"p": "0.5"}, 
      "inputs": [[713, 0, 0]]
    }, 
    {
      "op": "dot", 
      "name": "dot66", 
      "inputs": [[714, 0, 0], [130, 0, 0]]
    }, 
    {
      "op": "broadcast_add", 
      "name": "broadcast_plus44", 
      "inputs": [[715, 0, 0], [132, 0, 0]]
    }, 
    {
      "op": "dot", 
      "name": "dot67", 
      "inputs": [[699, 0, 0], [134, 0, 0]]
    }, 
    {
      "op": "elemwise_add", 
      "name": "_plus51", 
      "inputs": [[716, 0, 0], [717, 0, 0]]
    }, 
    {
      "op": "elemwise_add", 
      "name": "_plus52", 
      "inputs": [[718, 0, 0], [681, 0, 0]]
    }, 
    {
      "op": "tanh", 
      "name": "tanh12", 
      "inputs": [[719, 0, 0]]
    }, 
    {
      "op": "Dropout", 
      "name": "dropout21", 
      "attr": {"p": "0.5"}, 
      "inputs": [[720, 0, 0]]
    }, 
    {
      "op": "dot", 
      "name": "dot68", 
      "inputs": [[721, 0, 0], [140, 0, 0]]
    }, 
    {
      "op": "broadcast_add", 
      "name": "broadcast_plus45", 
      "inputs": [[722, 0, 0], [142, 0, 0]]
    }, 
    {
      "op": "softmax", 
      "name": "softmax21", 
      "inputs": [[723, 0, 0]]
    }, 
    {
      "op": "log", 
      "name": "log10", 
      "inputs": [[724, 0, 0]]
    }, 
    {
      "op": "_mul_scalar", 
      "name": "_mulscalar26", 
      "attr": {"scalar": "-1.0"}, 
      "inputs": [[725, 0, 0]]
    }, 
    {
      "op": "one_hot", 
      "name": "one_hot10", 
      "attr": {"depth": "9705"}, 
      "inputs": [[1, 11, 0]]
    }, 
    {
      "op": "_mul", 
      "name": "_mul64", 
      "inputs": [[726, 0, 0], [727, 0, 0]]
    }, 
    {
      "op": "Cast", 
      "name": "cast20", 
      "attr": {"dtype": "float32"}, 
      "inputs": [[1, 11, 0]]
    }, 
    {
      "op": "_ones", 
      "name": "_ones10", 
      "attr": {
        "dtype": "float32", 
        "shape": "[24]"
      }, 
      "inputs": []
    }, 
    {
      "op": "_mul_scalar", 
      "name": "_mulscalar10", 
      "attr": {"scalar": "0"}, 
      "inputs": [[730, 0, 0]]
    }, 
    {
      "op": "broadcast_not_equal", 
      "name": "broadcast_not_equal10", 
      "inputs": [[729, 0, 0], [731, 0, 0]]
    }, 
    {
      "op": "Cast", 
      "name": "cast21", 
      "attr": {"dtype": "float32"}, 
      "inputs": [[732, 0, 0]]
    }, 
    {
      "op": "expand_dims", 
      "name": "expand_dims32", 
      "attr": {"axis": "1"}, 
      "inputs": [[733, 0, 0]]
    }, 
    {
      "op": "broadcast_to", 
      "name": "broadcast_to43", 
      "attr": {"shape": "(24, 9705)"}, 
      "inputs": [[734, 0, 0]]
    }, 
    {
      "op": "_mul", 
      "name": "_mul65", 
      "inputs": [[728, 0, 0], [735, 0, 0]]
    }, 
    {
      "op": "sum", 
      "name": "sum10", 
      "inputs": [[736, 0, 0]]
    }, 
    {
      "op": "elemwise_add", 
      "name": "_plus53", 
      "inputs": [[680, 0, 0], [737, 0, 0]]
    }, 
    {
      "op": "Embedding", 
      "name": "word_vector", 
      "attr": {
        "input_dim": "9705", 
        "output_dim": "256"
      }, 
      "inputs": [[1, 11, 0], [2, 0, 0]]
    }, 
    {
      "op": "dot", 
      "name": "dot71", 
      "inputs": [[713, 0, 0], [76, 0, 0]]
    }, 
    {
      "op": "broadcast_add", 
      "name": "broadcast_plus47", 
      "inputs": [[740, 0, 0], [78, 0, 0]]
    }, 
    {
      "op": "sigmoid", 
      "name": "beta", 
      "inputs": [[741, 0, 0]]
    }, 
    {
      "op": "broadcast_to", 
      "name": "broadcast_to46", 
      "attr": {"shape": "(24, 512)"}, 
      "inputs": [[742, 0, 0]]
    }, 
    {
      "op": "broadcast_add", 
      "name": "broadcast_plus46", 
      "inputs": [[88, 0, 0], [89, 0, 0]]
    }, 
    {
      "op": "dot", 
      "name": "dot69", 
      "inputs": [[713, 0, 0], [91, 0, 0]]
    }, 
    {
      "op": "expand_dims", 
      "name": "expand_dims33", 
      "attr": {"axis": "1"}, 
      "inputs": [[745, 0, 0]]
    }, 
    {
      "op": "broadcast_to", 
      "name": "broadcast_to44", 
      "attr": {"shape": "(24, 196, 512)"}, 
      "inputs": [[746, 0, 0]]
    }, 
    {
      "op": "elemwise_add", 
      "name": "_plus54", 
      "inputs": [[744, 0, 0], [747, 0, 0]]
    }, 
    {
      "op": "Activation", 
      "name": "activation22", 
      "attr": {"act_type": "relu"}, 
      "inputs": [[748, 0, 0]]
    }, 
    {
      "op": "dot", 
      "name": "dot70", 
      "inputs": [[749, 0, 0], [97, 0, 0]]
    }, 
    {
      "op": "Reshape", 
      "name": "reshape12", 
      "attr": {"shape": "[-1, 196]"}, 
      "inputs": [[750, 0, 0]]
    }, 
    {
      "op": "softmax", 
      "name": "softmax22", 
      "inputs": [[751, 0, 0]]
    }, 
    {
      "op": "expand_dims", 
      "name": "expand_dims34", 
      "attr": {"axis": "2"}, 
      "inputs": [[752, 0, 0]]
    }, 
    {
      "op": "broadcast_to", 
      "name": "broadcast_to45", 
      "attr": {"shape": "(24, 196, 512)"}, 
      "inputs": [[753, 0, 0]]
    }, 
    {
      "op": "_mul", 
      "name": "_mul66", 
      "inputs": [[86, 0, 0], [754, 0, 0]]
    }, 
    {
      "op": "sum", 
      "name": "context", 
      "attr": {"axis": "1"}, 
      "inputs": [[755, 0, 0]]
    }, 
    {
      "op": "_mul", 
      "name": "_mul67", 
      "inputs": [[743, 0, 0], [756, 0, 0]]
    }, 
    {
      "op": "Concat", 
      "name": "concat11", 
      "attr": {
        "dim": "1", 
        "num_args": "2"
      }, 
      "inputs": [[739, 0, 0], [757, 0, 0]]
    }, 
    {
      "op": "FullyConnected", 
      "name": "lstm_t11_i2h", 
      "attr": {"num_hidden": "1024"}, 
      "inputs": [[758, 0, 0], [107, 0, 0], [108, 0, 0]]
    }, 
    {
      "op": "FullyConnected", 
      "name": "lstm_t11_h2h", 
      "attr": {"num_hidden": "1024"}, 
      "inputs": [[713, 0, 0], [110, 0, 0], [111, 0, 0]]
    }, 
    {
      "op": "elemwise_add", 
      "name": "_plus55", 
      "inputs": [[759, 0, 0], [760, 0, 0]]
    }, 
    {
      "op": "SliceChannel", 
      "name": "lstm_t11_slice", 
      "attr": {"num_outputs": "4"}, 
      "inputs": [[761, 0, 0]]
    }, 
    {
      "op": "Activation", 
      "name": "lstm_t11_o", 
      "attr": {"act_type": "sigmoid"}, 
      "inputs": [[762, 3, 0]]
    }, 
    {
      "op": "Activation", 
      "name": "lstm_t11_f", 
      "attr": {"act_type": "sigmoid"}, 
      "inputs": [[762, 1, 0]]
    }, 
    {
      "op": "_mul", 
      "name": "_mul68", 
      "inputs": [[764, 0, 0], [711, 0, 0]]
    }, 
    {
      "op": "Activation", 
      "name": "lstm_t11_i", 
      "attr": {"act_type": "sigmoid"}, 
      "inputs": [[762, 0, 0]]
    }, 
    {
      "op": "Activation", 
      "name": "lstm_t11_c", 
      "attr": {"act_type": "tanh"}, 
      "inputs": [[762, 2, 0]]
    }, 
    {
      "op": "_mul", 
      "name": "_mul69", 
      "inputs": [[766, 0, 0], [767, 0, 0]]
    }, 
    {
      "op": "elemwise_add", 
      "name": "lstm_t11_state", 
      "inputs": [[765, 0, 0], [768, 0, 0]]
    }, 
    {
      "op": "Activation", 
      "name": "activation23", 
      "attr": {"act_type": "tanh"}, 
      "inputs": [[769, 0, 0]]
    }, 
    {
      "op": "_mul", 
      "name": "lstm_t11_out", 
      "inputs": [[763, 0, 0], [770, 0, 0]]
    }, 
    {
      "op": "Dropout", 
      "name": "dropout22", 
      "attr": {"p": "0.5"}, 
      "inputs": [[771, 0, 0]]
    }, 
    {
      "op": "dot", 
      "name": "dot72", 
      "inputs": [[772, 0, 0], [130, 0, 0]]
    }, 
    {
      "op": "broadcast_add", 
      "name": "broadcast_plus48", 
      "inputs": [[773, 0, 0], [132, 0, 0]]
    }, 
    {
      "op": "dot", 
      "name": "dot73", 
      "inputs": [[757, 0, 0], [134, 0, 0]]
    }, 
    {
      "op": "elemwise_add", 
      "name": "_plus56", 
      "inputs": [[774, 0, 0], [775, 0, 0]]
    }, 
    {
      "op": "elemwise_add", 
      "name": "_plus57", 
      "inputs": [[776, 0, 0], [739, 0, 0]]
    }, 
    {
      "op": "tanh", 
      "name": "tanh13", 
      "inputs": [[777, 0, 0]]
    }, 
    {
      "op": "Dropout", 
      "name": "dropout23", 
      "attr": {"p": "0.5"}, 
      "inputs": [[778, 0, 0]]
    }, 
    {
      "op": "dot", 
      "name": "dot74", 
      "inputs": [[779, 0, 0], [140, 0, 0]]
    }, 
    {
      "op": "broadcast_add", 
      "name": "broadcast_plus49", 
      "inputs": [[780, 0, 0], [142, 0, 0]]
    }, 
    {
      "op": "softmax", 
      "name": "softmax23", 
      "inputs": [[781, 0, 0]]
    }, 
    {
      "op": "log", 
      "name": "log11", 
      "inputs": [[782, 0, 0]]
    }, 
    {
      "op": "_mul_scalar", 
      "name": "_mulscalar27", 
      "attr": {"scalar": "-1.0"}, 
      "inputs": [[783, 0, 0]]
    }, 
    {
      "op": "one_hot", 
      "name": "one_hot11", 
      "attr": {"depth": "9705"}, 
      "inputs": [[1, 12, 0]]
    }, 
    {
      "op": "_mul", 
      "name": "_mul70", 
      "inputs": [[784, 0, 0], [785, 0, 0]]
    }, 
    {
      "op": "Cast", 
      "name": "cast22", 
      "attr": {"dtype": "float32"}, 
      "inputs": [[1, 12, 0]]
    }, 
    {
      "op": "_ones", 
      "name": "_ones11", 
      "attr": {
        "dtype": "float32", 
        "shape": "[24]"
      }, 
      "inputs": []
    }, 
    {
      "op": "_mul_scalar", 
      "name": "_mulscalar11", 
      "attr": {"scalar": "0"}, 
      "inputs": [[788, 0, 0]]
    }, 
    {
      "op": "broadcast_not_equal", 
      "name": "broadcast_not_equal11", 
      "inputs": [[787, 0, 0], [789, 0, 0]]
    }, 
    {
      "op": "Cast", 
      "name": "cast23", 
      "attr": {"dtype": "float32"}, 
      "inputs": [[790, 0, 0]]
    }, 
    {
      "op": "expand_dims", 
      "name": "expand_dims35", 
      "attr": {"axis": "1"}, 
      "inputs": [[791, 0, 0]]
    }, 
    {
      "op": "broadcast_to", 
      "name": "broadcast_to47", 
      "attr": {"shape": "(24, 9705)"}, 
      "inputs": [[792, 0, 0]]
    }, 
    {
      "op": "_mul", 
      "name": "_mul71", 
      "inputs": [[786, 0, 0], [793, 0, 0]]
    }, 
    {
      "op": "sum", 
      "name": "sum11", 
      "inputs": [[794, 0, 0]]
    }, 
    {
      "op": "elemwise_add", 
      "name": "_plus58", 
      "inputs": [[738, 0, 0], [795, 0, 0]]
    }, 
    {
      "op": "Embedding", 
      "name": "word_vector", 
      "attr": {
        "input_dim": "9705", 
        "output_dim": "256"
      }, 
      "inputs": [[1, 12, 0], [2, 0, 0]]
    }, 
    {
      "op": "dot", 
      "name": "dot77", 
      "inputs": [[771, 0, 0], [76, 0, 0]]
    }, 
    {
      "op": "broadcast_add", 
      "name": "broadcast_plus51", 
      "inputs": [[798, 0, 0], [78, 0, 0]]
    }, 
    {
      "op": "sigmoid", 
      "name": "beta", 
      "inputs": [[799, 0, 0]]
    }, 
    {
      "op": "broadcast_to", 
      "name": "broadcast_to50", 
      "attr": {"shape": "(24, 512)"}, 
      "inputs": [[800, 0, 0]]
    }, 
    {
      "op": "broadcast_add", 
      "name": "broadcast_plus50", 
      "inputs": [[88, 0, 0], [89, 0, 0]]
    }, 
    {
      "op": "dot", 
      "name": "dot75", 
      "inputs": [[771, 0, 0], [91, 0, 0]]
    }, 
    {
      "op": "expand_dims", 
      "name": "expand_dims36", 
      "attr": {"axis": "1"}, 
      "inputs": [[803, 0, 0]]
    }, 
    {
      "op": "broadcast_to", 
      "name": "broadcast_to48", 
      "attr": {"shape": "(24, 196, 512)"}, 
      "inputs": [[804, 0, 0]]
    }, 
    {
      "op": "elemwise_add", 
      "name": "_plus59", 
      "inputs": [[802, 0, 0], [805, 0, 0]]
    }, 
    {
      "op": "Activation", 
      "name": "activation24", 
      "attr": {"act_type": "relu"}, 
      "inputs": [[806, 0, 0]]
    }, 
    {
      "op": "dot", 
      "name": "dot76", 
      "inputs": [[807, 0, 0], [97, 0, 0]]
    }, 
    {
      "op": "Reshape", 
      "name": "reshape13", 
      "attr": {"shape": "[-1, 196]"}, 
      "inputs": [[808, 0, 0]]
    }, 
    {
      "op": "softmax", 
      "name": "softmax24", 
      "inputs": [[809, 0, 0]]
    }, 
    {
      "op": "expand_dims", 
      "name": "expand_dims37", 
      "attr": {"axis": "2"}, 
      "inputs": [[810, 0, 0]]
    }, 
    {
      "op": "broadcast_to", 
      "name": "broadcast_to49", 
      "attr": {"shape": "(24, 196, 512)"}, 
      "inputs": [[811, 0, 0]]
    }, 
    {
      "op": "_mul", 
      "name": "_mul72", 
      "inputs": [[86, 0, 0], [812, 0, 0]]
    }, 
    {
      "op": "sum", 
      "name": "context", 
      "attr": {"axis": "1"}, 
      "inputs": [[813, 0, 0]]
    }, 
    {
      "op": "_mul", 
      "name": "_mul73", 
      "inputs": [[801, 0, 0], [814, 0, 0]]
    }, 
    {
      "op": "Concat", 
      "name": "concat12", 
      "attr": {
        "dim": "1", 
        "num_args": "2"
      }, 
      "inputs": [[797, 0, 0], [815, 0, 0]]
    }, 
    {
      "op": "FullyConnected", 
      "name": "lstm_t12_i2h", 
      "attr": {"num_hidden": "1024"}, 
      "inputs": [[816, 0, 0], [107, 0, 0], [108, 0, 0]]
    }, 
    {
      "op": "FullyConnected", 
      "name": "lstm_t12_h2h", 
      "attr": {"num_hidden": "1024"}, 
      "inputs": [[771, 0, 0], [110, 0, 0], [111, 0, 0]]
    }, 
    {
      "op": "elemwise_add", 
      "name": "_plus60", 
      "inputs": [[817, 0, 0], [818, 0, 0]]
    }, 
    {
      "op": "SliceChannel", 
      "name": "lstm_t12_slice", 
      "attr": {"num_outputs": "4"}, 
      "inputs": [[819, 0, 0]]
    }, 
    {
      "op": "Activation", 
      "name": "lstm_t12_o", 
      "attr": {"act_type": "sigmoid"}, 
      "inputs": [[820, 3, 0]]
    }, 
    {
      "op": "Activation", 
      "name": "lstm_t12_f", 
      "attr": {"act_type": "sigmoid"}, 
      "inputs": [[820, 1, 0]]
    }, 
    {
      "op": "_mul", 
      "name": "_mul74", 
      "inputs": [[822, 0, 0], [769, 0, 0]]
    }, 
    {
      "op": "Activation", 
      "name": "lstm_t12_i", 
      "attr": {"act_type": "sigmoid"}, 
      "inputs": [[820, 0, 0]]
    }, 
    {
      "op": "Activation", 
      "name": "lstm_t12_c", 
      "attr": {"act_type": "tanh"}, 
      "inputs": [[820, 2, 0]]
    }, 
    {
      "op": "_mul", 
      "name": "_mul75", 
      "inputs": [[824, 0, 0], [825, 0, 0]]
    }, 
    {
      "op": "elemwise_add", 
      "name": "lstm_t12_state", 
      "inputs": [[823, 0, 0], [826, 0, 0]]
    }, 
    {
      "op": "Activation", 
      "name": "activation25", 
      "attr": {"act_type": "tanh"}, 
      "inputs": [[827, 0, 0]]
    }, 
    {
      "op": "_mul", 
      "name": "lstm_t12_out", 
      "inputs": [[821, 0, 0], [828, 0, 0]]
    }, 
    {
      "op": "Dropout", 
      "name": "dropout24", 
      "attr": {"p": "0.5"}, 
      "inputs": [[829, 0, 0]]
    }, 
    {
      "op": "dot", 
      "name": "dot78", 
      "inputs": [[830, 0, 0], [130, 0, 0]]
    }, 
    {
      "op": "broadcast_add", 
      "name": "broadcast_plus52", 
      "inputs": [[831, 0, 0], [132, 0, 0]]
    }, 
    {
      "op": "dot", 
      "name": "dot79", 
      "inputs": [[815, 0, 0], [134, 0, 0]]
    }, 
    {
      "op": "elemwise_add", 
      "name": "_plus61", 
      "inputs": [[832, 0, 0], [833, 0, 0]]
    }, 
    {
      "op": "elemwise_add", 
      "name": "_plus62", 
      "inputs": [[834, 0, 0], [797, 0, 0]]
    }, 
    {
      "op": "tanh", 
      "name": "tanh14", 
      "inputs": [[835, 0, 0]]
    }, 
    {
      "op": "Dropout", 
      "name": "dropout25", 
      "attr": {"p": "0.5"}, 
      "inputs": [[836, 0, 0]]
    }, 
    {
      "op": "dot", 
      "name": "dot80", 
      "inputs": [[837, 0, 0], [140, 0, 0]]
    }, 
    {
      "op": "broadcast_add", 
      "name": "broadcast_plus53", 
      "inputs": [[838, 0, 0], [142, 0, 0]]
    }, 
    {
      "op": "softmax", 
      "name": "softmax25", 
      "inputs": [[839, 0, 0]]
    }, 
    {
      "op": "log", 
      "name": "log12", 
      "inputs": [[840, 0, 0]]
    }, 
    {
      "op": "_mul_scalar", 
      "name": "_mulscalar28", 
      "attr": {"scalar": "-1.0"}, 
      "inputs": [[841, 0, 0]]
    }, 
    {
      "op": "one_hot", 
      "name": "one_hot12", 
      "attr": {"depth": "9705"}, 
      "inputs": [[1, 13, 0]]
    }, 
    {
      "op": "_mul", 
      "name": "_mul76", 
      "inputs": [[842, 0, 0], [843, 0, 0]]
    }, 
    {
      "op": "Cast", 
      "name": "cast24", 
      "attr": {"dtype": "float32"}, 
      "inputs": [[1, 13, 0]]
    }, 
    {
      "op": "_ones", 
      "name": "_ones12", 
      "attr": {
        "dtype": "float32", 
        "shape": "[24]"
      }, 
      "inputs": []
    }, 
    {
      "op": "_mul_scalar", 
      "name": "_mulscalar12", 
      "attr": {"scalar": "0"}, 
      "inputs": [[846, 0, 0]]
    }, 
    {
      "op": "broadcast_not_equal", 
      "name": "broadcast_not_equal12", 
      "inputs": [[845, 0, 0], [847, 0, 0]]
    }, 
    {
      "op": "Cast", 
      "name": "cast25", 
      "attr": {"dtype": "float32"}, 
      "inputs": [[848, 0, 0]]
    }, 
    {
      "op": "expand_dims", 
      "name": "expand_dims38", 
      "attr": {"axis": "1"}, 
      "inputs": [[849, 0, 0]]
    }, 
    {
      "op": "broadcast_to", 
      "name": "broadcast_to51", 
      "attr": {"shape": "(24, 9705)"}, 
      "inputs": [[850, 0, 0]]
    }, 
    {
      "op": "_mul", 
      "name": "_mul77", 
      "inputs": [[844, 0, 0], [851, 0, 0]]
    }, 
    {
      "op": "sum", 
      "name": "sum12", 
      "inputs": [[852, 0, 0]]
    }, 
    {
      "op": "elemwise_add", 
      "name": "_plus63", 
      "inputs": [[796, 0, 0], [853, 0, 0]]
    }, 
    {
      "op": "Embedding", 
      "name": "word_vector", 
      "attr": {
        "input_dim": "9705", 
        "output_dim": "256"
      }, 
      "inputs": [[1, 13, 0], [2, 0, 0]]
    }, 
    {
      "op": "dot", 
      "name": "dot83", 
      "inputs": [[829, 0, 0], [76, 0, 0]]
    }, 
    {
      "op": "broadcast_add", 
      "name": "broadcast_plus55", 
      "inputs": [[856, 0, 0], [78, 0, 0]]
    }, 
    {
      "op": "sigmoid", 
      "name": "beta", 
      "inputs": [[857, 0, 0]]
    }, 
    {
      "op": "broadcast_to", 
      "name": "broadcast_to54", 
      "attr": {"shape": "(24, 512)"}, 
      "inputs": [[858, 0, 0]]
    }, 
    {
      "op": "broadcast_add", 
      "name": "broadcast_plus54", 
      "inputs": [[88, 0, 0], [89, 0, 0]]
    }, 
    {
      "op": "dot", 
      "name": "dot81", 
      "inputs": [[829, 0, 0], [91, 0, 0]]
    }, 
    {
      "op": "expand_dims", 
      "name": "expand_dims39", 
      "attr": {"axis": "1"}, 
      "inputs": [[861, 0, 0]]
    }, 
    {
      "op": "broadcast_to", 
      "name": "broadcast_to52", 
      "attr": {"shape": "(24, 196, 512)"}, 
      "inputs": [[862, 0, 0]]
    }, 
    {
      "op": "elemwise_add", 
      "name": "_plus64", 
      "inputs": [[860, 0, 0], [863, 0, 0]]
    }, 
    {
      "op": "Activation", 
      "name": "activation26", 
      "attr": {"act_type": "relu"}, 
      "inputs": [[864, 0, 0]]
    }, 
    {
      "op": "dot", 
      "name": "dot82", 
      "inputs": [[865, 0, 0], [97, 0, 0]]
    }, 
    {
      "op": "Reshape", 
      "name": "reshape14", 
      "attr": {"shape": "[-1, 196]"}, 
      "inputs": [[866, 0, 0]]
    }, 
    {
      "op": "softmax", 
      "name": "softmax26", 
      "inputs": [[867, 0, 0]]
    }, 
    {
      "op": "expand_dims", 
      "name": "expand_dims40", 
      "attr": {"axis": "2"}, 
      "inputs": [[868, 0, 0]]
    }, 
    {
      "op": "broadcast_to", 
      "name": "broadcast_to53", 
      "attr": {"shape": "(24, 196, 512)"}, 
      "inputs": [[869, 0, 0]]
    }, 
    {
      "op": "_mul", 
      "name": "_mul78", 
      "inputs": [[86, 0, 0], [870, 0, 0]]
    }, 
    {
      "op": "sum", 
      "name": "context", 
      "attr": {"axis": "1"}, 
      "inputs": [[871, 0, 0]]
    }, 
    {
      "op": "_mul", 
      "name": "_mul79", 
      "inputs": [[859, 0, 0], [872, 0, 0]]
    }, 
    {
      "op": "Concat", 
      "name": "concat13", 
      "attr": {
        "dim": "1", 
        "num_args": "2"
      }, 
      "inputs": [[855, 0, 0], [873, 0, 0]]
    }, 
    {
      "op": "FullyConnected", 
      "name": "lstm_t13_i2h", 
      "attr": {"num_hidden": "1024"}, 
      "inputs": [[874, 0, 0], [107, 0, 0], [108, 0, 0]]
    }, 
    {
      "op": "FullyConnected", 
      "name": "lstm_t13_h2h", 
      "attr": {"num_hidden": "1024"}, 
      "inputs": [[829, 0, 0], [110, 0, 0], [111, 0, 0]]
    }, 
    {
      "op": "elemwise_add", 
      "name": "_plus65", 
      "inputs": [[875, 0, 0], [876, 0, 0]]
    }, 
    {
      "op": "SliceChannel", 
      "name": "lstm_t13_slice", 
      "attr": {"num_outputs": "4"}, 
      "inputs": [[877, 0, 0]]
    }, 
    {
      "op": "Activation", 
      "name": "lstm_t13_o", 
      "attr": {"act_type": "sigmoid"}, 
      "inputs": [[878, 3, 0]]
    }, 
    {
      "op": "Activation", 
      "name": "lstm_t13_f", 
      "attr": {"act_type": "sigmoid"}, 
      "inputs": [[878, 1, 0]]
    }, 
    {
      "op": "_mul", 
      "name": "_mul80", 
      "inputs": [[880, 0, 0], [827, 0, 0]]
    }, 
    {
      "op": "Activation", 
      "name": "lstm_t13_i", 
      "attr": {"act_type": "sigmoid"}, 
      "inputs": [[878, 0, 0]]
    }, 
    {
      "op": "Activation", 
      "name": "lstm_t13_c", 
      "attr": {"act_type": "tanh"}, 
      "inputs": [[878, 2, 0]]
    }, 
    {
      "op": "_mul", 
      "name": "_mul81", 
      "inputs": [[882, 0, 0], [883, 0, 0]]
    }, 
    {
      "op": "elemwise_add", 
      "name": "lstm_t13_state", 
      "inputs": [[881, 0, 0], [884, 0, 0]]
    }, 
    {
      "op": "Activation", 
      "name": "activation27", 
      "attr": {"act_type": "tanh"}, 
      "inputs": [[885, 0, 0]]
    }, 
    {
      "op": "_mul", 
      "name": "lstm_t13_out", 
      "inputs": [[879, 0, 0], [886, 0, 0]]
    }, 
    {
      "op": "Dropout", 
      "name": "dropout26", 
      "attr": {"p": "0.5"}, 
      "inputs": [[887, 0, 0]]
    }, 
    {
      "op": "dot", 
      "name": "dot84", 
      "inputs": [[888, 0, 0], [130, 0, 0]]
    }, 
    {
      "op": "broadcast_add", 
      "name": "broadcast_plus56", 
      "inputs": [[889, 0, 0], [132, 0, 0]]
    }, 
    {
      "op": "dot", 
      "name": "dot85", 
      "inputs": [[873, 0, 0], [134, 0, 0]]
    }, 
    {
      "op": "elemwise_add", 
      "name": "_plus66", 
      "inputs": [[890, 0, 0], [891, 0, 0]]
    }, 
    {
      "op": "elemwise_add", 
      "name": "_plus67", 
      "inputs": [[892, 0, 0], [855, 0, 0]]
    }, 
    {
      "op": "tanh", 
      "name": "tanh15", 
      "inputs": [[893, 0, 0]]
    }, 
    {
      "op": "Dropout", 
      "name": "dropout27", 
      "attr": {"p": "0.5"}, 
      "inputs": [[894, 0, 0]]
    }, 
    {
      "op": "dot", 
      "name": "dot86", 
      "inputs": [[895, 0, 0], [140, 0, 0]]
    }, 
    {
      "op": "broadcast_add", 
      "name": "broadcast_plus57", 
      "inputs": [[896, 0, 0], [142, 0, 0]]
    }, 
    {
      "op": "softmax", 
      "name": "softmax27", 
      "inputs": [[897, 0, 0]]
    }, 
    {
      "op": "log", 
      "name": "log13", 
      "inputs": [[898, 0, 0]]
    }, 
    {
      "op": "_mul_scalar", 
      "name": "_mulscalar29", 
      "attr": {"scalar": "-1.0"}, 
      "inputs": [[899, 0, 0]]
    }, 
    {
      "op": "one_hot", 
      "name": "one_hot13", 
      "attr": {"depth": "9705"}, 
      "inputs": [[1, 14, 0]]
    }, 
    {
      "op": "_mul", 
      "name": "_mul82", 
      "inputs": [[900, 0, 0], [901, 0, 0]]
    }, 
    {
      "op": "Cast", 
      "name": "cast26", 
      "attr": {"dtype": "float32"}, 
      "inputs": [[1, 14, 0]]
    }, 
    {
      "op": "_ones", 
      "name": "_ones13", 
      "attr": {
        "dtype": "float32", 
        "shape": "[24]"
      }, 
      "inputs": []
    }, 
    {
      "op": "_mul_scalar", 
      "name": "_mulscalar13", 
      "attr": {"scalar": "0"}, 
      "inputs": [[904, 0, 0]]
    }, 
    {
      "op": "broadcast_not_equal", 
      "name": "broadcast_not_equal13", 
      "inputs": [[903, 0, 0], [905, 0, 0]]
    }, 
    {
      "op": "Cast", 
      "name": "cast27", 
      "attr": {"dtype": "float32"}, 
      "inputs": [[906, 0, 0]]
    }, 
    {
      "op": "expand_dims", 
      "name": "expand_dims41", 
      "attr": {"axis": "1"}, 
      "inputs": [[907, 0, 0]]
    }, 
    {
      "op": "broadcast_to", 
      "name": "broadcast_to55", 
      "attr": {"shape": "(24, 9705)"}, 
      "inputs": [[908, 0, 0]]
    }, 
    {
      "op": "_mul", 
      "name": "_mul83", 
      "inputs": [[902, 0, 0], [909, 0, 0]]
    }, 
    {
      "op": "sum", 
      "name": "sum13", 
      "inputs": [[910, 0, 0]]
    }, 
    {
      "op": "elemwise_add", 
      "name": "_plus68", 
      "inputs": [[854, 0, 0], [911, 0, 0]]
    }, 
    {
      "op": "Embedding", 
      "name": "word_vector", 
      "attr": {
        "input_dim": "9705", 
        "output_dim": "256"
      }, 
      "inputs": [[1, 14, 0], [2, 0, 0]]
    }, 
    {
      "op": "dot", 
      "name": "dot89", 
      "inputs": [[887, 0, 0], [76, 0, 0]]
    }, 
    {
      "op": "broadcast_add", 
      "name": "broadcast_plus59", 
      "inputs": [[914, 0, 0], [78, 0, 0]]
    }, 
    {
      "op": "sigmoid", 
      "name": "beta", 
      "inputs": [[915, 0, 0]]
    }, 
    {
      "op": "broadcast_to", 
      "name": "broadcast_to58", 
      "attr": {"shape": "(24, 512)"}, 
      "inputs": [[916, 0, 0]]
    }, 
    {
      "op": "broadcast_add", 
      "name": "broadcast_plus58", 
      "inputs": [[88, 0, 0], [89, 0, 0]]
    }, 
    {
      "op": "dot", 
      "name": "dot87", 
      "inputs": [[887, 0, 0], [91, 0, 0]]
    }, 
    {
      "op": "expand_dims", 
      "name": "expand_dims42", 
      "attr": {"axis": "1"}, 
      "inputs": [[919, 0, 0]]
    }, 
    {
      "op": "broadcast_to", 
      "name": "broadcast_to56", 
      "attr": {"shape": "(24, 196, 512)"}, 
      "inputs": [[920, 0, 0]]
    }, 
    {
      "op": "elemwise_add", 
      "name": "_plus69", 
      "inputs": [[918, 0, 0], [921, 0, 0]]
    }, 
    {
      "op": "Activation", 
      "name": "activation28", 
      "attr": {"act_type": "relu"}, 
      "inputs": [[922, 0, 0]]
    }, 
    {
      "op": "dot", 
      "name": "dot88", 
      "inputs": [[923, 0, 0], [97, 0, 0]]
    }, 
    {
      "op": "Reshape", 
      "name": "reshape15", 
      "attr": {"shape": "[-1, 196]"}, 
      "inputs": [[924, 0, 0]]
    }, 
    {
      "op": "softmax", 
      "name": "softmax28", 
      "inputs": [[925, 0, 0]]
    }, 
    {
      "op": "expand_dims", 
      "name": "expand_dims43", 
      "attr": {"axis": "2"}, 
      "inputs": [[926, 0, 0]]
    }, 
    {
      "op": "broadcast_to", 
      "name": "broadcast_to57", 
      "attr": {"shape": "(24, 196, 512)"}, 
      "inputs": [[927, 0, 0]]
    }, 
    {
      "op": "_mul", 
      "name": "_mul84", 
      "inputs": [[86, 0, 0], [928, 0, 0]]
    }, 
    {
      "op": "sum", 
      "name": "context", 
      "attr": {"axis": "1"}, 
      "inputs": [[929, 0, 0]]
    }, 
    {
      "op": "_mul", 
      "name": "_mul85", 
      "inputs": [[917, 0, 0], [930, 0, 0]]
    }, 
    {
      "op": "Concat", 
      "name": "concat14", 
      "attr": {
        "dim": "1", 
        "num_args": "2"
      }, 
      "inputs": [[913, 0, 0], [931, 0, 0]]
    }, 
    {
      "op": "FullyConnected", 
      "name": "lstm_t14_i2h", 
      "attr": {"num_hidden": "1024"}, 
      "inputs": [[932, 0, 0], [107, 0, 0], [108, 0, 0]]
    }, 
    {
      "op": "FullyConnected", 
      "name": "lstm_t14_h2h", 
      "attr": {"num_hidden": "1024"}, 
      "inputs": [[887, 0, 0], [110, 0, 0], [111, 0, 0]]
    }, 
    {
      "op": "elemwise_add", 
      "name": "_plus70", 
      "inputs": [[933, 0, 0], [934, 0, 0]]
    }, 
    {
      "op": "SliceChannel", 
      "name": "lstm_t14_slice", 
      "attr": {"num_outputs": "4"}, 
      "inputs": [[935, 0, 0]]
    }, 
    {
      "op": "Activation", 
      "name": "lstm_t14_o", 
      "attr": {"act_type": "sigmoid"}, 
      "inputs": [[936, 3, 0]]
    }, 
    {
      "op": "Activation", 
      "name": "lstm_t14_f", 
      "attr": {"act_type": "sigmoid"}, 
      "inputs": [[936, 1, 0]]
    }, 
    {
      "op": "_mul", 
      "name": "_mul86", 
      "inputs": [[938, 0, 0], [885, 0, 0]]
    }, 
    {
      "op": "Activation", 
      "name": "lstm_t14_i", 
      "attr": {"act_type": "sigmoid"}, 
      "inputs": [[936, 0, 0]]
    }, 
    {
      "op": "Activation", 
      "name": "lstm_t14_c", 
      "attr": {"act_type": "tanh"}, 
      "inputs": [[936, 2, 0]]
    }, 
    {
      "op": "_mul", 
      "name": "_mul87", 
      "inputs": [[940, 0, 0], [941, 0, 0]]
    }, 
    {
      "op": "elemwise_add", 
      "name": "lstm_t14_state", 
      "inputs": [[939, 0, 0], [942, 0, 0]]
    }, 
    {
      "op": "Activation", 
      "name": "activation29", 
      "attr": {"act_type": "tanh"}, 
      "inputs": [[943, 0, 0]]
    }, 
    {
      "op": "_mul", 
      "name": "lstm_t14_out", 
      "inputs": [[937, 0, 0], [944, 0, 0]]
    }, 
    {
      "op": "Dropout", 
      "name": "dropout28", 
      "attr": {"p": "0.5"}, 
      "inputs": [[945, 0, 0]]
    }, 
    {
      "op": "dot", 
      "name": "dot90", 
      "inputs": [[946, 0, 0], [130, 0, 0]]
    }, 
    {
      "op": "broadcast_add", 
      "name": "broadcast_plus60", 
      "inputs": [[947, 0, 0], [132, 0, 0]]
    }, 
    {
      "op": "dot", 
      "name": "dot91", 
      "inputs": [[931, 0, 0], [134, 0, 0]]
    }, 
    {
      "op": "elemwise_add", 
      "name": "_plus71", 
      "inputs": [[948, 0, 0], [949, 0, 0]]
    }, 
    {
      "op": "elemwise_add", 
      "name": "_plus72", 
      "inputs": [[950, 0, 0], [913, 0, 0]]
    }, 
    {
      "op": "tanh", 
      "name": "tanh16", 
      "inputs": [[951, 0, 0]]
    }, 
    {
      "op": "Dropout", 
      "name": "dropout29", 
      "attr": {"p": "0.5"}, 
      "inputs": [[952, 0, 0]]
    }, 
    {
      "op": "dot", 
      "name": "dot92", 
      "inputs": [[953, 0, 0], [140, 0, 0]]
    }, 
    {
      "op": "broadcast_add", 
      "name": "broadcast_plus61", 
      "inputs": [[954, 0, 0], [142, 0, 0]]
    }, 
    {
      "op": "softmax", 
      "name": "softmax29", 
      "inputs": [[955, 0, 0]]
    }, 
    {
      "op": "log", 
      "name": "log14", 
      "inputs": [[956, 0, 0]]
    }, 
    {
      "op": "_mul_scalar", 
      "name": "_mulscalar30", 
      "attr": {"scalar": "-1.0"}, 
      "inputs": [[957, 0, 0]]
    }, 
    {
      "op": "one_hot", 
      "name": "one_hot14", 
      "attr": {"depth": "9705"}, 
      "inputs": [[1, 15, 0]]
    }, 
    {
      "op": "_mul", 
      "name": "_mul88", 
      "inputs": [[958, 0, 0], [959, 0, 0]]
    }, 
    {
      "op": "Cast", 
      "name": "cast28", 
      "attr": {"dtype": "float32"}, 
      "inputs": [[1, 15, 0]]
    }, 
    {
      "op": "_ones", 
      "name": "_ones14", 
      "attr": {
        "dtype": "float32", 
        "shape": "[24]"
      }, 
      "inputs": []
    }, 
    {
      "op": "_mul_scalar", 
      "name": "_mulscalar14", 
      "attr": {"scalar": "0"}, 
      "inputs": [[962, 0, 0]]
    }, 
    {
      "op": "broadcast_not_equal", 
      "name": "broadcast_not_equal14", 
      "inputs": [[961, 0, 0], [963, 0, 0]]
    }, 
    {
      "op": "Cast", 
      "name": "cast29", 
      "attr": {"dtype": "float32"}, 
      "inputs": [[964, 0, 0]]
    }, 
    {
      "op": "expand_dims", 
      "name": "expand_dims44", 
      "attr": {"axis": "1"}, 
      "inputs": [[965, 0, 0]]
    }, 
    {
      "op": "broadcast_to", 
      "name": "broadcast_to59", 
      "attr": {"shape": "(24, 9705)"}, 
      "inputs": [[966, 0, 0]]
    }, 
    {
      "op": "_mul", 
      "name": "_mul89", 
      "inputs": [[960, 0, 0], [967, 0, 0]]
    }, 
    {
      "op": "sum", 
      "name": "sum14", 
      "inputs": [[968, 0, 0]]
    }, 
    {
      "op": "elemwise_add", 
      "name": "_plus73", 
      "inputs": [[912, 0, 0], [969, 0, 0]]
    }, 
    {
      "op": "Embedding", 
      "name": "word_vector", 
      "attr": {
        "input_dim": "9705", 
        "output_dim": "256"
      }, 
      "inputs": [[1, 15, 0], [2, 0, 0]]
    }, 
    {
      "op": "dot", 
      "name": "dot95", 
      "inputs": [[945, 0, 0], [76, 0, 0]]
    }, 
    {
      "op": "broadcast_add", 
      "name": "broadcast_plus63", 
      "inputs": [[972, 0, 0], [78, 0, 0]]
    }, 
    {
      "op": "sigmoid", 
      "name": "beta", 
      "inputs": [[973, 0, 0]]
    }, 
    {
      "op": "broadcast_to", 
      "name": "broadcast_to62", 
      "attr": {"shape": "(24, 512)"}, 
      "inputs": [[974, 0, 0]]
    }, 
    {
      "op": "broadcast_add", 
      "name": "broadcast_plus62", 
      "inputs": [[88, 0, 0], [89, 0, 0]]
    }, 
    {
      "op": "dot", 
      "name": "dot93", 
      "inputs": [[945, 0, 0], [91, 0, 0]]
    }, 
    {
      "op": "expand_dims", 
      "name": "expand_dims45", 
      "attr": {"axis": "1"}, 
      "inputs": [[977, 0, 0]]
    }, 
    {
      "op": "broadcast_to", 
      "name": "broadcast_to60", 
      "attr": {"shape": "(24, 196, 512)"}, 
      "inputs": [[978, 0, 0]]
    }, 
    {
      "op": "elemwise_add", 
      "name": "_plus74", 
      "inputs": [[976, 0, 0], [979, 0, 0]]
    }, 
    {
      "op": "Activation", 
      "name": "activation30", 
      "attr": {"act_type": "relu"}, 
      "inputs": [[980, 0, 0]]
    }, 
    {
      "op": "dot", 
      "name": "dot94", 
      "inputs": [[981, 0, 0], [97, 0, 0]]
    }, 
    {
      "op": "Reshape", 
      "name": "reshape16", 
      "attr": {"shape": "[-1, 196]"}, 
      "inputs": [[982, 0, 0]]
    }, 
    {
      "op": "softmax", 
      "name": "softmax30", 
      "inputs": [[983, 0, 0]]
    }, 
    {
      "op": "expand_dims", 
      "name": "expand_dims46", 
      "attr": {"axis": "2"}, 
      "inputs": [[984, 0, 0]]
    }, 
    {
      "op": "broadcast_to", 
      "name": "broadcast_to61", 
      "attr": {"shape": "(24, 196, 512)"}, 
      "inputs": [[985, 0, 0]]
    }, 
    {
      "op": "_mul", 
      "name": "_mul90", 
      "inputs": [[86, 0, 0], [986, 0, 0]]
    }, 
    {
      "op": "sum", 
      "name": "context", 
      "attr": {"axis": "1"}, 
      "inputs": [[987, 0, 0]]
    }, 
    {
      "op": "_mul", 
      "name": "_mul91", 
      "inputs": [[975, 0, 0], [988, 0, 0]]
    }, 
    {
      "op": "Concat", 
      "name": "concat15", 
      "attr": {
        "dim": "1", 
        "num_args": "2"
      }, 
      "inputs": [[971, 0, 0], [989, 0, 0]]
    }, 
    {
      "op": "FullyConnected", 
      "name": "lstm_t15_i2h", 
      "attr": {"num_hidden": "1024"}, 
      "inputs": [[990, 0, 0], [107, 0, 0], [108, 0, 0]]
    }, 
    {
      "op": "FullyConnected", 
      "name": "lstm_t15_h2h", 
      "attr": {"num_hidden": "1024"}, 
      "inputs": [[945, 0, 0], [110, 0, 0], [111, 0, 0]]
    }, 
    {
      "op": "elemwise_add", 
      "name": "_plus75", 
      "inputs": [[991, 0, 0], [992, 0, 0]]
    }, 
    {
      "op": "SliceChannel", 
      "name": "lstm_t15_slice", 
      "attr": {"num_outputs": "4"}, 
      "inputs": [[993, 0, 0]]
    }, 
    {
      "op": "Activation", 
      "name": "lstm_t15_o", 
      "attr": {"act_type": "sigmoid"}, 
      "inputs": [[994, 3, 0]]
    }, 
    {
      "op": "Activation", 
      "name": "lstm_t15_f", 
      "attr": {"act_type": "sigmoid"}, 
      "inputs": [[994, 1, 0]]
    }, 
    {
      "op": "_mul", 
      "name": "_mul92", 
      "inputs": [[996, 0, 0], [943, 0, 0]]
    }, 
    {
      "op": "Activation", 
      "name": "lstm_t15_i", 
      "attr": {"act_type": "sigmoid"}, 
      "inputs": [[994, 0, 0]]
    }, 
    {
      "op": "Activation", 
      "name": "lstm_t15_c", 
      "attr": {"act_type": "tanh"}, 
      "inputs": [[994, 2, 0]]
    }, 
    {
      "op": "_mul", 
      "name": "_mul93", 
      "inputs": [[998, 0, 0], [999, 0, 0]]
    }, 
    {
      "op": "elemwise_add", 
      "name": "lstm_t15_state", 
      "inputs": [[997, 0, 0], [1000, 0, 0]]
    }, 
    {
      "op": "Activation", 
      "name": "activation31", 
      "attr": {"act_type": "tanh"}, 
      "inputs": [[1001, 0, 0]]
    }, 
    {
      "op": "_mul", 
      "name": "lstm_t15_out", 
      "inputs": [[995, 0, 0], [1002, 0, 0]]
    }, 
    {
      "op": "Dropout", 
      "name": "dropout30", 
      "attr": {"p": "0.5"}, 
      "inputs": [[1003, 0, 0]]
    }, 
    {
      "op": "dot", 
      "name": "dot96", 
      "inputs": [[1004, 0, 0], [130, 0, 0]]
    }, 
    {
      "op": "broadcast_add", 
      "name": "broadcast_plus64", 
      "inputs": [[1005, 0, 0], [132, 0, 0]]
    }, 
    {
      "op": "dot", 
      "name": "dot97", 
      "inputs": [[989, 0, 0], [134, 0, 0]]
    }, 
    {
      "op": "elemwise_add", 
      "name": "_plus76", 
      "inputs": [[1006, 0, 0], [1007, 0, 0]]
    }, 
    {
      "op": "elemwise_add", 
      "name": "_plus77", 
      "inputs": [[1008, 0, 0], [971, 0, 0]]
    }, 
    {
      "op": "tanh", 
      "name": "tanh17", 
      "inputs": [[1009, 0, 0]]
    }, 
    {
      "op": "Dropout", 
      "name": "dropout31", 
      "attr": {"p": "0.5"}, 
      "inputs": [[1010, 0, 0]]
    }, 
    {
      "op": "dot", 
      "name": "dot98", 
      "inputs": [[1011, 0, 0], [140, 0, 0]]
    }, 
    {
      "op": "broadcast_add", 
      "name": "broadcast_plus65", 
      "inputs": [[1012, 0, 0], [142, 0, 0]]
    }, 
    {
      "op": "softmax", 
      "name": "softmax31", 
      "inputs": [[1013, 0, 0]]
    }, 
    {
      "op": "log", 
      "name": "log15", 
      "inputs": [[1014, 0, 0]]
    }, 
    {
      "op": "_mul_scalar", 
      "name": "_mulscalar31", 
      "attr": {"scalar": "-1.0"}, 
      "inputs": [[1015, 0, 0]]
    }, 
    {
      "op": "one_hot", 
      "name": "one_hot15", 
      "attr": {"depth": "9705"}, 
      "inputs": [[1, 16, 0]]
    }, 
    {
      "op": "_mul", 
      "name": "_mul94", 
      "inputs": [[1016, 0, 0], [1017, 0, 0]]
    }, 
    {
      "op": "Cast", 
      "name": "cast30", 
      "attr": {"dtype": "float32"}, 
      "inputs": [[1, 16, 0]]
    }, 
    {
      "op": "_ones", 
      "name": "_ones15", 
      "attr": {
        "dtype": "float32", 
        "shape": "[24]"
      }, 
      "inputs": []
    }, 
    {
      "op": "_mul_scalar", 
      "name": "_mulscalar15", 
      "attr": {"scalar": "0"}, 
      "inputs": [[1020, 0, 0]]
    }, 
    {
      "op": "broadcast_not_equal", 
      "name": "broadcast_not_equal15", 
      "inputs": [[1019, 0, 0], [1021, 0, 0]]
    }, 
    {
      "op": "Cast", 
      "name": "cast31", 
      "attr": {"dtype": "float32"}, 
      "inputs": [[1022, 0, 0]]
    }, 
    {
      "op": "expand_dims", 
      "name": "expand_dims47", 
      "attr": {"axis": "1"}, 
      "inputs": [[1023, 0, 0]]
    }, 
    {
      "op": "broadcast_to", 
      "name": "broadcast_to63", 
      "attr": {"shape": "(24, 9705)"}, 
      "inputs": [[1024, 0, 0]]
    }, 
    {
      "op": "_mul", 
      "name": "_mul95", 
      "inputs": [[1018, 0, 0], [1025, 0, 0]]
    }, 
    {
      "op": "sum", 
      "name": "sum15", 
      "inputs": [[1026, 0, 0]]
    }, 
    {
      "op": "elemwise_add", 
      "name": "_plus78", 
      "inputs": [[970, 0, 0], [1027, 0, 0]]
    }, 
    {
      "op": "elemwise_add", 
      "name": "_plus79", 
      "inputs": [[100, 0, 0], [172, 0, 0]]
    }, 
    {
      "op": "elemwise_add", 
      "name": "_plus80", 
      "inputs": [[1029, 0, 0], [230, 0, 0]]
    }, 
    {
      "op": "elemwise_add", 
      "name": "_plus81", 
      "inputs": [[1030, 0, 0], [288, 0, 0]]
    }, 
    {
      "op": "elemwise_add", 
      "name": "_plus82", 
      "inputs": [[1031, 0, 0], [346, 0, 0]]
    }, 
    {
      "op": "elemwise_add", 
      "name": "_plus83", 
      "inputs": [[1032, 0, 0], [404, 0, 0]]
    }, 
    {
      "op": "elemwise_add", 
      "name": "_plus84", 
      "inputs": [[1033, 0, 0], [462, 0, 0]]
    }, 
    {
      "op": "elemwise_add", 
      "name": "_plus85", 
      "inputs": [[1034, 0, 0], [520, 0, 0]]
    }, 
    {
      "op": "elemwise_add", 
      "name": "_plus86", 
      "inputs": [[1035, 0, 0], [578, 0, 0]]
    }, 
    {
      "op": "elemwise_add", 
      "name": "_plus87", 
      "inputs": [[1036, 0, 0], [636, 0, 0]]
    }, 
    {
      "op": "elemwise_add", 
      "name": "_plus88", 
      "inputs": [[1037, 0, 0], [694, 0, 0]]
    }, 
    {
      "op": "elemwise_add", 
      "name": "_plus89", 
      "inputs": [[1038, 0, 0], [752, 0, 0]]
    }, 
    {
      "op": "elemwise_add", 
      "name": "_plus90", 
      "inputs": [[1039, 0, 0], [810, 0, 0]]
    }, 
    {
      "op": "elemwise_add", 
      "name": "_plus91", 
      "inputs": [[1040, 0, 0], [868, 0, 0]]
    }, 
    {
      "op": "elemwise_add", 
      "name": "_plus92", 
      "inputs": [[1041, 0, 0], [926, 0, 0]]
    }, 
    {
      "op": "elemwise_add", 
      "name": "_plus93", 
      "inputs": [[1042, 0, 0], [984, 0, 0]]
    }, 
    {
      "op": "_rminus_scalar", 
      "name": "_rminusscalar0", 
      "attr": {"scalar": "0.0816326530612"}, 
      "inputs": [[1043, 0, 0]]
    }, 
    {
      "op": "_power_scalar", 
      "name": "_powerscalar0", 
      "attr": {"scalar": "2"}, 
      "inputs": [[1044, 0, 0]]
    }, 
    {
      "op": "sum", 
      "name": "sum16", 
      "inputs": [[1045, 0, 0]]
    }, 
    {
      "op": "_mul_scalar", 
      "name": "_mulscalar32", 
      "attr": {"scalar": "1.0"}, 
      "inputs": [[1046, 0, 0]]
    }, 
    {
      "op": "elemwise_add", 
      "name": "_plus94", 
      "inputs": [[1028, 0, 0], [1047, 0, 0]]
    }, 
    {
      "op": "_div_scalar", 
      "name": "_divscalar0", 
      "attr": {"scalar": "24"}, 
      "inputs": [[1048, 0, 0]]
    }, 
    {
      "op": "MakeLoss", 
      "name": "makeloss0", 
      "inputs": [[1049, 0, 0]]
    }
  ], 
  "arg_nodes": [
    0, 
    2, 
    4, 
    5, 
    6, 
    9, 
    10, 
    14, 
    15, 
    18, 
    19, 
    23, 
    24, 
    27, 
    28, 
    31, 
    32, 
    35, 
    36, 
    40, 
    41, 
    44, 
    45, 
    48, 
    49, 
    52, 
    53, 
    57, 
    58, 
    61, 
    62, 
    65, 
    66, 
    71, 
    73, 
    76, 
    78, 
    82, 
    83, 
    84, 
    85, 
    87, 
    89, 
    91, 
    97, 
    107, 
    108, 
    110, 
    111, 
    117, 
    119, 
    130, 
    132, 
    134, 
    140, 
    142
  ], 
  "node_row_ptr": [
    0, 
    1, 
    18, 
    19, 
    20, 
    21, 
    22, 
    23, 
    24, 
    25, 
    26, 
    27, 
    28, 
    29, 
    30, 
    31, 
    32, 
    33, 
    34, 
    35, 
    36, 
    37, 
    38, 
    39, 
    40, 
    41, 
    42, 
    43, 
    44, 
    45, 
    46, 
    47, 
    48, 
    49, 
    50, 
    51, 
    52, 
    53, 
    54, 
    55, 
    56, 
    57, 
    58, 
    59, 
    60, 
    61, 
    62, 
    63, 
    64, 
    65, 
    66, 
    67, 
    68, 
    69, 
    70, 
    71, 
    72, 
    73, 
    74, 
    75, 
    76, 
    77, 
    78, 
    79, 
    80, 
    81, 
    82, 
    83, 
    84, 
    85, 
    86, 
    87, 
    88, 
    89, 
    90, 
    91, 
    92, 
    93, 
    94, 
    95, 
    96, 
    97, 
    98, 
    99, 
    100, 
    101, 
    102, 
    105, 
    106, 
    107, 
    108, 
    109, 
    110, 
    111, 
    112, 
    113, 
    114, 
    115, 
    116, 
    117, 
    118, 
    119, 
    120, 
    121, 
    122, 
    123, 
    124, 
    125, 
    126, 
    127, 
    128, 
    129, 
    130, 
    131, 
    132, 
    136, 
    137, 
    138, 
    139, 
    140, 
    141, 
    142, 
    143, 
    144, 
    145, 
    146, 
    147, 
    148, 
    149, 
    150, 
    152, 
    153, 
    154, 
    155, 
    156, 
    157, 
    158, 
    159, 
    160, 
    161, 
    163, 
    164, 
    165, 
    166, 
    167, 
    168, 
    169, 
    170, 
    171, 
    172, 
    173, 
    174, 
    175, 
    176, 
    177, 
    178, 
    179, 
    180, 
    181, 
    182, 
    183, 
    184, 
    185, 
    186, 
    187, 
    188, 
    189, 
    190, 
    191, 
    192, 
    193, 
    194, 
    195, 
    196, 
    197, 
    198, 
    199, 
    200, 
    201, 
    202, 
    203, 
    204, 
    205, 
    209, 
    210, 
    211, 
    212, 
    213, 
    214, 
    215, 
    216, 
    217, 
    218, 
    220, 
    221, 
    222, 
    223, 
    224, 
    225, 
    226, 
    228, 
    229, 
    230, 
    231, 
    232, 
    233, 
    234, 
    235, 
    236, 
    237, 
    238, 
    239, 
    240, 
    241, 
    242, 
    243, 
    244, 
    245, 
    246, 
    247, 
    248, 
    249, 
    250, 
    251, 
    252, 
    253, 
    254, 
    255, 
    256, 
    257, 
    258, 
    259, 
    260, 
    261, 
    262, 
    263, 
    264, 
    265, 
    266, 
    267, 
    268, 
    272, 
    273, 
    274, 
    275, 
    276, 
    277, 
    278, 
    279, 
    280, 
    281, 
    283, 
    284, 
    285, 
    286, 
    287, 
    288, 
    289, 
    291, 
    292, 
    293, 
    294, 
    295, 
    296, 
    297, 
    298, 
    299, 
    300, 
    301, 
    302, 
    303, 
    304, 
    305, 
    306, 
    307, 
    308, 
    309, 
    310, 
    311, 
    312, 
    313, 
    314, 
    315, 
    316, 
    317, 
    318, 
    319, 
    320, 
    321, 
    322, 
    323, 
    324, 
    325, 
    326, 
    327, 
    328, 
    329, 
    330, 
    331, 
    335, 
    336, 
    337, 
    338, 
    339, 
    340, 
    341, 
    342, 
    343, 
    344, 
    346, 
    347, 
    348, 
    349, 
    350, 
    351, 
    352, 
    354, 
    355, 
    356, 
    357, 
    358, 
    359, 
    360, 
    361, 
    362, 
    363, 
    364, 
    365, 
    366, 
    367, 
    368, 
    369, 
    370, 
    371, 
    372, 
    373, 
    374, 
    375, 
    376, 
    377, 
    378, 
    379, 
    380, 
    381, 
    382, 
    383, 
    384, 
    385, 
    386, 
    387, 
    388, 
    389, 
    390, 
    391, 
    392, 
    393, 
    394, 
    398, 
    399, 
    400, 
    401, 
    402, 
    403, 
    404, 
    405, 
    406, 
    407, 
    409, 
    410, 
    411, 
    412, 
    413, 
    414, 
    415, 
    417, 
    418, 
    419, 
    420, 
    421, 
    422, 
    423, 
    424, 
    425, 
    426, 
    427, 
    428, 
    429, 
    430, 
    431, 
    432, 
    433, 
    434, 
    435, 
    436, 
    437, 
    438, 
    439, 
    440, 
    441, 
    442, 
    443, 
    444, 
    445, 
    446, 
    447, 
    448, 
    449, 
    450, 
    451, 
    452, 
    453, 
    454, 
    455, 
    456, 
    457, 
    461, 
    462, 
    463, 
    464, 
    465, 
    466, 
    467, 
    468, 
    469, 
    470, 
    472, 
    473, 
    474, 
    475, 
    476, 
    477, 
    478, 
    480, 
    481, 
    482, 
    483, 
    484, 
    485, 
    486, 
    487, 
    488, 
    489, 
    490, 
    491, 
    492, 
    493, 
    494, 
    495, 
    496, 
    497, 
    498, 
    499, 
    500, 
    501, 
    502, 
    503, 
    504, 
    505, 
    506, 
    507, 
    508, 
    509, 
    510, 
    511, 
    512, 
    513, 
    514, 
    515, 
    516, 
    517, 
    518, 
    519, 
    520, 
    524, 
    525, 
    526, 
    527, 
    528, 
    529, 
    530, 
    531, 
    532, 
    533, 
    535, 
    536, 
    537, 
    538, 
    539, 
    540, 
    541, 
    543, 
    544, 
    545, 
    546, 
    547, 
    548, 
    549, 
    550, 
    551, 
    552, 
    553, 
    554, 
    555, 
    556, 
    557, 
    558, 
    559, 
    560, 
    561, 
    562, 
    563, 
    564, 
    565, 
    566, 
    567, 
    568, 
    569, 
    570, 
    571, 
    572, 
    573, 
    574, 
    575, 
    576, 
    577, 
    578, 
    579, 
    580, 
    581, 
    582, 
    583, 
    587, 
    588, 
    589, 
    590, 
    591, 
    592, 
    593, 
    594, 
    595, 
    596, 
    598, 
    599, 
    600, 
    601, 
    602, 
    603, 
    604, 
    606, 
    607, 
    608, 
    609, 
    610, 
    611, 
    612, 
    613, 
    614, 
    615, 
    616, 
    617, 
    618, 
    619, 
    620, 
    621, 
    622, 
    623, 
    624, 
    625, 
    626, 
    627, 
    628, 
    629, 
    630, 
    631, 
    632, 
    633, 
    634, 
    635, 
    636, 
    637, 
    638, 
    639, 
    640, 
    641, 
    642, 
    643, 
    644, 
    645, 
    646, 
    650, 
    651, 
    652, 
    653, 
    654, 
    655, 
    656, 
    657, 
    658, 
    659, 
    661, 
    662, 
    663, 
    664, 
    665, 
    666, 
    667, 
    669, 
    670, 
    671, 
    672, 
    673, 
    674, 
    675, 
    676, 
    677, 
    678, 
    679, 
    680, 
    681, 
    682, 
    683, 
    684, 
    685, 
    686, 
    687, 
    688, 
    689, 
    690, 
    691, 
    692, 
    693, 
    694, 
    695, 
    696, 
    697, 
    698, 
    699, 
    700, 
    701, 
    702, 
    703, 
    704, 
    705, 
    706, 
    707, 
    708, 
    709, 
    713, 
    714, 
    715, 
    716, 
    717, 
    718, 
    719, 
    720, 
    721, 
    722, 
    724, 
    725, 
    726, 
    727, 
    728, 
    729, 
    730, 
    732, 
    733, 
    734, 
    735, 
    736, 
    737, 
    738, 
    739, 
    740, 
    741, 
    742, 
    743, 
    744, 
    745, 
    746, 
    747, 
    748, 
    749, 
    750, 
    751, 
    752, 
    753, 
    754, 
    755, 
    756, 
    757, 
    758, 
    759, 
    760, 
    761, 
    762, 
    763, 
    764, 
    765, 
    766, 
    767, 
    768, 
    769, 
    770, 
    771, 
    772, 
    776, 
    777, 
    778, 
    779, 
    780, 
    781, 
    782, 
    783, 
    784, 
    785, 
    787, 
    788, 
    789, 
    790, 
    791, 
    792, 
    793, 
    795, 
    796, 
    797, 
    798, 
    799, 
    800, 
    801, 
    802, 
    803, 
    804, 
    805, 
    806, 
    807, 
    808, 
    809, 
    810, 
    811, 
    812, 
    813, 
    814, 
    815, 
    816, 
    817, 
    818, 
    819, 
    820, 
    821, 
    822, 
    823, 
    824, 
    825, 
    826, 
    827, 
    828, 
    829, 
    830, 
    831, 
    832, 
    833, 
    834, 
    835, 
    839, 
    840, 
    841, 
    842, 
    843, 
    844, 
    845, 
    846, 
    847, 
    848, 
    850, 
    851, 
    852, 
    853, 
    854, 
    855, 
    856, 
    858, 
    859, 
    860, 
    861, 
    862, 
    863, 
    864, 
    865, 
    866, 
    867, 
    868, 
    869, 
    870, 
    871, 
    872, 
    873, 
    874, 
    875, 
    876, 
    877, 
    878, 
    879, 
    880, 
    881, 
    882, 
    883, 
    884, 
    885, 
    886, 
    887, 
    888, 
    889, 
    890, 
    891, 
    892, 
    893, 
    894, 
    895, 
    896, 
    897, 
    898, 
    902, 
    903, 
    904, 
    905, 
    906, 
    907, 
    908, 
    909, 
    910, 
    911, 
    913, 
    914, 
    915, 
    916, 
    917, 
    918, 
    919, 
    921, 
    922, 
    923, 
    924, 
    925, 
    926, 
    927, 
    928, 
    929, 
    930, 
    931, 
    932, 
    933, 
    934, 
    935, 
    936, 
    937, 
    938, 
    939, 
    940, 
    941, 
    942, 
    943, 
    944, 
    945, 
    946, 
    947, 
    948, 
    949, 
    950, 
    951, 
    952, 
    953, 
    954, 
    955, 
    956, 
    957, 
    958, 
    959, 
    960, 
    961, 
    965, 
    966, 
    967, 
    968, 
    969, 
    970, 
    971, 
    972, 
    973, 
    974, 
    976, 
    977, 
    978, 
    979, 
    980, 
    981, 
    982, 
    984, 
    985, 
    986, 
    987, 
    988, 
    989, 
    990, 
    991, 
    992, 
    993, 
    994, 
    995, 
    996, 
    997, 
    998, 
    999, 
    1000, 
    1001, 
    1002, 
    1003, 
    1004, 
    1005, 
    1006, 
    1007, 
    1008, 
    1009, 
    1010, 
    1011, 
    1012, 
    1013, 
    1014, 
    1015, 
    1016, 
    1017, 
    1018, 
    1019, 
    1020, 
    1021, 
    1022, 
    1023, 
    1024, 
    1028, 
    1029, 
    1030, 
    1031, 
    1032, 
    1033, 
    1034, 
    1035, 
    1036, 
    1037, 
    1039, 
    1040, 
    1041, 
    1042, 
    1043, 
    1044, 
    1045, 
    1047, 
    1048, 
    1049, 
    1050, 
    1051, 
    1052, 
    1053, 
    1054, 
    1055, 
    1056, 
    1057, 
    1058, 
    1059, 
    1060, 
    1061, 
    1062, 
    1063, 
    1064, 
    1065, 
    1066, 
    1067, 
    1068, 
    1069, 
    1070, 
    1071, 
    1072, 
    1073, 
    1074, 
    1075, 
    1076, 
    1077, 
    1078, 
    1079, 
    1080, 
    1081, 
    1082, 
    1083, 
    1084, 
    1085, 
    1086, 
    1087, 
    1091, 
    1092, 
    1093, 
    1094, 
    1095, 
    1096, 
    1097, 
    1098, 
    1099, 
    1100, 
    1102, 
    1103, 
    1104, 
    1105, 
    1106, 
    1107, 
    1108, 
    1110, 
    1111, 
    1112, 
    1113, 
    1114, 
    1115, 
    1116, 
    1117, 
    1118, 
    1119, 
    1120, 
    1121, 
    1122, 
    1123, 
    1124, 
    1125, 
    1126, 
    1127, 
    1128, 
    1129, 
    1130, 
    1131, 
    1132, 
    1133, 
    1134, 
    1135, 
    1136, 
    1137, 
    1138, 
    1139, 
    1140, 
    1141, 
    1142, 
    1143, 
    1144, 
    1145, 
    1146, 
    1147, 
    1148, 
    1149
  ], 
  "heads": [[1050, 0, 0]], 
  "attrs": {"mxnet_version": ["int", 1000]}
}